miniImagenet/vanilla_models/miniImagenet_relation_network_20way_1shot.pkl (torch_old, 526126 bytes, 33 tensors)

layer1.0.weight f4 [64, 2, 3, 3]
00000000: f228 ca3e ab85 92be 5e3a dd3d adea 9cbe
00000010: 60da 873e c710 d13d ffe5 923d 4baf 6cbc
00000020: 9648 8d3d dee8 b93e 22d1 a2be dfce 1ebd
00000030: a65d cabe 03ff 9c3e 46eb 243e 2c3d 603d
00000040: 47fc e53d 70be f93d 6a3f 033f 811d 75be
00000050: 0aa8 00be 504a 10be 4831 51be e1a2 e1bb
00000060: 403c 81be bb37 aa3d 9498 f3bd 68d9 043f
00000070: f854 58be 8c4e 08be 3175 fcbd 9b5c 47be
00000080: 4b70 8e3c 9964 8abe 0d42 9e3d 708b 02be
00000090: e13d 4c3c 3c26 aebb 3ca9 45bd 88af 113f
000000a0: d2f4 28be 0fde 2c3e 211d 70be 5198 aabd
000000b0: 70da ab3c bbfa 88bc 8ef2 b03c bc0f cdbd
000000c0: 3483 163f 878c 0cbe 77bd 3e3e 9ff4 56be
000000d0: 6418 8fbd 7cd4 9b3d 0e3a 8fbd f932 273e
000000e0: 4578 6e3d 5059 c33d d80e 9abd d093 1a3f
000000f0: c887 a0bb ee2a 9cbd 71c5 6abe aed6 9cbd
00000100: 9915 7b3e 5e7e 3d3d eb8b 0e3d 51e1 aabd
00000110: 2d1c 273f 1501 70bd eb5c d2bc 8e4f 8cbe
00000120: 589f d4bc 8c3a a7be be41 073f e457 e0bc
00000130: fd35 2dbe 0806 26be 07ba 3ebd e7b3 3e3e
00000140: d425 b5bd 127f 4fbc d724 b9be 42a8 093f
00000150: 4dbe ecbc e467 27be 2c7e 3abe 182d 9dbd
00000160: cf29 4a3e 5f89 dabd cdd4 3dbe e11d 053d
00000170: efe4 00bd 24dc 033f 8bad 243d e620 6fbe
00000180: 8e79 c4bd 16ef 94be 3393 553e 55ee 2dbe
00000190: c572 073e 58b1 e0bc afd9 063f 8b8e 033d
000001a0: d1ee 62be d7db e2bd 26ae 8abe 36f6 563e
000001b0: 9bd6 5abd 0032 003c fd1b 1fbe 69a6 70bd
000001c0: 5dfd 0ebe cf18 203f 0170 1f3c 06a9 3bbe
000001d0: 9e44 a33c d555 b5bd 5da0 333d 3215 27be
000001e0: c29b 1abc 0ff5 03be b181 263f cee2 9c3d
000001f0: ad7f 1bbe ed89 b93c 0564 0f3e ef96 99be
00000200: 1966 5c3e cdf5 963e 7a48 12be 4c12 34be
00000210: ec42 9fbe 675f af3e b755 f33c 1db7 b43d
00000220: 7491 95be 8258 5d3e 721b 723e a070 35be
00000230: 0e64 f0bd 131a acbe e186 ac3e 9bd4 413c
00000240: c565 903c 68d1 453e 935a 73be 73bc 203e
00000250: 4933 adbd 187b 17be 4386 dcbd 0ac2 03be
00000260: acd0 0c3f 8413 203d 2262 1e3e 78c7 97be
00000270: b149 de3d 5ea6 9bbd f7f2 e0bd a106 f3bd
00000280: 9176 1cbe 335b 153f 29c8 8ebd d51e c3bd
00000290: c8b7 a7bd 8f29 843e 4482 f63e 3939 9abe
000002a0: e954 bfbd 1f3a e2bd afcd 6dbc 732c e8bd
000002b0: 94a7 55bd 3b01 c3bd 9883 5b3e b898 f93e
000002c0: b4b1 99be b350 d3bd 191b 0abe 1f68 e73b
000002d0: 7d6a 3c3e ac2f bdbc f617 babd b8df 8f3e
000002e0: 1268 9fbe 8c4d 653e de0e 27be eb55 7f3e
000002f0: 1d22 183c 5284 0abe 55fa 1d3e 659a 0dbd
00000300: 6458 97bd 8f49 053f 08e6 76bc c917 66bb
00000310: 96e7 89be 8b43 afbe dad1 1ebe d3d5 afbd
00000320: f6d7 df3e a46d b73e db67 74be 73c9 17be
00000330: d7f4 0cbd 2194 9e3e 67ff 42be d7e6 cbbd
00000340: 7678 a73d 112d b8be e580 abbd 1f62 853e
00000350: 8f08 563e a4c5 f6bd 6e8d 75be 8216 333e
00000360: a6e3 ddb9 3983 e33c 53b9 ae3c 71e5 d43d
00000370: df46 22be 4d0b 203f bad0 2cbe d6a8 31bd
00000380: 1f30 aebd aaa6 d7bc 3968 ac3d e390 e83c
00000390: 8641 d53d 0e08 1cbe b423 343f 9947 1dbe
000003a0: cb45 4fbc 86a3 2cbd 9d5b 1cbe 5941 133c
000003b0: 61b8 76bd 4df8 1c3f 6c96 1abe 274f cc39
000003c0: 0d21 ccbd 36d9 9abd 56e3 2f3d fd1c 07be
000003d0: a404 923b d389 c6bd 0431 243f ef4a 22be
000003e0: ad9f ae3c 35e7 cabd faf6 33bd 3c9a fa3d
000003f0: c920 aebe 6c4f dd3e e3e9 68bd 044d 68bd
0.39484364 -0.28617606 0.10802148 -0.30647793 0.26533794 0.10208278 0.071727745 -0.01444609
0.0689861 0.36310476 -0.3180018 -0.038771506 -0.39524573 0.30663309 0.16105375 0.054745838
0.11229759 0.12194526 0.5126864 -0.23937036 -0.12564102 -0.14090848 -0.20428956 -0.0068858718
-0.2524128 0.08311411 -0.11894336 0.51894236 -0.21126163 -0.13311213 -0.1232704 -0.1946892
0.01738753 -0.27029875 0.07727442 -0.12748504 0.012465925 -0.0053146165 -0.048257098 0.56908464
-0.16499642 0.16881584 -0.23448612 -0.08329833 0.020978183 -0.01672112 0.021600034 -0.10012767
0.5879395 -0.13725482 0.18626963 -0.20991753 -0.06987074 0.076088876 -0.06993495 0.16328038
0.058220167 0.095385194 -0.075223625 0.60381794 -0.004898999 -0.07625376 -0.2292688 -0.076581344
0.24519958 0.04626309 0.034801405 -0.08343757 0.6527737 -0.058594782 -0.025679072 -0.27404445
-0.025954887 -0.32661855 0.5283469 -0.02738566 -0.16915126 -0.16213238 -0.04656413 0.18623315
-0.08845106 -0.012664573 -0.3616092 0.53772366 -0.028899336 -0.16348225 -0.18212193 -0.076746166
0.19742511 -0.10670733 -0.18538208 0.032499198 -0.031468328 0.5150778 0.040204566 -0.23352394
-0.09593497 -0.29088658 0.20856933 -0.16985448 0.13227375 -0.027428314 0.5267591 0.03211836
-0.22161414 -0.110770874 -0.2708599 0.2099236 -0.05342732 0.007824421 -0.1553802 -0.05875245
-0.13963838 0.62537855 0.009731294 -0.18326196 0.01993018 -0.08854262 0.043854106 -0.16316679
-0.00943655 -0.12886451 0.65041643 0.07660447 -0.15185423 0.022648776 0.14002998 -0.29997966
0.21523322 0.29484406 -0.1428546 -0.17585105 -0.31105745 0.34252474 0.029703958 0.088239886
-0.29212534 0.21615794 0.23643282 -0.17718744 -0.11737834 -0.33613643 0.33696654 0.011830474
0.017626652 0.19318163 -0.2376502 0.15696888 -0.084570475 -0.1479305 -0.10767796 -0.12866989
0.5500591 0.03908111 0.15467122 -0.2964437 0.10853899 -0.076000914 -0.10983842 -0.11866499
-0.15279604 0.58342284 -0.06971771 -0.09527365 -0.0818935 0.25812957 0.4814626 -0.30121782
-0.09342367 -0.11046242 -0.014514371 -0.11336603 -0.052161768 -0.09521719 0.21436918 0.48749328
-0.3001839 -0.103181265 -0.134869 0.0070619727 0.18399997 -0.02309402 -0.090866014 0.2810037
-0.31134087 0.22392863 -0.16314265 0.24935119 0.009285477 -0.13527039 0.15427525 -0.03457107
-0.07389906 0.52065367 -0.015069492 -0.0035109392 -0.269345 -0.3423122 -0.1550974 -0.085857056
0.43719453 0.35825837 -0.23867743 -0.1482294 -0.034413185 0.30972388 -0.19042741 -0.099561386
0.08177273 -0.35971883 -0.08374194 0.26051423 0.20901702 -0.12049416 -0.23979732 0.17489055
-0.00042322016 0.027772533 0.021328604 0.10395325 -0.15847348 0.62517244 -0.16876498 -0.043373905
-0.08505272 -0.026324589 0.084183164 0.0283894 0.10412888 -0.15237448 0.7036698 -0.15359344
-0.012650917 -0.042148136 -0.15269323 0.008987748 -0.06023443 0.61316377 -0.15096444 0.00038968885
-0.099672414 -0.07560961 0.042941414 -0.13194652 0.0044561196 -0.09694257 0.6413729 -0.15848897
0.021316374 -0.099073805 -0.043936707 0.12236449 -0.34009388 0.43224657 -0.056863677 -0.056714073

layer1.0.bias f4 [64]
00000000: 91e5 9fbe 75fb f3bd 2253 3fbe f98f 823d
00000010: 6437 87bf bbad d6be 641a ccbd 12ec 43bf
00000020: 4213 8a3b d021 24be 0a4c 053f bcd0 933f
00000030: 4596 c33d d972 48be ccec 83be f3ef a3be
00000040: f31f 223d 9427 26be 062e bfbe b642 c43e
00000050: 8ce7 563b a27c ccbd 31a6 c0bd 4b75 49be
00000060: 9942 cdbe cdda 3bbe 27b9 8cbe 79f0 8fbd
00000070: adc9 84bf c577 013d 1765 67bf a245 eb3b
00000080: 2b52 cb3d 4a9f 55be a790 1bbe 2365 dcbe
00000090: 9499 f3be 396b ccbe 61ca f4be d76d 84be
000000a0: f21e 29bf 8758 7abe c3d4 c33e 37f7 dabe
000000b0: d4e3 9f3d 3d9a 92be a1b9 e1be 23a7 22bb
000000c0: d347 f63d 7b25 f83e 766e adbe 00aa 28bf
000000d0: 7ff4 6fbe a497 c73e 0bbe 5c3c 6c90 31bf
000000e0: b390 8a3d 50f8 53be cef5 1abe a222 2cbd
000000f0: d009 11be 80ee c23d b1ee 18bf 7ce6 f0be
-0.31229833 -0.11913196 -0.18684056 0.06375117 -1.0563779 -0.4192942 -0.09965971 -0.7653209
0.0042137215 -0.16028523 0.5206915 1.1548076 0.09550146 -0.19575061 -0.257666 -0.32019004
0.03958125 -0.16226035 -0.373398 0.38332146 0.0032791821 -0.09984709 -0.094066985 -0.1967365
-0.40089872 -0.18345185 -0.2748501 -0.070282884 -1.0374047 0.03160836 -0.90388626 0.0071799317
0.09927782 -0.20861545 -0.15191899 -0.4304591 -0.47578108 -0.39925554 -0.47810653 -0.2586505
-0.66062844 -0.24447833 0.38248262 -0.42766735 0.07807127 -0.286333 -0.44086936 -0.002481886
0.12025418 0.48466095 -0.33873338 -0.658844 -0.23433112 0.3898288 0.013473044 -0.69360995
0.067658804 -0.20700192 -0.1513283 -0.042025216 -0.141639 0.095181465 -0.59739214 -0.47050846

layer1.1.weight f4 [64]
00000000: 274f 0c41 a087 d940 bff1 3341 c6b5 1b41
00000010: c475 0f41 9fc9 2041 64bf 2e41 056a d940
00000020: 034b db40 5c8c 2b41 7c41 a440 931a 7d40
00000030: 9cd0 3741 9920 2c41 0ed6 1c41 4bc5 8b40
00000040: da8d 1241 eb12 1d41 91c1 9440 ecaa 0a41
00000050: 3085 7740 d4e6 2541 60c2 1141 9b7b e440
00000060: e370 d340 794d 2441 4074 8f40 28b3 1241
00000070: d824 ae40 1f5b 2741 d131 cc40 f909 2b41
00000080: 76eb 0141 b9db 4341 668f 2041 ed23 3441
00000090: f4ac 9340 cca4 af40 d470 cd40 59ea 2041
000000a0: 8caf 0341 b859 c440 df31 7d40 bac1 2d41
000000b0: fac4 0141 6202 3d41 bb07 e140 5910 2c41
000000c0: f924 bf40 6392 8740 f4ea ba40 1b4e ae40
000000d0: 53d9 1d41 8a0b 6c40 b706 2d41 2bda d340
000000e0: 67ee 0d41 0e6d 2341 1f20 b540 12eb 2641
000000f0: c684 d740 5ab4 8840 ce8c 3a41 cbf3 9540
8.769324 6.797806 11.24652 9.731878 8.966251 10.049224 10.921726 6.794192
6.8529067 10.721767 5.1329937 3.954747 11.48843 10.757958 9.802259 4.3678336
9.159632 9.817119 4.6486287 8.666729 3.8675041 10.3688545 9.109955 7.1400886
6.60753 10.268914 4.4829407 9.168739 5.4419975 10.459746 6.381081 10.689935
8.119986 12.241143 10.035009 11.258771 4.6148624 5.488867 6.420023 10.057214
8.230358 6.135952 3.956169 10.859797 8.11059 11.813082 7.0321937 10.753991
5.9732633 4.2366195 5.841181 5.4470344 9.865558 3.6882043 10.814139 6.620382
8.870704 10.214125 5.660171 10.43239 6.7349577 4.2720156 11.659376 4.68601

layer1.1.bias f4 [64]
00000000: 7291 3442 9be2 3142 1f4a 3242 94f9 2e42
00000010: caa0 3042 61bf 3242 d753 3242 23ea 2c42
00000020: 5a0c 3442 7bd3 3142 fc98 3542 6175 2d42
00000030: b5c6 3142 937c 3142 a514 3242 2a63 3542
00000040: f5b4 3442 7862 3342 15a6 3642 87b5 2842
00000050: e24b 3442 5091 3142 35b0 3242 0151 3142
00000060: 86dc 3542 fd8f 3442 2def 3642 9bc6 3242
00000070: bdcb 3342 86e4 3042 61a1 3142 75fa 3242
00000080: 84fd 3342 0d51 3242 779f 3242 7447 3242
00000090: 0f90 3442 6af1 3042 8165 3342 e062 3342
000000a0: 16bd 3042 75c9 3442 7a8b 3242 c144 3142
000000b0: c1a4 3242 35cd 3342 dced 3142 668a 3142
000000c0: be99 2842 85a2 3542 e293 3442 4e7c 3442
000000d0: 5502 3242 85ab 3242 6047 3142 77e7 3042
000000e0: 459f 3042 13f8 3342 17ef 3142 c327 3042
000000f0: 3068 3542 6df0 3642 dedb 3242 ff3a 3442
45.142036 44.471294 44.572384 43.74373 44.15702 44.686893 44.581875 43.22865
45.012062 44.456524 45.3994 43.364628 44.44405 44.371655 44.52016 45.34684
45.176716 44.84616 45.66219 42.177273 45.074104 44.391907 44.672077 44.329105
45.465355 45.140614 45.73357 44.69395 44.948963 44.223167 44.407597 44.744587
44.997574 44.57915 44.655727 44.56978 45.140682 44.235756 44.849125 44.846558
44.184654 45.196735 44.636208 44.317142 44.660892 44.950397 44.482285 44.385155
42.15014 45.40871 45.144417 45.12139 44.502277 44.6675 44.319702 44.22604
44.155537 44.99226 44.483486 44.03883 45.351746 45.73479 44.714714 45.057613

layer1.1.running_mean f4 [64]
00000000: 6096 e9bd 01ff b5be c84a 20bd c37b 993e
00000010: 1ec9 91bf df86 cebe 3804 9cbc 8ed6 3fbf
00000020: 9e3a bc3d ec2d 45be 74a0 0f3f 3213 963f
00000030: 6b4b a03e ebc0 c5bd 14b7 a8be b992 59be
00000040: 7362 b23e ec52 ce3c ac04 f1be bf6c ed3e
00000050: 4973 5dbb c6db 88bd f6a9 e5bc 981e 153e
00000060: 66e5 a4be bec8 97bd f2fa c2be 6997 3fbe
00000070: 57e3 96bf 845d 573e 55b2 70bf 38ea c73d
00000080: 6241 883e 1378 acbd 40a3 d1bd 84bb eabe
00000090: 896a afbe e39b 81be ebc5 dabe 2adb 44bd
000000a0: 0454 4fbf f717 253d 9f75 a43e eda1 a3be
000000b0: 9b84 8f3e 2bbe a5be 5638 11bf dae5 a3bc
000000c0: 30c0 153e 6dbb e83e 7457 6ebe 885d 13bf
000000d0: 6fb1 fbbd 98a2 463e ef0a 0e3e 48b3 21bf
000000e0: cd73 4f3e e4db c5bd b1c9 b53e e941 fbbd
000000f0: 289a bc3e 5e37 7cbd f91c 09bf b41f 04bf
-0.11405635 -0.35546115 -0.039133817 0.29977235 -1.1389501 -0.40337273 -0.01904498 -0.7493676
0.09190868 -0.19255799 0.5610421 1.1724608 0.3130754 -0.09655937 -0.32952178 -0.21247377
0.34840736 0.025186025 -0.47073877 0.4637203 -0.003379064 -0.066825435 -0.028035145 0.14562452
-0.32206267 -0.074113354 -0.3808208 -0.18710102 -1.1788129 0.21031767 -0.94022113 0.097614706
0.26612383 -0.0842134 -0.102362156 -0.45846188 -0.34260967 -0.25314245 -0.42729124 -0.048060574
-0.8098757 0.040306058 0.32120988 -0.31959477 0.28030857 -0.3237165 -0.56726587 -0.020007063
0.14624095 0.45455495 -0.23275548 -0.5756459 -0.12289702 0.19397962 0.13871358 -0.63164186
0.20259018 -0.096610814 0.3550544 -0.12268431 0.36836362 -0.06157624 -0.53559834 -0.51610875

layer1.1.running_var f4 [64]
00000000: d8a2 883d 35f0 423d 66b9 ac3d 0a45 ba3d
00000010: f00a 743d 5693 453d 887b 993d 702e 2c3d
00000020: c791 1c3d a523 813d 3c42 223d 6e5b d53c
00000030: af06 c53d 8bcc 943d 263b 813d 2ec9 163d
00000040: b1bf cf3d e203 a93d 019b a13c 5b1d bd3d
00000050: 176e 1d3d 2bdb 8b3d f460 8f3d 8da0 043e
00000060: 9ba9 2d3d a490 963d 4910 ea3c e695 803d
00000070: 96d5 5f3d 13c4 9f3d 6c17 343d b9f2 713d
00000080: 06cb cc3d 8b7e 933d f8ea 9c3d b8ab 7f3d
00000090: 3fac 523d c391 363d cda5 123d f158 a23d
000000a0: cd43 6e3d 3c23 033e 1308 e23c c071 a03d
000000b0: e4c7 de3d e3aa 7b3d 090f 133d eb02 953d
000000c0: 8ef7 d43d 329e f13c e914 293d 23f5 133d
000000d0: d16b 993d 935a 0f3d 694e 9a3d aefd 7e3d
000000e0: 9f33 f63d 27dc 9a3d 96cb 023e 51b9 7f3d
000000f0: 3837 fb3d 992e 213d 1714 983d 2d6b 303d
0.06671685 0.04759236 0.084337994 0.090951994 0.059580743 0.048236214 0.07494265 0.042036474
0.03822496 0.06305627 0.039613947 0.026044574 0.096204154 0.07265576 0.0631011 0.036812954
0.10143984 0.08252694 0.019727232 0.09234115 0.038435068 0.06828912 0.07000914 0.1295187
0.042398077 0.07351807 0.028572218 0.06278591 0.05464705 0.0780107 0.04396765 0.05906937
0.09999661 0.072018705 0.07662004 0.062419623 0.051433798 0.044572603 0.03580265 0.079271205
0.05817013 0.1280641 0.02759174 0.07834196 0.1087797 0.061442267 0.03590301 0.07275947
0.1039878 0.029494379 0.041279707 0.036122452 0.074912675 0.034998488 0.07534487 0.062253647
0.12021565 0.07561522 0.12772974 0.06243259 0.122663915 0.03935108 0.07425707 0.04307096

layer2.0.weight f4 [64, 64, 3, 3]
00000000: 26e7 9bc0 ff7e c5c0 2dda bbc0 673d b7c0
00000010: b700 c3c0 5b9f bac0 70e5 b7c0 0f03 bbc0
00000020: db1a 9bc0 c324 41c0 1bee 91c0 d7b3 85c0
00000030: 801a 64c0 aee0 8ac0 9d23 92c0 a19c 57c0
00000040: 38f4 a8c0 e3f5 8ec0 552a 83c0 8fa6 b7c0
00000050: 5bc7 a1c0 860d 67c0 ae5c 93c0 0238 8dc0
00000060: 3a8a 64c0 6689 94c0 b925 82c0 e288 c3c0
00000070: e9e6 b5c0 9281 93c0 3587 93c0 961b 8dc0
00000080: 7c26 91c0 c7fc 91c0 3cea 91c0 855a 85c0
00000090: cbad 9bc0 cf89 7ac0 ca4c 64c0 f798 98c0
000000a0: 899c 90c0 10d9 8dc0 3eb8 adc0 4ece 91c0
000000b0: c4f1 90c0 fb50 7cc0 253f b1c0 2f47 93c0
000000c0: 7e87 4ac0 3b2f 8ec0 5f7f 6dc0 958c 54c0
000000d0: 1d69 9ac0 6b20 86c0 59aa c1c0 005b 91c0
000000e0: 85d9 85c0 8edf 80c0 698e 7ec0 8fda 70c0
000000f0: f349 8ec0 df90 6fc0 c213 65c0 0ee5 b2c0
00000100: 3ca1 aec0 85c0 b8c0 172d a6c0 b7f8 bdc0
00000110: b624 b4c0 92f5 a9c0 6342 aec0 6f09 b2c0
00000120: 7250 8dc0 1f77 b7c0 e62e 93c0 8913 9dc0
00000130: ddcc 86c0 b9ab 8bc0 6eec 82c0 8c33 94c0
00000140: 5a00 52c0 4e0e 90c0 6386 9bc0 1944 8ac0
00000150: 4faa 8cc0 bd20 4dc0 70a1 52c0 346d 98c0
00000160: f426 7fc0 1fb6 5ac0 bbd5 8ec0 d10c 96c0
00000170: a876 97c0 078a 9ac0 5200 90c0 7eea 8bc0
00000180: b2f0 a2c0 37ce 95c0 c7a4 99c0 b20d a3c0
00000190: ec67 a8c0 f00f a3c0 c670 abc0 46af 99c0
000001a0: 8dbb a3c0 5087 a9c0 d6c3 98c0 ff71 99c0
000001b0: ebc0 afc0 8e89 afc0 7479 96c0 f77a 8ec0
000001c0: d000 87c0 0bfa 83c0 4a79 93c0 042c 87c0
000001d0: 4db4 79c0 dfe6 5ac0 541d afc0 7018 94c0
000001e0: 9e6a 34c0 8f3a 8ac0 e945 84c0 0ad7 42c0
000001f0: 35e9 91c0 a925 87c0 237b 8ac0 e907 a8c0
00000200: 66c9 85c0 e895 9fc0 7d80 95c0 ca0d 8fc0
00000210: 74be acc0 39de 95c0 4835 79c0 8154 abc0
00000220: ee5c aec0 0452 a8c0 3028 9ac0 e22a a3c0
00000230: 9907 acc0 0fe6 9fc0 d433 9ac0 5a10 9bc0
00000240: 8b04 8dc0 5fcb c8c0 26b4 bac0 8d25 a3c0
00000250: a375 b9c0 6d17 bcc0 527d a1c0 60cc cbc0
00000260: 916a a4c0 8437 76c0 85ea bcc0 08cf b1c0
00000270: 8e17 96c0 a610 bbc0 a27c c1c0 287e 9ac0
00000280: 135f ccc0 79d5 98c0 5317 8bc0 8a70 83c0
00000290: f0eb 9ec0 c152 87c0 ed00 83c0 2ffe 98c0
000002a0: 932c 86c0 a1d4 82c0 ec72 94c0 4f50 a5c0
000002b0: 5d08 92c0 ef10 7ec0 858c a5c0 14d0 a7c0
000002c0: a081 99c0 1aa4 c3c0 52d9 9ac0 e5bd 8ec0
000002d0: 15c7 b1c0 f461 a0c0 df3b adc0 00c1 b3c0
000002e0: 360e a9c0 4b44 a7c0 ad33 b5c0 d91d a3c0
000002f0: e6fb a6c0 5948 87c0 f93b 99c0 87b1 92c0
00000300: 7bab 81c0 3876 62c0 ced9 46c0 0bc1 78c0
00000310: f5a9 75c0 04b6 5bc0 c719 99c0 cf2e b4c0
00000320: e9c9 9ec0 deb0 9ec0 3396 84c0 5a4b 84c0
00000330: 1503 7dc0 f02f 8ec0 458d 5bc0 103f 88c0
00000340: 91d2 cbc0 8789 c1c0 7045 a8c0 e5f3 bec0
00000350: 25c9 b3c0 8329 98c0 a857 c1c0 9355 94c0
00000360: 8192 9ec0 88af aac0 f4e8 9ec0 81d3 8bc0
00000370: c48e 92c0 b9a3 94c0 98c1 85c0 8934 93c0
00000380: 14c0 83c0 a06c bac0 1e85 a4c0 1955 93c0
00000390: f833 97c0 5ba9 86c0 2cc0 82c0 090d 9bc0
000003a0: 074a 8bc0 b536 7ec0 2e8a abc0 3d02 a0c0
000003b0: 492c a7c0 bfc6 8dc0 6ea8 91c0 2bfa 9ac0
000003c0: f8d2 9dc0 5052 93c0 e05f a0c0 6f1a 65c0
000003d0: 9e2b 92c0 f4df a9c0 f4d2 48c0 4fd3 a2c0
000003e0: 5102 8cc0 b51a 69c0 b735 86c0 e726 93c0
000003f0: dd2a 9bc0 aa95 94c0 f7ad a0c0 28cc 96c0
-4.8719664 -6.1717525 -5.870383 -5.7262454 -6.0938373 -5.8319526 -5.7467575 -5.8441234
-4.8470283 -3.0178688 -4.5603156 -4.178203 -3.5641174 -4.3399267 -4.5668473 -3.3689349
-5.279812 -4.4675155 -4.0989175 -5.739082 -5.0555854 -3.6102004 -4.6050634 -4.413087
-3.5709367 -4.6417723 -4.067105 -6.1104593 -5.6844373 -4.6095667 -4.610255 -4.4096174
-4.535948 -4.5621066 -4.559843 -4.1672997 -4.864965 -3.9146612 -3.5671868 -4.7686725
-4.5191083 -4.432747 -5.4287405 -4.5564337 -4.5295124 -3.9424427 -5.538958 -4.6024394
-3.1645198 -4.4432654 -3.710899 -3.3210804 -4.825331 -4.1914573 -6.0520444 -4.5423584
-4.1828027 -4.0272894 -3.977442 -3.7633398 -4.446527 -3.7432172 -3.579331 -5.590461
-5.457182 -5.773501 -5.193004 -5.9366107 -5.6294813 -5.311227 -5.445604 -5.5636516
-4.41607 -5.733291 -4.599475 -4.9086347 -4.2125077 -4.364712 -4.091361 -4.6312923
-3.2812715 -4.501746 -4.8601546 -4.3208127 -4.3957896 -3.2051232 -3.2911034 -4.7633305
-3.9867525 -3.4173658 -4.46359 -4.6890645 -4.7332344 -4.829349 -4.500039 -4.3723745
-5.0918818 -4.6814227 -4.8013644 -5.095422 -5.262686 -5.0956955 -5.3575163 -4.8026457
-5.1166444 -5.2977676 -4.7739058 -4.7951655 -5.4922996 -5.4855413 -4.702326 -4.4525104
-4.218849 -4.124273 -4.608556 -4.224123 -3.9016297 -3.4203413 -5.47233 -4.627983
-2.8190074 -4.3196483 -4.133534 -3.044375 -4.5597177 -4.223347 -4.3275313 -5.2509656
-4.180835 -4.987049 -4.6719346 -4.470433 -5.3982487 -4.683377 -3.893877 -5.3540654
-5.448844 -5.2600117 -4.8174057 -5.0989847 -5.3759274 -4.9968333 -4.8188267 -4.845746
-4.4068046 -6.2748256 -5.834491 -5.098334 -5.79561 -5.8778596 -5.046548 -6.368698
-5.1380086 -3.8471384 -5.903628 -5.5565224 -4.6903753 -5.8457823 -6.046464 -4.8279
-6.3866057 -4.7760587 -4.346597 -4.1074877 -4.966301 -4.228852 -4.093863 -4.7810283
-4.192941 -4.0884557 -4.6390285 -5.1660533 -4.563521 -3.9697835 -5.1734033 -5.24415
-4.7970734 -6.113782 -4.8390284 -4.4606805 -5.555552 -5.011957 -5.4135585 -5.6173096
-5.2829847 -5.2270865 -5.662558 -5.0973935 -5.2182493 -4.2275815 -4.788571 -4.584171
-4.0521827 -3.5384655 -3.1070437 -3.8867824 -3.8384984 -3.4329844 -4.7843966 -5.630714
-4.962147 -4.95909 -4.143335 -4.134198 -3.953313 -4.4433517 -3.4304974 -4.257698
-6.369454 -6.048038 -5.2584763 -5.9672723 -5.618304 -4.7550673 -6.04195 -4.635446
-4.955384 -5.333927 -4.9659367 -4.3695683 -4.5799274 -4.6449857 -4.179882 -4.600163
-4.117197 -5.82576 -5.1412497 -4.604138 -4.725094 -4.2081733 -4.0859585 -4.845341
-4.3527865 -3.972089 -5.3606176 -5.000273 -5.224156 -4.430511 -4.5518103 -4.843038
-4.932003 -4.603798 -5.0117035 -3.5797384 -4.5678244 -5.308588 -3.1378756 -5.0882945
-4.375283 -3.642255 -4.194057 -4.598499 -4.8489823 -4.6432695 -5.021236 -4.7124214

layer2.0.bias f4 [64]
00000000: 974f 49c0 513f c5c0 c459 bebf 2969 49c0
00000010: 0aca 96c0 3145 1fc0 faed 1fc0 bc57 7cc0
00000020: ebf6 8dc0 96e3 00c0 10f2 15c0 4983 d1bf
00000030: ea8e dfbf fa4f 8dc0 a3ea 32c0 6e10 34c1
00000040: 8c1c 84c0 c1c9 18c0 a67e f2bf b3c6 83c0
00000050: 70ea 2ac0 cdbf 6ac0 7988 e9bf f05d 17c0
00000060: e50f d2bf 7da3 40c0 288b f3c0 66f7 0fc0
00000070: 1db8 1fc0 2b4a 98c0 462c d3c0 befd 3ac0
00000080: d56e 10c0 145d 71c1 8d8c 8bc0 24f4 adbf
00000090: 0336 b0c0 9f0d 48c0 d213 2ac0 aff8 23c0
000000a0: 13a2 8bc0 3c5f 17c0 c4b5 25c0 4559 33c0
000000b0: 2df2 26c0 c139 02c0 c701 36c0 4e9a 11c1
000000c0: 6738 69c0 2e43 efbf 91a6 c7c0 27d6 f5bf
000000d0: b235 81c0 8c0a 95c0 62af 5bc0 3844 c5c0
000000e0: 06cb cdbf e3aa 6cc0 4621 87c1 aa2c 5ac0
000000f0: 52f9 e9c0 f0e4 c9bf 4bfe 4fc0 62ee 43c0
-3.1454828 -6.163979 -1.4871144 -3.1470435 -4.712163 -2.488598 -2.4989 -3.942855
-4.4363914 -2.0138907 -2.3428993 -1.636819 -1.7465489 -4.416013 -2.795571 -11.254011
-4.1284847 -2.387314 -1.89449 -4.1180053 -2.670559 -3.6679566 -1.8244773 -2.3651085
-1.6411101 -3.0099785 -7.610737 -2.249475 -2.4956124 -4.7590537 -6.5991545 -2.9217372
-2.2567647 -15.085224 -4.360907 -1.3590131 -5.506593 -3.1258314 -2.6574597 -2.5620534
-4.3635345 -2.3651876 -2.589219 -2.8023236 -2.6085312 -2.034775 -2.8438585 -9.100172
-3.6440675 -1.8692377 -6.239083 -1.9205979 -4.0378046 -4.6575375 -3.4325795 -6.1645775
-1.6077583 -3.69793 -16.891247 -3.408976 -7.3116846 -1.5772991 -3.2498958 -3.0614247

layer2.1.weight f4 [64]
00000000: 7a64 1a3f fc2e a43f 634c 9ebc 142b 323f
00000010: ab7b 2c3f 06d1 c1bb 02b8 9bbb 2331 883f
00000020: 9a55 b23f b08e bfbb ddf4 c5bb 0c2f 98bb
00000030: da3b 0ebd 8770 973f 4efa 0f3c e911 b83f
00000040: a1ad f93e fbf9 2c3e 559f 97bb 8dec 8f3f
00000050: 9fa0 6b3e a944 803f b9bb 58bb 9b50 c6bb
00000060: 1b13 8abb fcce c73e 3fec 7a3f ef57 bcbb
00000070: 3f84 983d 4321 993f 02b3 c93f dd95 1c3f
00000080: 5f7d 6e3b c255 e73f f9df 8d3f 2daf 4ebd
00000090: 9b46 9f3f 3617 0b3f 91d2 bc3e 96f1 9cbb
000000a0: e4cf 1c3f abdb 8d3d 0dc4 583d 065d da3e
000000b0: 8c34 aebb 6a8e abbb a5cf a43e 83fd ad3f
000000c0: 1342 673f 9f77 9cbb ed6b 6f3f 9936 99bb
000000d0: 7fb4 fe3e 5418 9b3f bac7 803e 1643 c03f
000000e0: 4648 1fbb b2ff 843f e364 0340 5d7a 2b3f
000000f0: 9b54 eb3f 0250 8dbb 3028 593f bffc 8d3d
0.60309565 1.2826838 -0.019323533 0.6959698 0.673762 -0.00591481 -0.00475216 1.0639995
1.3932374 -0.005845867 -0.006041153 -0.0046442803 -0.034725048 1.1831216 0.008787705 1.4380466
0.4876528 0.16892235 -0.004627148 1.1244065 0.23010491 1.0020953 -0.0033070876 -0.0060520894
-0.0042137033 0.39025104 0.9801673 -0.005747787 0.07447099 1.1963276 1.5757754 0.61166173
0.0036390645 1.8073046 1.1083976 -0.05046003 1.2443422 0.5433229 0.368794 -0.0047895415
0.61254716 0.06926664 0.052921344 0.42649096 -0.0053163227 -0.005235483 0.3218967 1.3592991
0.90335196 -0.004775002 0.93524057 -0.004675698 0.49747083 1.2116799 0.2515238 1.5020473
-0.0024304553 1.0390532 2.0530326 0.66983587 1.8385195 -0.004312516 0.84826946 0.06932973

layer2.1.bias f4 [64]
00000000: 9b3f fb41 491c 1b40 d128 1f42 ea05 0442
00000010: 716c b141 362b 1042 056f 2142 26b4 d141
00000020: 7d50 9d40 c613 1d42 fe52 0442 f546 1e42
00000030: 9529 1742 e27e fc40 63cc 0d42 74dd 3140
00000040: f0c3 fc41 5720 0842 594d 2142 67b1 4a41
00000050: a221 0f42 d50c df41 5533 1e42 f41b fc41
00000060: d9f0 1142 6a12 0342 b52a 2e40 6f16 1642
00000070: ce43 1342 d030 cc40 372b bf3f 6ac7 1542
00000080: f70d 1842 1011 8040 6859 a241 8c2b 2242
00000090: 3204 1440 dce8 0442 1b0f 0e42 f0d5 1b42
000000a0: f92e d041 ac42 1442 b9c3 0642 8358 1542
000000b0: 935f 1e42 79ea 2042 9dbe 0842 7c33 b23f
000000c0: 2eb3 9341 e61b 1c42 5707 9b41 44d9 1442
000000d0: d11a cc41 a0cc 2f40 7f6e 0f42 8346 cf3f
000000e0: b9e1 1c42 14a3 d041 b776 ef3f d549 0342
000000f0: 7881 643f d0d9 1f42 86bc f841 dec4 1042
31.406057 2.4236014 39.78986 33.005775 22.17795 36.0422 40.358418 26.212963
4.916075 39.26931 33.081047 39.569294 37.790607 7.8904886 35.449596 2.7791414
31.595673 34.03158 40.325535 12.668311 35.782845 27.881266 39.55013 31.513649
36.485203 32.767982 2.7213566 37.521908 36.816216 6.3809586 1.4935063 37.44474
38.013638 4.002083 20.293655 40.542526 2.312756 33.2274 35.51475 38.958923
26.022936 37.06511 33.691135 37.336437 39.593334 40.228977 34.186146 1.3921962
18.46249 39.027245 19.378584 37.212173 25.513094 2.7468643 35.857906 1.6193393
39.220432 26.079628 1.8708104 32.8221 0.89260054 39.962708 31.092052 36.192253

layer2.1.running_mean f4 [64]
00000000: c197 0dc8 df3b a4c7 549f 87c7 2d82 cbc7
00000010: 6f00 d8c7 42c9 ffc7 4ec4 cbc7 0845 adc7
00000020: 9b48 0cc8 fa07 9fc7 8b4b 00c8 dcbe 8fc7
00000030: ad4d 8dc7 ff70 fcc7 37a3 e8c7 f5b8 07c7
00000040: 8e8c d6c7 964a eac7 afdf afc7 3be0 e9c7
00000050: 4a46 cbc7 08f6 dcc7 9891 9cc7 2f70 12c8
00000060: 072b a6c7 4cc0 ffc7 cec5 58c7 a694 afc7
00000070: 789a cbc7 c39c dbc7 cb46 acc7 25dc 9fc7
00000080: dbe4 a8c7 7c1f c5c6 9e98 cac7 a50f 5ac7
00000090: b013 bdc7 98a8 dcc7 1a95 b3c7 3d2d c4c7
000000a0: 33aa d9c7 d529 c3c7 695e 05c8 1b91 9cc7
000000b0: 57a9 c8c7 b27d a3c7 788f ccc7 1186 40c7
000000c0: c4e0 04c8 1961 88c7 711a a1c7 3b71 c8c7
000000d0: a46b f3c7 cd0b f4c7 6033 d9c7 551a bcc7
000000e0: 4aa3 99c7 7dd3 eec7 6919 9fc6 8385 c2c7
000000f0: c39e a9c7 2ee9 97c7 9004 b1c7 fe71 fcc7
-144991.02 -84087.74 -69438.66 -104196.35 -110592.87 -130962.516 -104328.61 -88714.06
-143650.42 -81423.95 -131374.17 -73597.72 -72347.35 -129249.99 -119110.43 -34744.957
-109849.11 -119957.17 -90047.37 -119744.46 -104076.58 -113132.06 -80163.19 -149952.73
-85078.055 -130944.59 -55493.805 -89897.3 -104244.94 -112441.52 -88205.586 -81848.29
-86473.71 -25231.742 -103729.234 -55823.645 -96807.375 -112977.19 -91946.2 -100442.48
-111444.4 -99923.664 -136569.64 -80162.21 -102738.68 -83707.39 -104734.94 -49286.066
-136067.06 -69826.195 -82484.88 -102626.46 -124631.28 -124951.6 -111206.75 -96308.664
-78662.58 -122278.98 -20364.705 -99595.02 -86845.52 -77778.36 -90633.125 -129251.984

layer2.1.running_var f4 [64]
00000000: ee15 374c a918 5e4b d655 384b e594 bc4b
00000010: 4b8c 984b 186c 054c c5cb b14b 5c67 844b
00000020: 64ff 304c 9899 604b 840e 164c 79b5 444b
00000030: 32f5 474b bf74 054c 1745 ce4b 5cb5 b249
00000040: 7691 984b 6843 ef4b a58a 854b c82b eb4b
00000050: dfd2 bc4b 7d0d e24b 8a5f 664b fbdb 3c4c
00000060: 6660 834b 1c1f 134c a7d8 8c4a c78a 8b4b
00000070: f457 b74b 5112 c54b 3cca 654b ac50 6d4b
00000080: 11d3 834b 3959 f448 d45d b54b d045 f24a
00000090: 3413 924b 478b de4b 7b52 904b 9b21 9b4b
000000a0: ead8 a24b 813f ae4b d72b 1b4c c5e7 5c4b
000000b0: 5cc2 a74b 0aed 6d4b 6fe9 b14b 7f3c 614a
000000c0: 16a6 204c 636b 334b 78ef 1d4b 98ef b94b
000000d0: e49e cc4b d285 fa4b e064 a64b 38b4 8b4b
000000e0: b601 654b 2acb 034c 3545 c148 4cec a44b
000000f0: 851b 674b bc7e 5c4b 2ae1 8b4b cffb f04b
4.799481e+07 1.4555305e+07 1.2080598e+07 2.471777e+07 1.9994774e+07 3.497584e+07 2.3304074e+07 1.7354424e+07
4.6398864e+07 1.4719384e+07 3.9336464e+07 1.2891513e+07 1.3104434e+07 3.49847e+07 2.7036206e+07 1.4639795e+06
1.999742e+07 3.136072e+07 1.7503562e+07 3.0824336e+07 2.4749502e+07 2.9629178e+07 1.5097738e+07 4.9508332e+07
1.7219788e+07 3.8567024e+07 4.6152515e+06 1.8290062e+07 2.4031208e+07 2.5830562e+07 1.5059516e+07 1.5552684e+07
1.7278498e+07 500425.78 2.3772072e+07 7.938792e+06 1.9146344e+07 2.9169294e+07 1.8916598e+07 2.0333366e+07
2.1344724e+07 2.2839042e+07 4.0677212e+07 1.4477253e+07 2.1988536e+07 1.5592714e+07 2.3319262e+07 3.6902718e+06
4.211311e+07 1.1758435e+07 1.0350456e+07 2.4370992e+07 2.682004e+07 3.2836516e+07 2.18096e+07 1.831128e+07
1.5008182e+07 3.4548904e+07 395817.66 2.1616792e+07 1.5145861e+07 1.4450364e+07 1.8334292e+07 3.1586206e+07

layer3.0.weight f4 [64, 64, 3, 3]
00000000: 343b 1d3e 5d49 1fbe 1ef5 8f3e d9e4 213e
00000010: d61c f7bd 9f6e cbbd 7fab a33e be5b 1d3d
00000020: 606a eb3e cf17 aabd e309 87be 634f 65bd
00000030: 2612 09be ed3c d4be f3c9 06be 66bf a2bc
00000040: 2d06 a8be cda8 203e 4e14 7040 06e4 6440
00000050: f573 6040 197d 6a40 ccf4 6d40 39d4 6740
00000060: e6e2 7240 51aa 6840 e59f 8240 15fa 633e
00000070: 45c0 80be 7bf9 283e 0bf1 173d 99ee 78be
00000080: b623 cebc 3315 923e c1de 5d3d 5f21 073f
00000090: b59b 4b3e a49d 25be a9ee 5a3e 79d3 84bb
000000a0: 4118 bcbc db49 a5bd 3e73 213e d883 81bc
000000b0: fcd6 ad3e b033 b73f 712d ab3f 643c d53f
000000c0: 7780 cf3f ecda ad3f f8dd ae3f 07f3 e03f
000000d0: f11c ca3f f6dc f93f b817 1040 f154 0540
000000e0: 6c10 0540 69b9 0740 2b33 0140 ad4a 0c40
000000f0: 3056 2140 6b40 1a40 869d 2b40 b371 c6bd
00000100: 8f41 86be 8f52 713e b971 d0bd debe b4be
00000110: 4203 69be e13a 4d3e e207 28be b8f3 5f3e
00000120: 4c92 5e3d e283 8fbe 2e96 50bc 2341 eebd
00000130: ebd0 e3be 1047 61be 3c50 ca3d 20e0 22be
00000140: 0214 283e 223f 9f3f f53e 573f 40c7 943f
00000150: 916a 9c3f 093c 853f 8ad5 8c3f a183 c33f
00000160: a4f4 ad3f 56cb ce3f 3bcf 0940 ad92 fe3f
00000170: f5e5 0a40 1f3c 0f40 66e6 fe3f d7e6 ff3f
00000180: 0b94 1a40 570b 1140 3989 2840 7fd4 3740
00000190: 1d01 3040 b99b 3240 7dae 3640 698a 2f40
000001a0: 6b3d 3740 5a16 4140 8102 3d40 beef 4840
000001b0: f87b 4640 7210 3f40 68fc 3d40 46d9 4340
000001c0: e8fc 4940 58df 4c40 d528 5640 32d5 4b40
000001d0: dce6 6740 9d06 19bd 12fc c5be da4b dfba
000001e0: e818 88bb 83fd 84be 64a0 aabe f3fa 89bd
000001f0: 3f0e 67be dac3 5a3e d916 963f 4510 3a3f
00000200: 7cc1 903f ac23 6c3f 497d 473f 73af 5d3f
00000210: 7309 9d3f 168e 923f ac48 b23f e202 f73e
00000220: 4470 643e c9f5 ca3e d873 b73e f74d b63e
00000230: 56fb 8a3e 5183 ef3e 144f a33e c22c 6c3e
00000240: c779 b73e 5fb1 6a3d a520 d03e 97cf 153e
00000250: c9fa 313d f814 203e b37b f53e 1731 4b3e
00000260: 38c8 133f c0de e83e 8e09 22bd 7ed9 d83e
00000270: f200 823e 2140 3a3e f1ce b93e 831e 383f
00000280: 60cd da3e 449a 493f b523 2e40 3e2a 2340
00000290: 0eb7 3140 9630 2a40 e672 2840 25bf 2e40
000002a0: 15c8 4240 baae 2f40 2f3c 4f40 4bcb 87bc
000002b0: 292c b6be 5a7e a1bd 48dd 2e3c 66c7 94be
000002c0: 5637 82be afe9 9f3d 0c67 d7bd 4db1 3f3e
000002d0: a461 953e dd54 38bd b2ff 033f 9915 af3e
000002e0: d249 9ebc a1db 7f3e 135c 193f 7c26 a73e
000002f0: e3c0 2c3f 192b c83d 6d1e 29be d1fb 9b3d
00000300: 4c49 5cbd 9017 98be 23b7 61be 1f21 f33d
00000310: 6a1c a6bb dc62 cf3e 9c99 0640 9ad3 ee3f
00000320: 3a04 0740 15b9 0540 1632 e63f 166f e53f
00000330: ff7d 1740 baba 0240 be85 2140 39a4 bb3f
00000340: 8b01 8f3f 5021 cb3f d262 bb3f 3ef9 aa3f
00000350: ff57 af3f c99f db3f 6424 cd3f 9237 e33f
00000360: 0719 4940 5784 3840 6711 4240 b8ba 3d40
00000370: 9cf2 3d40 1dfd 4440 78cb 5440 d47c 4a40
00000380: 2708 5d40 a293 2d3e 5c03 14be 4f53 553e
00000390: d1ff 2e3e a2fb 493d 02fc e53c 45e8 a63e
000003a0: c5a0 853d b5a9 043f b9b9 943e 9889 3b3d
000003b0: a664 c83e 11f7 083e eddc bebd 4761 c5bb
000003c0: 95a1 a33e 9fa8 353e 1ebf f73e 85d9 da3f
000003d0: eace ba3f c061 f13f a1b6 e13f 40fa ca3f
000003e0: 7fb5 d53f a7ef 0840 b2bb df3f 27bb 0540
000003f0: 2243 353f b45d 833e ec4c 223f 90da 433f
0.15354615 -0.1555533 0.28116697 0.15809955 -0.12066047 -0.09933209 0.3196678 0.03841757
0.45979595 -0.083053224 -0.2637473 -0.055983912 -0.1338583 -0.41452733 -0.13162975 -0.019866657
-0.32817212 0.15689392 3.7512393 3.5764174 3.5070775 3.6638854 3.7180662 3.622328
3.7950988 3.6353953 4.0820184 0.22263367 -0.2514669 0.16501419 0.03709511 -0.24309768
-0.025163513 0.285318 0.054167513 0.52785295 0.19883616 -0.16173416 0.21380104 -0.00405353
-0.022960784 -0.080707274 0.15766618 -0.015809938 0.33953083 1.4312649 1.3373243 1.6659055
1.6211079 1.3582435 1.366149 1.7574166 1.5790082 1.9520557 2.2514477 2.0833094
2.0791273 2.1206915 2.018748 2.1920578 2.5208855 2.4101818 2.6814895 -0.09689655
-0.26221892 0.2356665 -0.10177941 -0.3530187 -0.22755149 0.20041992 -0.16409257 0.21870315
0.05433874 -0.28030306 -0.012731118 -0.116335176 -0.4449533 -0.21999764 0.09878585 -0.1590581
0.16413882 1.2441142 0.8408044 1.1623306 1.2220021 1.0408946 1.1002667 1.5274545
1.3590283 1.6155803 2.1532733 1.9888512 2.1702855 2.2380445 1.9914062 1.9992322
2.4152858 2.2663171 2.6333754 2.8723447 2.750068 2.7907546 2.8544 2.742823
2.8631237 3.0169892 2.9532778 3.1396327 3.1013165 2.9853787 2.9685307 3.0601363
3.1560612 3.2011318 3.3462422 3.1848874 3.6234655 -0.037359823 -0.38668877 -0.0017036155
-0.0041533597 -0.25974664 -0.33325493 -0.06737318 -0.22564028 0.21363774 1.1725723 0.72681075
1.1309047 0.9224193 0.77925545 0.8659584 1.2268509 1.1449611 1.3928428 0.48244387
0.22308451 0.39640644 0.3583057 0.35606357 0.2714488 0.46779874 0.3189627 0.23063949
0.35835096 0.05729806 0.40649906 0.1462997 0.043452058 0.15632999 0.47945938 0.19842945
0.57727385 0.45482445 -0.039559893 0.42353433 0.25391346 0.18188526 0.36290696 0.7192156
0.42734814 0.78751016 2.7209294 2.5494533 2.7767978 2.6592155 2.6320128 2.7304165
3.043462 2.7450395 3.2380483 -0.01657643 -0.35580567 -0.07885428 0.010672875 -0.2905838
-0.25432843 0.078082435 -0.105177015 0.18719979 0.29176056 -0.045002807 0.51562035 0.34196165
-0.01932231 0.24986126 0.5990612 0.3264655 0.6748182 0.09773845 -0.16515513 0.076163895
-0.05378084 -0.29705477 -0.22042517 0.11871552 -0.005069305 0.4050511 2.1031256 1.8658326
2.109633 2.0894215 1.7984035 1.7924526 2.3670652 2.042647 2.523788 1.4659492
1.1172346 1.5869541 1.4639533 1.3357313 1.3698729 1.7158138 1.602673 1.7751334
3.1421525 2.8830774 3.0323122 2.9645214 2.9679327 3.0779488 3.3249187 3.163869
3.4536226 0.16950849 -0.14454406 0.20832561 0.17089774 0.04931224 0.028074268 0.32599083
0.06524805 0.5182145 0.29047945 0.045785517 0.3913929 0.13375498 -0.09319482 -0.0060235593
0.31959215 0.17740105 0.48387998 1.7097632 1.4594395 1.8857956 1.7633859 1.585762
1.6696013 2.1396272 1.7479155 2.0895479 0.7080556 0.25657427 0.63398623 0.76505375

layer3.0.bias f4 [64]
00000000: d58c 8d40 cc3c e53f 615b 5440 d993 1f40
00000010: 93d1 8340 3c7b 5540 5c84 9940 7288 9340
00000020: a578 a340 34a0 4440 af4b 6840 bacb 8240
00000030: 41cc 9a40 25b4 8040 7c23 8340 a99c 8940
00000040: 06d7 9840 260a 8340 7b47 9540 a07b 5040
00000050: a3da 7240 ed95 3e40 54ac 8640 1e3f 8240
00000060: f9ee 7640 c70c 9140 c4c7 9e40 0214 5240
00000070: e05d 8e40 eb4c 8240 8516 1940 7f80 6040
00000080: 79ff 6940 d788 5a40 50e7 4f40 92a6 9140
00000090: 0c0c 6240 f8d2 7240 16f2 9a40 9740 5c40
000000a0: 7dd8 3440 65c0 6240 5440 8540 05a0 f83f
000000b0: e61b a940 239c 8f40 fcbf a640 bef5 2140
000000c0: f6ef 6040 d1a2 8640 5262 8f40 472c 1240
000000d0: d397 7740 9255 9840 0fe8 ab40 6766 9740
000000e0: 180e 8240 b445 8c40 5673 7340 d07c 7540
000000f0: add0 5740 d26b ff3f df9a 8740 b936 6540
4.4234414 1.7909179 3.3180773 2.493399 4.119333 3.3356466 4.797407 4.610406
5.108477 3.072278 3.6296194 4.087369 4.8374333 4.0219903 4.0980816 4.3003736
4.776248 4.094989 4.6649756 3.2575455 3.7945945 2.9779007 4.208536 4.0702047
3.8583357 4.5328097 4.9618855 3.2824712 4.4489594 4.0718894 2.3919995 3.5078428
3.6562178 3.414602 3.2484932 4.5515833 3.5319853 3.7941265 4.8420515 3.4414423
2.8257134 3.5429928 4.1641026 1.9423834 5.2846556 4.4878097 5.2109356 2.530624
3.514646 4.207375 4.480752 2.2839525 3.8686416 4.7604456 5.3720775 4.7312503
4.0642204 4.3835087 3.8039145 3.835743 3.3721116 1.9954779 4.237655 3.581465

layer3.1.weight f4 [64]
00000000: 761f 663f 8c31 083f a020 6f3f fd7f 213f
00000010: 53e8 893f 8914 2f3f 97bf 933f 1a7f 943f
00000020: c351 aa3f cb86 2d3f 1834 793f b30c 413f
00000030: 2284 823f 40c7 6f3f cf05 4d3f 3017 5c3f
00000040: 107b 933f f7b6 2f3f e197 b83f 6156 543f
00000050: e698 393f 5174 363f 0c1b 953f d287 643f
00000060: 08aa 583f b75b 953f 7116 913f 1392 6b3f
00000070: 3d23 9c3f 8e2c 393f 3c4a 173f 5937 563f
00000080: e03f 213f f772 5e3f 66ac 2a3f bf20 693f
00000090: 192a 2d3f bc78 563f e5bc 823f 6d0a 523f
000000a0: 4a3a 503f c34d 603f f2ca 803f d733 0c3f
000000b0: ad52 933f 5939 823f 1e72 813f 3fc8 273f
000000c0: dc0c 5d3f 2b8a 753f 0bec 8e3f dbea 453f
000000d0: 100c 473f 1dae 953f 4a80 913f ea09 923f
000000e0: e8af 623f b63a 853f f051 633f 30ae 483f
000000f0: f44d 4d3f 23a9 0c3f f3ba 673f f9ec 3e3f
0.89891756 0.532006 0.93409157 0.6308592 1.0774025 0.6839071 1.1542844 1.1601288
1.3306202 0.677838 0.97345114 0.7541 1.0196574 0.93663406 0.8008699 0.8597288
1.1521931 0.6863856 1.442135 0.82944304 0.7249893 0.71271235 1.1648879 0.89269745
0.8463445 1.1668614 1.1334974 0.92019767 1.2198254 0.7233361 0.5909765 0.83678204
0.6298809 0.8689417 0.6666931 0.9106559 0.6764236 0.83777976 1.0213896 0.8204716
0.8133894 0.87618655 1.0061934 0.547666 1.1509606 1.0173751 1.0112951 0.65539926
0.86347747 0.9591395 1.1165785 0.77311486 0.7775278 1.169376 1.1367276 1.1409276
0.8854966 1.0408542 0.887969 0.7839079 0.8019707 0.5494558 0.90519637 0.7458034

layer3.1.bias f4 [64]
00000000: 1da7 55bf 31c1 17bf 5503 1cbf cfd4 1ebf
00000010: d6ee a9bd a47a 0cbf 4b44 213e 3820 b2be
00000020: 3fc4 81be 3122 a8be 36be 07bf 0c60 6bbe
00000030: c472 71be d956 1cbf 94d0 e8be 7282 34be
00000040: 967b 023e b3b4 53bf a543 48be 5d09 4bbf
00000050: cdc1 12bf 4aab 14be f2bd 8a3b b21a 41bf
00000060: 1545 f6be 7482 63be ca4f 15be 5740 8bbe
00000070: e511 c43d 2833 093b 2928 cebe 2688 5bbe
00000080: dda2 27be 0d00 56bf f9a4 12bf a663 62bf
00000090: 5343 34bf d25c 6c3e 17db 54bf e66b 17bf
000000a0: a6ff bcbe 7fc5 67bf fb2d 4abe 6623 c6be
000000b0: 2042 8cbf e419 a8be fddd 61bf 5b6f e4be
000000c0: 5932 26be a327 d5be 5828 f7be a148 9bbe
000000d0: e06f 45be 68b2 a3be a87f 18bf 47a0 a93e
000000e0: 636e 7cbd 8f57 b53d d3cb 4fbe 05a5 d1be
000000f0: b303 96be 276a a2be be7b 423d 761d 0bbf
-0.8345812 -0.5927916 -0.60942584 -0.6204347 -0.082975075 -0.54874635 0.15748708 -0.34790206
-0.25345036 -0.32838586 -0.53024614 -0.22985858 -0.23578936 -0.6107002 -0.45471632 -0.17627886
0.12742457 -0.826976 -0.19557054 -0.7931116 -0.57326967 -0.14518467 0.004234069 -0.7543136
-0.4809958 -0.22217733 -0.14581218 -0.27197525 0.095737256 0.0020935033 -0.40265015 -0.21438655
-0.16370721 -0.8359383 -0.5728298 -0.884333 -0.7041523 0.23082283 -0.83146805 -0.59149015
-0.36913794 -0.9053573 -0.19744103 -0.38698882 -1.095768 -0.32832253 -0.8822935 -0.44616207
-0.16230144 -0.41631803 -0.48272967 -0.3032885 -0.19280958 -0.3197205 -0.5956979 0.33130094
-0.06162871 0.08854591 -0.20292597 -0.40946212 -0.29299697 -0.31721613 0.04748129 -0.5434183

layer3.1.running_mean f4 [64]
00000000: 5214 a246 f214 c746 edbd b546 efc9 d346
00000010: 36a5 af46 516d ae46 106c 6946 b7f3 9646
00000020: cad8 5a46 ca1f a846 3d76 a546 0955 9d46
00000030: 280f ac46 ede8 9846 81ea 9c46 798d b546
00000040: 6f65 a746 e296 8a46 06cf 9546 ddfd ba46
00000050: 5a7c 9246 b104 ae46 0fca 8946 17e5 9946
00000060: 3f6f a046 247f a746 79ba 9746 d7c7 9e46
00000070: cffd 9246 ce6f a546 40c3 b946 938e a046
00000080: c398 ac46 cd78 c446 8729 ac46 bdcd 8546
00000090: fce0 ab46 76d8 a246 dad1 8b46 2e3d a446
000000a0: 7629 ba46 fee0 9f46 4f76 9c46 aa6a cf46
000000b0: 2ef8 8546 d2c4 ac46 a92d 5f46 3409 d946
000000c0: e578 a546 ef27 a946 0849 ab46 4b47 cc46
000000d0: 6b3e a146 870c 7d46 275d 7446 81e3 9246
000000e0: 4112 a846 790d 8e46 d121 a346 12b4 b446
000000f0: 2a73 a546 28c5 bd46 c6c9 9a46 9c91 be46
20746.16 25482.473 23262.963 27108.967 22482.605 22326.658 14939.016 19321.857
14006.197 21519.895 21179.12 20138.518 22023.578 19572.463 20085.252 23238.736
21426.717 17739.441 19175.512 23934.932 18750.176 22274.346 17637.03 19698.545
20535.623 21439.57 19421.236 20323.92 18814.904 21175.902 23777.625 20551.287
22092.38 25148.4 22036.764 17126.87 22000.492 20844.23 17896.926 21022.59
23828.73 20464.496 20027.154 26549.332 17148.09 22114.41 14283.415 27780.602
21180.447 21651.967 21924.516 26147.646 20639.209 16195.132 15639.288 18801.752
21513.127 18182.736 20880.908 23130.035 21177.582 24290.578 19812.887 24392.805

layer3.1.running_var f4 [64]
00000000: f6fa fa42 023a 6a45 57ae be43 3ffa 2a44
00000010: b650 7643 1450 9543 f6ca 9342 a1a8 0d43
00000020: 0faa 9742 9013 8843 4186 8543 ca9b 9f42
00000030: df03 3542 4fb4 1d43 3b7d 5d43 8614 1a43
00000040: d037 dd42 c7cf 1643 976b cd42 1e28 1d43
00000050: f145 6443 d8ef 5244 3d26 1243 2d92 5d43
00000060: 2a5c 1843 0bbb 2243 4210 5e42 de72 c543
00000070: fc0c da42 9d28 c542 d8fb 5e44 f6b1 7143
00000080: 5312 0343 0742 7443 2bde 3744 b0fa 9942
00000090: a6ea 3c43 5705 4243 a06c ed42 3013 fc43
000000a0: db7b 3544 7783 7443 7eda 3043 4048 8945
000000b0: 9320 1042 2b51 2543 4d97 4942 4b9d 3244
000000c0: 2ac3 ba43 3cc8 3e43 4798 fb42 91a9 0545
000000d0: 4c1c 8c43 7541 0043 1a5b 8f42 9de2 0843
000000e0: 289f a243 c965 2243 4604 8743 d184 1e43
000000f0: 7559 8243 6554 0245 8416 1743 d71d 0743
125.49016 3747.6255 381.36203 683.9101 246.31528 298.6256 73.89641 141.6587
75.832146 272.15283 267.04886 79.804276 45.25378 157.70433 221.48918 154.08017
110.60901 150.81163 102.71014 157.15671 228.27321 843.74756 146.14937 221.571
152.36002 162.73064 55.515877 394.8974 109.02536 98.57932 891.93506 241.69516
131.07158 244.25792 735.4714 76.989624 188.9166 194.02086 118.71216 504.1499
725.93524 244.51353 176.85349 4393.0312 36.03181 165.31706 50.397755 714.4577
373.52472 190.78217 125.79742 2138.598 280.22107 128.25569 71.67793 136.88521
325.2434 162.3976 270.0334 158.51881 260.69888 2085.2747 151.08795 135.11656

layer4.0.weight f4 [64, 64, 3, 3]
00000000: f136 853e e7d5 c6be ff41 81be edd1 7dbe
00000010: afa8 263e a29f 07bc cda9 d23e 91ff 8b3e
00000020: d647 47be 76d6 f7be f4f2 973d ddc6 83bc
00000030: 6d24 bfbe 5a4d 3a3d a030 14bf 4031 4fbe
00000040: b592 4c3e 59bc f6bd 6942 a83d f624 84bd
00000050: dec7 44bd ff41 a93e 1f3c acbd edbf 90be
00000060: b1d5 1a3d fbf3 a6be 4ba4 a3be f7ce a2be
00000070: 3cce 073e d6da 9b3d bfe8 743e 45f6 813e
00000080: 0518 70be d17e 313e 138b 863e 4066 9b3e
00000090: 21d6 8c3e 5136 0f3e ab55 373e acc9 933d
000000a0: b8ce 773d cf13 10bf 953a c1be 4102 b5be
000000b0: 488a b6be 7851 87be eb6b 93be ba95 01be
000000c0: 904f ba3e 8e9c f53d 5849 eb3e 3297 7e3e
000000d0: aeed 2abd e3b1 7bbd 1f98 93bd 33bd 43be
000000e0: dd90 413e 352a 133e 3a64 533e c768 c33e
000000f0: f67b 7e3e bb6e bbbd 7b0b ac3e e2ce 38be
00000100: 0837 02bf b1aa bcbe 48b6 68be fd29 19be
00000110: 5dd4 73be c6ca 7fbe 6559 47bc 046e acbe
00000120: 3568 483e 9b4b e0be 81a6 99be f4a4 3ebd
00000130: 19c6 15be f078 0dbe 4272 373e 2130 093e
00000140: 1e05 cb3d dc5b 8d3d 65fd c13c f739 523e
00000150: 6586 82be 8997 27be 62d2 d9bd b973 57bd
00000160: 34f6 983d 6f41 e9bc a35c d2be 237e c4be
00000170: 5b8d b0bd 927d b43e bc52 9b3e 7322 dc3e
00000180: cbbd 93bc 9d9b 59be 738d 1a3e 02c0 e83c
00000190: 99f1 3d3e 7127 8e3e 7255 34bc ee68 4cbe
000001a0: 15d0 e63e 2e93 413e 6b0f 703c 9503 093d
000001b0: 0537 69bd c2f0 c0be e8f8 17bd 8adc eb3e
000001c0: 27c5 823d 0f07 e53d e032 633d 8286 753e
000001d0: b93d 0c3d 2193 1fbe a3aa b3bd 6626 37be
000001e0: 7228 68be ab87 653e c557 c73e bd34 7e3d
000001f0: 77a1 6d3e e623 8d3d 75b6 9b3c 512a afbd
00000200: f735 8fbe c8c2 e7b9 54f6 80bd c225 38be
00000210: e430 8b3d 2b73 98be 932b 29be 1e0c 1c3c
00000220: 7153 d73d cec9 183e b660 033e ba53 ea3d
00000230: d9f4 ffbd 7c63 f0bd 3c5b c1bd 2ac0 53be
00000240: 88f2 75be caae 3cbd 3194 4dbd 4e8f a7bd
00000250: 86a3 8a3e 03f0 573e 51c7 193e c535 e63e
00000260: 406e 843e 4b1d 26be a37e 50be f1b6 a2bc
00000270: 4bf2 27be 5d78 9dbe ef70 96be a294 033d
00000280: 46b8 3bbe 9667 203d 5c06 6fbd 9725 31be
00000290: 649c 0dbe 1ea7 4abe cf3f 8fbd 6351 1bbf
000002a0: 3b24 1abd a3d5 b73e ede6 3cbf 491a 753e
000002b0: d8d7 06bf 4b5f 193d d57f 2d3d c460 fb3d
000002c0: ba5c 8e3d f3bd 11bf 552b 00bf 5240 033e
000002d0: 7110 99be 7fae 3abe 4daa 163d 6e8f 7d3d
000002e0: e6d9 863d e94f f33c 5e46 a23c 8329 71be
000002f0: c98f f3be 804c 33be 9d21 3abd bd34 d1be
00000300: 415c f73d acee a2bb 171a 1abf 0ad9 83bd
00000310: 812a 96be ffd0 80be 5eef b83c 46c0 f83d
00000320: 02d4 6e3e dd5f 083e b103 063e 0751 893e
00000330: 6780 9a3e 7f7c 233f 52ce b23e dceb b03d
00000340: 235d 90be be00 f6bd 693f 34bd 3b67 09bd
00000350: b77b e13d 7869 09be 801e 19be a556 8f3e
00000360: da6d 91be 1079 1fbe e844 1a3e a70e 823e
00000370: 3746 ea3e 3fc6 8fbe 2427 38be d4c4 48be
00000380: eabb 27be e15e 06bf 22cf a4be bea2 92be
00000390: d884 fc3d 0e4c 3a3e 608d 333d 1bc8 0ebf
000003a0: 77cf b3bc f729 64be 585d ba3e 6653 513e
000003b0: 9beb bc3e ad0e 2dbe edc0 af3d 4f4c c6bc
000003c0: daba 113f 9c60 b0bc 6bf5 463c 96ed d5bd
000003d0: dcc6 5ebe 04c5 41bd a1d6 0abc 4913 aa3d
000003e0: c3c7 70bd 09bf b1be 3b05 72be 00ee 5cbd
000003f0: c887 dbbd e79e 223c 172d 0c3c 79c5 4fbe
0.2601848 -0.3883507 -0.25245664 -0.24787112 0.16275285 -0.0082778055 0.41145173 0.2734342
-0.19460997 -0.48405808 0.074193865 -0.016086036 -0.37332478 0.045483924 -0.57886696 -0.20233631
0.1997784 -0.12047643 0.08215792 -0.06452362 -0.04804217 0.33058164 -0.08409905 -0.28271428
0.03780145 -0.32608017 -0.31961283 -0.31798527 0.13262266 0.07610099 0.2391691 0.253832
-0.23446663 0.17333533 0.2627798 0.30351448 0.27507117 0.13985564 0.17903773 0.072162
0.060499877 -0.56280226 -0.37740007 -0.35353282 -0.35652375 -0.26429343 -0.28793272 -0.12654772
0.36388826 0.11992751 0.45954394 0.24862364 -0.041730575 -0.061448943 -0.07206749 -0.19115143
0.18902917 0.1437157 0.20643702 0.38165876 0.24851975 -0.091519795 0.3360251 -0.1804767
-0.5086522 -0.36848977 -0.22725785 -0.14957424 -0.23811479 -0.24979696 -0.012167309 -0.33677685
0.19571002 -0.43807682 -0.30009845 -0.04654403 -0.1462635 -0.13815665 0.1791468 0.13397266
0.099130854 0.069022864 0.023680398 0.20529924 -0.2549316 -0.163664 -0.106358305 -0.052600596
0.074688345 -0.028473584 -0.410863 -0.38377485 -0.086207114 0.35252053 0.3033656 0.42995033
-0.018034836 -0.21250768 0.15093021 0.028411869 0.18549193 0.27764466 -0.0110067 -0.19961902
0.4508063 0.18903801 0.014652113 0.03345068 -0.056937236 -0.37683684 -0.03710261 0.46066695
0.0638526 0.11182987 0.05546844 0.23977092 0.03423855 -0.15583469 -0.08772781 -0.17885742
-0.22671679 0.22415034 0.3893415 0.062062014 0.23206125 0.06891613 0.0190079 -0.08552993
-0.2797086 -0.00044204877 -0.06296983 -0.17983153 0.067964345 -0.29775366 -0.16520528 0.009524373
0.10513962 0.14920732 0.12829861 0.11441751 -0.12497873 -0.11737725 -0.0944123 -0.20678774
-0.240183 -0.04606513 -0.050190154 -0.0818163 0.27077883 0.21087651 0.1501744 0.44962898
0.25865364 -0.16222112 -0.20360808 -0.019862624 -0.16401021 -0.30755892 -0.29383036 0.03212417
-0.18332013 0.039161287 -0.058355674 -0.17299496 -0.1382919 -0.19790313 -0.069945924 -0.6067106
-0.03763221 0.3590518 -0.73789865 0.23935808 -0.526731 0.037444394 0.04235824 0.12274316
0.0695128 -0.56930465 -0.5006612 0.12817505 -0.29895356 -0.18230627 0.036783505 0.061904363
0.065845296 0.02970119 0.019808944 -0.23550992 -0.47570637 -0.17509651 -0.045442212 -0.4086055
0.12078143 -0.0049722996 -0.6019606 -0.06437881 -0.29329303 -0.2515945 0.022575077 0.12146048
0.23323062 0.13317819 0.13087346 0.2681963 0.30176088 0.6386184 0.34923035 0.086387366
-0.28196058 -0.1201186 -0.044005785 -0.033545714 0.11009925 -0.1341914 -0.14953041 0.27995792
-0.28404123 -0.15573525 0.15065348 0.25401804 0.45756695 -0.28080937 -0.17983681 -0.19606334
-0.16380277 -0.52488524 -0.3218928 -0.28639787 0.123300254 0.18193075 0.043835998 -0.55774087
-0.021949513 -0.22281633 0.3639934 0.2044197 0.36898503 -0.1690013 0.085817195 -0.024206309
0.5692574 -0.021530442 0.012143473 -0.104457065 -0.21755546 -0.04730703 -0.008474023 0.083044596
-0.058784258 -0.3471606 -0.23634808 -0.053937912 -0.107192576 0.009925581 0.008555672 -0.20290174

layer4.0.bias f4 [64]
00000000: f52d 37bc 6994 5abd 393b 60bc 1735 273d
00000010: 09a8 9b3d a140 c63c 762c 173e 7602 243d
00000020: 3932 87bc d2a8 b03d 01e5 95bd dcf0 55bd
00000030: ad85 883d aca4 c13d f57f efbc f6cb 003b
00000040: 6924 babd 6203 eebb c3d6 263c b205 21bd
00000050: 5114 2fbd b85d 90bd a3e8 653d bf73 efbc
00000060: 342f 883d 3fc4 3abd 839e c13d 4345 24bd
00000070: 8d6b ee3b 18ea ddbb 53bb b53d 658b 81bd
00000080: 0940 4ebd 5c4c c9bd 27d9 413d b292 593c
00000090: 282a fc3c 1525 073d 01a1 4e3d ab3b ebbd
000000a0: c4f2 63bc 9908 8dbc 9584 4d3c c58d 71bd
000000b0: a743 80bd b552 063d 85f0 e7bd d9b4 773d
000000c0: 7949 f6bc 7318 34bd 3044 dbba b7ae 693d
000000d0: 1067 5f3d 1a69 38be 9cad e73d f9e3 ce3d
000000e0: a8ae 1bbd 2cc2 ffbc 49b0 a23d 941d ab3c
000000f0: 1d15 05bc c633 cfbd 775f 873d 1876 ac3d
-0.011180391 -0.05336419 -0.013685995 0.040822115 0.076004095 0.02420074 0.14763054 0.04004141
-0.01650344 0.0862595 -0.0731907 -0.052231655 0.06666122 0.09455237 -0.02923582 0.001965282
-0.09088976 -0.007263587 0.010183039 -0.039312072 -0.042743985 -0.070491254 0.056130063 -0.029229997
0.06649628 -0.04559731 0.09454062 -0.040105116 0.0072760046 -0.006772291 0.0887362 -0.063254155
-0.050354037 -0.098290175 0.047326233 0.013279604 0.03078182 0.03299435 0.050446514 -0.1148599
-0.01391286 -0.017216014 0.012543817 -0.058973093 -0.06262904 0.03279372 -0.11325172 0.060475204
-0.030064331 -0.04396863 -0.0016728695 0.057051387 0.054541647 -0.18008843 0.1131241 0.10102076
-0.038008362 -0.031220518 0.0794378 0.020888127 -0.00812271 -0.10117297 0.06610005 0.08420962

layer4.1.weight f4 [64]
00000000: 0fea 643f 83ec 7a3f 16a5 563f c717 743f
00000010: 6816 543f 0b05 7d3f edbd a93f 9a2c 313f
00000020: 9b8b 853f d185 713f 10d9 653f b849 313f
00000030: f967 8d3f dda3 903f 3663 453f 2dbd 563f
00000040: 5696 993f 7a38 673f 483e 703f bda5 853f
00000050: d8a4 603f 5110 4c3f 3b30 8b3f 02a0 6c3f
00000060: 4b64 933f 1d99 653f 2691 853f 5041 853f
00000070: a93e 4b3f 165a 763f 40d2 8a3f 02ba 5f3f
00000080: 32f2 713f c709 7b3f 12b3 703f 5c00 7a3f
00000090: a646 6f3f 5d74 8c3f 5384 883f 0f00 833f
000000a0: 1774 493f 1f66 893f 5da5 583f fb4f 883f
000000b0: 6ff0 573f 62e6 573f 1ddf 8d3f 2cb1 8c3f
000000c0: c758 643f db88 643f 2e84 813f 5111 443f
000000d0: 85da 8d3f ce4e 6f3f 6db2 873f 5270 853f
000000e0: c3bc 853f d9cf 693f 5dab 823f 9d85 293f
000000f0: 97e9 483f 03b3 743f fd5a 613f 4969 803f
0.89419645 0.9801714 0.8384565 0.9534878 0.8284669 0.9883582 1.3261086 0.6920868
1.0433229 0.9434481 0.89784336 0.6925311 1.1047355 1.1300007 0.7710451 0.8388241
1.1999004 0.9032055 0.93845034 1.0441204 0.8775153 0.79712397 1.0874094 0.9243165
1.1514982 0.8968676 1.0434921 1.0410557 0.79392487 0.9623121 1.0845413 0.873932
0.94510186 0.98061794 0.9402324 0.976568 0.93467176 1.0973011 1.0665382 1.0234393
0.78692764 1.073429 0.84627324 1.0649408 0.8435125 0.8433591 1.1083714 1.0991569
0.89197963 0.89271325 1.0118463 0.7658892 1.1082312 0.9347962 1.0601326 1.0424902
1.044823 0.91332775 1.0208546 0.662195 0.7848143 0.9558565 0.8802946 1.003213
