miniImagenet/vanilla_models/miniImagenet_foreground_encoder_5way_4shot.pkl (torch_old, 457791 bytes, 24 tensors)

layer1.0.weight f4 [64, 3, 3, 3]
0.17165293 0.0042481795 -0.008885436 0.24906556 0.052721348 -0.18485731 0.2615608 0.044182695
-0.28826386 0.11785514 -0.07494339 -0.052118793 0.119884126 -0.005241161 -0.2525154 0.01429334
0.07108231 -0.19465111 0.04752488 -0.070340976 -0.17913726 0.18758151 0.010938945 -0.2848876
0.19361182 0.16289422 -0.06908386 -0.17173024 0.0027175967 -0.08293613 0.091363326 -0.055506445
-0.12583233 -0.15698989 -0.16653495 -0.10468773 0.039224718 0.17190666 0.18222678 0.4076312
0.25193986 0.17910525 0.14423002 0.10186063 0.104509346 -0.04451615 0.055747792 -0.07155181
0.08989952 -0.09824634 -0.09594164 -0.26343375 -0.28980422 -0.11344041 -0.05284701 0.009148566
-0.22764587 0.0062076594 0.071736895 0.03894965 -0.078347474 -0.13519938 0.028771212 0.1084686
0.10502502 -0.098815024 0.22483392 0.1842196 -0.06958244 0.118231915 -0.033819757 -0.17548229
0.1353676 0.1323687 -0.058832567 0.25908935 0.26921266 0.029361332 0.22245383 -0.115690045
-0.19586375 0.10683295 0.0976806 0.099663615 0.10095368 0.038487047 0.14423716 0.12722453
0.31264585 0.3599957 0.14272982 0.058599263 0.1666962 -0.14860053 -0.01306095 0.18836534
0.01614366 0.00542296 0.19077666 -0.05225169 -0.17894734 -0.05755546 -0.12073801 -0.25935748
-0.065672606 -0.03355314 -0.06901105 0.19025862 -0.08797091 0.09607338 -0.0030723168 -0.21997897
-0.08311098 0.10373057 -0.12566057 -0.0679862 0.02585368 -0.08084572 0.11455545 0.21318528
-0.20961209 0.06399642 0.26459083 -0.09329563 -0.07163734 0.2236206 -0.030868152 0.16229989
0.24329327 -0.05095249 0.11812258 0.2766098 -0.0010942884 0.043907505 0.22026646 0.095552
0.050472777 0.16280288 0.24452528 0.20315105 0.1604634 -0.05688102 -0.23878258 -0.13492703
-0.16159229 -0.038328648 0.16391632 -0.03836063 -0.07413336 0.06048498 -0.26595983 -0.27918553
-0.26205328 -0.00059623114 0.04830143 0.20188934 0.032288235 0.09242583 0.24639708 -0.20317751
-0.0265735 0.074013114 -0.07247833 0.06885534 0.086233705 -0.014129151 0.060328662 0.16357091
0.15179129 0.18588655 0.0041417996 0.08521152 0.21098506 0.07374686 -0.004789357 0.20386583
0.30519256 0.19745566 0.115572184 0.15386836 -0.062392563 -0.13014428 -0.2034046 -0.095284946
-0.20102276 -0.108569376 -0.08253127 -0.1738636 -0.16716105 0.23718575 0.2201584 0.18439268
0.27565747 0.29257774 0.17539039 0.16718677 0.2737889 0.13114999 0.046614066 0.2501105
0.057198353 0.054753557 0.22987841 0.10201887 0.14778098 0.12585212 -0.07497908 0.21433394
0.41859007 0.16673501 0.2945284 0.49892443 0.2994269 0.25120747 0.4035597 0.06960355
-0.26806924 -0.24349113 -0.11167044 -0.18897858 0.060859963 -0.033425715 -0.16527452 -0.17689832
-0.19699645 0.11340611 0.10924211 0.025202023 0.20518981 0.31963253 0.24235843 0.06439666
0.11103587 0.12020372 0.118922114 0.016424047 -0.04389733 0.003211636 0.11165489 -0.051853426
0.016514339 -0.18967429 -0.109680146 -0.17706656 0.097696215 -0.0054442775 0.021320552 0.10750345
-0.07318854 -0.14733487 0.07208805 -0.08766919 0.1520019 0.27697256 -0.052729417 0.057461202
00000000: c9c5 2f3e 5034 8b3b 3894 11bc 0b0b 7f3e
00000010: 57f2 573d 3c4b 3dbe 4ceb 853e eaf8 343d
00000020: 5297 93be 095e f13d ec7b 99bd 847a 55bd
00000030: cf85 f53d 0cbe abbb b349 81be 9d2e 6a3c
00000040: 9a93 913d 9f52 47be 73a9 423d ee0e 90bd
00000050: c26f 37be 5e15 403e 4339 333c cadc 91be
00000060: 2d42 463e becd 263e d77b 8dbd 0dda 2fbe
00000070: b519 323b 6bda a9bd b21c bb3d ba5a 63bd
00000080: 31da 00be f5c1 20be 2388 2abe 8566 d6bd
00000090: 19aa 203d 4d08 303e a899 3a3e 09b5 d03e
000000a0: 43fe 803e 5e67 373e 09b1 133e 4e9c d03d
000000b0: ff08 d63d 9156 36bd cc57 643d c189 92bd
000000c0: 3d1d b83d 6135 c9bd 0d7d c4bd cae0 86be
000000d0: 3861 94be 7253 e8bd 1b76 58bd dee3 153c
000000e0: 001c 69be 9f69 cb3b cbea 923d ab89 1f3d
000000f0: a474 a0bd b571 0abe 9bb1 eb3c c924 de3d
00000100: 5c17 d73d 885f cabd dd3a 663e 10a4 3c3e
00000110: 3d81 8ebd 9323 f23d 9686 0abd a1b1 33be
00000120: ce9d 0a3e a98b 073e 6bfa 70bd 5ca7 843e
00000130: 3ed6 893e 2d87 f03c f0ca 633e e7ee ecbd
00000140: 8290 48be 3ccb da3d c40c c83d 701c cc3d
00000150: cec0 ce3d 98a4 1d3d e8b2 133e 2647 023e
00000160: 1e13 a03e 5b51 b83e c427 123e c805 703d
00000170: 69b2 2a3e bd2a 18be 98fd 55bc d8e2 403e
00000180: b53f 843c 16b3 b13b f55a 433e de05 56bd
00000190: f93d 37be 46bf 6bbd 7d45 f7bd 81ca 84be
000001a0: 5c7f 86bd 046f 09bd aa55 8dbd 28d3 423e
000001b0: 182a b4bd 1fc2 c43d ec58 49bb 2b42 61be
000001c0: 1736 aabd b170 d43d 2aad 00be 593c 8bbd
000001d0: 19cb d33c 7192 a5bd 0c9c ea3d 3e4d 5a3e
000001e0: 8da4 56be 8e10 833d 7378 873e c711 bfbd
000001f0: 99b6 92bd ccfc 643e 35df fcbc f131 263e
00000200: df21 793e 8fb3 50bd 40ea f13d cd9f 8d3e
00000210: 3a6e 8fba 5bd8 333d 888d 613e c4b0 c33d
00000220: 8bbc 4e3d ccb5 263e d664 7a3e d406 503e
00000230: 8450 243e 13fc 68bd 6c83 74be 502a 0abe
00000240: 7378 25be 80fe 1cbd aed9 273e 0920 1dbd
00000250: 3bd3 97bd 19bf 773d e32b 88be 68f1 8ebe
00000260: d92b 86be 654c 1cba b8d7 453d 14bc 4e3e
00000270: ab40 043d c149 bd3d 844f 7c3e c40d 50be
00000280: abb0 d9bc 3094 973d 856f 94bd 0704 8d3d
00000290: 4c9b b03d f47d 67bc 301b 773d 227f 273e
000002a0: 2d6f 1b3e 0b59 3e3e efb7 873b 6183 ae3d
000002b0: 780c 583e 9808 973d 0af0 9cbb 34c2 503e
000002c0: 3342 9c3e d131 4a3e 1cb1 ec3d ab8f 1d3e
000002d0: 588f 7fbd 8b44 05be 4c49 50be c124 c3bd
000002e0: e9d8 4dbe 9f59 debd 2806 a9bd 4d09 32be
000002f0: 442c 2bbe d2e0 723e 3471 613e 6fd1 3c3e
00000300: fa22 8d3e c0cc 953e 8a99 333e 0233 2b3e
00000310: 0f2e 8c3e 2f4c 063e 64ee 3e3d 7c0e 803e
00000320: d248 6a3d 4445 603d 3f65 6b3e 45ef d03d
00000330: e653 173e 61df 003e a28e 99bd 5b7a 5b3e
00000340: 7051 d63e 95bc 2a3e 6dcc 963e 0673 ff3e
00000350: 7c4e 993e 449e 803e 619f ce3e 4e8c 8e3d
00000360: 5f40 89be bd55 79be 79b3 e4bd 9a83 41be
00000370: 4c48 793d 67e9 08bd b93d 29be d524 35be
00000380: 70b9 49be 7641 e83d 54ba df3d 7974 ce3c
00000390: 471d 523e e0a6 a33e cf2c 783e 65e2 833d
000003a0: c666 e33d 5e2d f63d 708d f33d b98b 863c
000003b0: b0cd 33bd 507a 523b 52ab e43d 4264 54bd
000003c0: 1449 873c fa39 42be fc9f e0bd f050 35be
000003d0: f414 c83d e965 b2bb 70a8 ae3c c52a dc3d
000003e0: e0e3 95bd f4de 16be e6a2 933d e78b b3bd
000003f0: 63a6 1b3e 59cf 8d3e cdfa 57bd 705c 6b3d

layer1.0.bias f4 [64]
-17.456936 -17.555294 -16.003963 -15.3869095 -16.410286 -17.625797 -16.578306 -16.028208
-16.853498 -16.119513 -17.3977 -16.631775 -15.311953 -17.069714 -15.965474 -15.009648
-17.50395 -17.47023 -17.180603 -17.704788 -16.817131 -16.602392 -17.427788 -16.808146
-17.482904 -17.699617 -16.538774 -17.233168 -16.678526 -16.163584 -9.636144 -15.966736
-16.609331 -15.9661665 -15.059252 -17.41085 -15.202338 -15.698995 -17.11375 -16.382534
-16.469328 -17.547731 -15.386157 -16.407518 -15.882219 -14.502558 -16.14116 -18.132761
-16.588373 -14.658073 -15.617604 -16.73179 -16.361462 -17.451841 -16.319693 -15.680027
-16.330206 -17.776892 -15.880483 -17.339746 -10.5358515 -14.690312 -15.605954 -17.836397
00000000: cea7 8bc1 3e71 8cc1 1e08 80c1 c830 76c1
00000010: 4448 83c1 a201 8dc1 5fa0 84c1 c539 80c1
00000020: f7d3 86c1 c3f4 80c1 7d2e 8bc1 e00d 85c1
00000030: c2fd 74c1 c68e 88c1 9572 7fc1 8527 70c1
00000040: 1708 8cc1 08c3 8bc1 e071 89c1 68a3 8dc1
00000050: 7c89 86c1 b3d1 84c1 1c6c 8bc1 1577 86c1
00000060: fddc 8bc1 d198 8dc1 694f 84c1 87dd 89c1
00000070: 9f6d 85c1 054f 81c1 a52d 1ac1 c077 7fc1
00000080: e9df 84c1 6b75 7fc1 b2f2 70c1 6c49 8bc1
00000090: c73c 73c1 152f 7bc1 f6e8 88c1 6e0f 83c1
000000a0: 2fc1 83c1 c161 8cc1 b32d 76c1 9942 83c1
000000b0: 921d 7ec1 7a0a 68c1 1821 81c1 e50f 91c1
000000c0: fdb4 84c1 7887 6ac1 b5e1 79c1 b5da 85c1
000000d0: 46e4 82c1 5f9d 8bc1 bb8e 82c1 64e1 7ac1
000000e0: 43a4 82c1 1337 8ec1 7516 7ec1 cdb7 8ac1
000000f0: d992 28c1 850b 6bc1 fdb1 79c1 f1b0 8ec1

layer1.1.weight f4 [64]
1.6007134 1.0336567 0.9909585 0.58279765 0.7983139 1.5810152 1.0255743 1.163293
0.78367233 1.1941929 1.1525129 0.81234896 1.0719113 0.8232322 1.2121503 0.4066556
0.91398865 1.2997735 0.8483361 1.3101524 1.228953 1.2044575 0.89705986 1.057194
1.4027122 1.5285467 0.3320639 0.985242 1.1194065 1.265703 0.36251518 0.6673901
1.269703 1.2629654 0.7868839 1.2710664 0.52799046 1.169416 1.0121295 1.3317529
0.51417255 1.2957594 0.4558325 1.131697 0.6691747 0.27322644 0.53472215 1.4343706
0.9094915 0.47404128 1.2439014 1.0168146 0.75514466 1.0286465 1.1004982 0.63917226
0.96140563 1.295417 0.7027417 1.4634194 0.33113053 0.299878 1.1239259 1.5337887
00000000: 2de4 cc3f dd4e 843f 75af 7d3f 3a32 153f
00000010: 4d5e 4c3f b55e ca3f 0546 833f c9e6 943f
00000020: c09e 483f 50db 983f 8b85 933f 1af6 4f3f
00000030: 6434 893f 58bf 523f be27 9b3f 2a35 d03e
00000040: 29fb 693f fa5e a63f 8e2c 593f 13b3 a73f
00000050: 554e 9d3f aa2b 9a3f b7a5 653f 2252 873f
00000060: 138c b33f 6ba7 c33f 4804 aa3e d238 7c3f
00000070: b648 8f3f 8e02 a23f 979b b93e 14da 2a3f
00000080: a185 a23f daa8 a13f 3971 493f 4eb2 a23f
00000090: 622a 073f 6caf 953f 768d 813f e176 aa3f
000000a0: d0a0 033f 72db a53f e162 e93e 73db 903f
000000b0: 084f 2b3f 56e4 8b3e 8de3 083f 7599 b73f
000000c0: 6fd4 683f 8ab5 f23e 2938 9f3f fb26 823f
000000d0: 2951 413f b0aa 833f 20dd 8c3f cba0 233f
000000e0: ae1e 763f 39d0 a53f e1e6 333f 5451 bb3f
000000f0: f189 a93e 9c89 993e cedc 8f3f 3053 c43f

layer1.1.bias f4 [64]
0.65138763 0.09277304 -0.20360593 0.09163841 -0.2335883 0.89233476 -0.2300597 -0.32955715
0.362925 -0.35293964 0.91624254 -0.0021175158 -0.36676392 -0.0273802 -0.3606262 -0.11085468
0.4002412 0.69081306 0.072794594 0.19256173 -0.26319852 -0.32376665 0.08314979 -0.33213547
0.65973294 0.55823386 -0.15293145 0.22349611 -0.083328195 -0.31858104 -0.37036246 -0.016502872
-0.3688871 -0.40065283 -0.3123022 0.650851 -0.42134327 -0.3763897 0.17556404 -0.35051596
-0.23220232 0.054010406 -0.40740886 -0.3302162 -0.26912037 -0.5918312 -0.16248919 0.61368006
-0.32735464 -0.18827833 -0.4032434 0.066706546 -0.3572832 -0.017314782 -0.3766644 -0.10536876
-0.3627798 0.8664542 -0.35279644 0.7880091 -0.41225925 -0.58759505 -0.3174829 0.87938744
00000000: 57c1 263f cbff bd3d 137e 50be ebac bb3d
00000010: c531 6fbe 0d70 643f c594 6bbe b7bb a8be
00000020: 4ed1 b93e 81b4 b4be df8e 6a3f 05c6 0abb
00000030: 7bc8 bbbe 714c e0bc ffa3 b8be c707 e3bd
00000040: 6aec cc3e 20d9 303f 5515 953d e72e 453e
00000050: f5c1 86be bec4 a5be 704a aa3d a90d aabe
00000060: 42e4 283f 6ae8 0e3f 109a 1cbe 2adc 643e
00000070: f9a7 aabd 0e1d a3be 26a0 bdbe 0831 87bc
00000080: c5de bcbe 5e22 cdbe 13e6 9fbe 2c9e 263f
00000090: 4eba d7be 27b6 c0be 0fc7 333e d476 b3be
000000a0: 72c6 6dbe 043a 5d3d e597 d0be 1912 a9be
000000b0: 25ca 89be 4082 17bf 9163 26be 231a 1d3f
000000c0: 079b a7be 09cc 40be eb75 cebe 719d 883d
000000d0: d3ed b6be bbd7 8dbc 28da c0be 94cb d7bd
000000e0: 46be b9be f1cf 5d3f bca1 b4be f7ba 493f
000000f0: a513 d3be a16c 16bf 1e8d a2be 891f 613f

layer1.1.running_mean f4 [64]
-17.484045 -17.495136 -17.049263 -16.765793 -17.919292 -17.69472 -17.22047 -23.093237
-16.838514 -17.904581 -17.246279 -16.194515 -20.860361 -17.00332 -17.995914 -11.937358
-17.710388 -17.51259 -17.143965 -17.83257 -18.216785 -19.427452 -17.30857 -17.683846
-17.479776 -17.640749 -16.77843 -17.491817 -17.497229 -20.061 -11.193379 -13.019518
-18.159431 -18.660563 -17.753786 -17.26151 -12.338973 -19.584644 -16.901464 -18.715925
-16.587788 -16.986343 -12.659455 -18.60443 -17.312048 -12.172825 -15.161078 -18.247868
-17.372103 -11.128266 -19.09081 -17.100378 -17.105013 -17.533184 -19.158619 -13.125299
-17.237785 -17.798388 -16.83906 -17.160751 -12.234772 -11.486013 -20.999254 -17.964779
00000000: 53df 8bc1 0af6 8bc1 e464 88c1 5820 86c1
00000010: b65a 8fc1 c98e 8dc1 86c3 89c1 f3be b8c1
00000020: 47b5 86c1 953c 8fc1 61f8 89c1 5e8e 81c1
00000030: 05e2 a6c1 cd06 88c1 a2f7 8fc1 6bff 3ec1
00000040: e0ae 8dc1 c919 8cc1 d726 89c1 1aa9 8ec1
00000050: fabb 91c1 6c6b 9bc1 f477 8ac1 8478 8dc1
00000060: 95d6 8bc1 4120 8dc1 3a3a 86c1 3eef 8bc1
00000070: 53fa 8bc1 ee7c a0c1 1518 33c1 f24f 50c1
00000080: 8446 91c1 d548 95c1 c107 8ec1 9317 8ac1
00000090: 6f6c 45c1 5aad 9cc1 3336 87c1 37ba 95c1
000000a0: cab3 84c1 08e4 87c1 218d 4ac1 dfd5 94c1
000000b0: 137f 8ac1 e4c3 42c1 c793 72c1 a2fb 91c1
000000c0: 11fa 8ac1 610d 32c1 fbb9 98c1 93cd 88c1
000000d0: 11d7 88c1 f643 8cc1 da44 99c1 3a01 52c1
000000e0: fce6 89c1 1963 8ec1 65b6 86c1 3849 89c1
000000f0: a0c1 43c1 b6c6 37c1 79fe a7c1 deb7 8fc1

layer1.1.running_var f4 [64]
2.7901723 0.3473711 5.0842395 8.826047 10.406128 1.3518285 2.348957 190.2342
0.26259333 12.991425 2.2903383 1.0896676 112.817566 0.38800657 17.69337 36.212837
2.5645528 0.59478056 0.46435672 0.57838017 6.8526406 35.449245 2.0094783 3.6388981
2.2608962 2.1321805 0.43455195 1.7877553 3.9793694 60.03615 9.428549 31.94207
11.329395 29.034342 28.572254 1.1081445 31.974108 63.603935 1.5640397 23.043829
0.64152026 1.4715813 27.004955 22.428968 8.309907 20.48581 3.6233106 0.4664993
2.6678915 47.346992 48.884182 1.3563403 2.3516006 0.42987058 29.544434 23.896372
4.1430535 0.8965612 3.3645606 3.2203836 10.441854 38.05045 113.46436 1.9938598
00000000: 2f92 3240 a0da b13e 17b2 a240 7d37 0d41
00000010: 807f 2641 b708 ad3f 5055 1640 f53b 3e43
00000020: a272 863e e0dc 4f41 e794 1240 3a7a 8b3f
00000030: 98a2 e142 cca8 c63e 068c 8d41 f2d9 1042
00000040: a221 2440 8a43 183f 2ac0 ed3e b910 143f
00000050: d548 db40 07cc 0d42 4b9b 0040 b5e3 6840
00000060: 86b2 1040 a575 0840 987d de3e 2ad5 e43f
00000070: fdad 7e40 0525 7042 56db 1641 5c89 ff41
00000080: 3445 3541 5546 e841 fa93 e441 aed7 8d3f
00000090: f9ca ff41 6e6a 7e42 7432 c83f c359 b841
000000a0: ac3a 243f c75c bc3f 260a d841 876e b341
000000b0: 61f5 0441 f0e2 a341 52e4 6740 ffd8 ee3e
000000c0: bcbe 2a40 5263 3d42 6789 4342 8f9c ad3f
000000d0: a080 1640 ff17 dc3e 005b ec41 c52b bf41
000000e0: e593 8440 0985 653f f654 5740 c41a 4e40
000000f0: d511 2741 a933 1842 c1ed e242 cc36 ff3f

layer2.0.weight f4 [64, 64, 3, 3]
0.02868208 0.051715974 0.0036534471 0.43821228 -0.087474436 0.013459932 0.25311312 0.2804188
-0.2083457 0.13327298 0.1260113 -0.114460364 0.027946971 -0.004754081 -0.13805802 0.057414506
-0.0047027366 -0.07884544 -0.03419452 0.04536602 -0.038870286 -0.20805804 -0.0787458 -0.15540333
-0.16374029 -0.03275729 -0.18060681 0.14890207 0.06603358 -0.036315497 0.21588114 0.2207732
0.15422256 0.163747 0.1963022 0.20296094 0.11822367 0.062049255 -0.11650747 0.022479873
0.039171133 -0.100238726 -0.0041446816 0.06892184 -0.067058355 0.30848768 0.13596952 -0.15353398
-0.10009736 0.1306922 -0.037508145 -0.12181063 -0.042273898 0.24938725 0.44862705 0.1282703
0.09280718 0.22158954 0.19509178 0.12826605 0.38249543 0.28647655 0.10819271 0.06935602
-0.027794445 -0.108226486 -0.053990543 -0.08903277 -0.06353508 -0.0570417 -0.1655322 -0.2039046
0.0941773 0.12460091 0.055129167 -0.15616603 0.14246914 -0.040604107 -0.087558925 -0.0782378
0.1020512 -0.0327436 -0.18217619 -0.22250104 0.00200401 -0.13116221 -0.3044734 -0.17761153
-0.10636339 -0.2883503 0.09079774 0.10850074 -0.07963928 0.025642192 0.4552748 -0.01597891
0.0017346797 0.05182286 0.102378055 0.039947126 0.1787931 0.010386064 0.022214355 0.100353666
0.115191504 -0.07237659 0.033200275 0.070968635 0.12026388 -0.05369416 0.090269856 0.06768622
0.03771909 -0.15721217 -0.07674726 -0.10413794 -0.21734537 -0.11874996 -0.14569886 -0.21285425
-0.30469292 -0.14308834 -0.03437525 0.022866331 -0.05164357 0.18983102 -0.10596279 0.015869102
-0.27113175 -0.06506524 -0.02121833 -0.27840945 -0.1174516 0.007696338 -0.26642022 0.33574373
0.34773725 0.11989205 0.28002295 0.6360793 0.111107245 0.07498184 0.25834072 0.040054377
0.03843972 0.07872991 -0.049181122 0.19265151 0.041583322 -0.06393808 0.027399577 -0.037054542
-0.22161405 0.07338258 -0.094733566 -0.090475395 0.054176167 0.09122749 0.052185077 0.07317807
0.10048406 0.0018460132 0.09645204 -0.016498137 -0.09435569 -0.0873285 -0.16665275 -0.06905257
-0.03233625 -0.09500546 -0.009200663 -0.14739719 -0.13797966 -0.19287902 -0.16984378 -0.09176794
-0.08174382 -0.19551228 0.07957332 -0.18113826 0.33310232 0.18925382 0.29596022 0.28651544
0.13373567 0.24727242 0.3123684 0.13803573 0.13851443 0.09300643 0.16449927 -0.072885774
-0.03997137 0.08807383 -0.14491534 -0.011477276 0.05331842 -0.08450015 0.16367958 0.18768908
-0.09780825 -0.020589825 -0.0027915658 -0.08564649 0.08354702 -0.020185044 0.1525145 0.07775571
-0.18250655 -0.2998176 0.19380012 0.096533634 -0.2534393 0.16202231 0.26038942 -0.17602973
0.23880157 0.12362885 -0.07249862 0.15962632 0.28753662 0.13472626 -0.11114877 0.008854905
0.07206814 -0.00088301196 0.13107127 -0.072483435 0.34455344 0.043639198 -0.13013153 0.27698085
0.06465482 -0.1651243 0.15562396 0.08671948 -0.16110674 0.23583566 0.045749396 -0.22374973
0.12839358 0.06073313 -0.025251487 0.24010779 0.09328869 0.05940676 -0.03923771 0.15495147
-0.019480065 -0.04776681 -0.027248524 0.019520791 0.17355043 0.29993793 0.24487521 0.24339302
00000000: aef6 ea3c 21d4 533d ac6e 6f3b 5c5d e03e
00000010: cc25 b3bd 0c87 5c3c 0b98 813e 0e93 8f3e
00000020: 9358 55be b678 083e 1b09 013e 326a eabd
00000030: 0cf1 e43c 1fc8 9bbb 155f 0dbe 792b 6b3d
00000040: 6a19 9abb b879 a1bd 8e0f 0cbd b8d1 393d
00000050: 7336 1fbd 2b0d 55be 7a45 a1bd 0d22 1fbe
00000060: 89ab 27be 822c 06bd fef0 38be c979 183e
00000070: 9d3c 873d 8fbf 14bd f20f 5d3e 5f12 623e
00000080: 85ec 1d3e 4bad 273e 7203 493e fed4 4f3e
00000090: 401f f23d 5c27 7e3d 789b eebd b627 b83c
000000a0: e971 203d f649 cdbd 1cd0 87bb e526 8d3d
000000b0: e455 89bd 19f2 9d3e 983b 0b3e 0338 1dbe
000000c0: d8ff ccbd 2dd4 053e 24a2 19bd da77 f9bd
000000d0: 6527 2dbd 5f5f 7f3e 72b2 e53e 4a59 033e
000000e0: b111 be3d 5ee8 623e 24c6 473e 2d58 033e
000000f0: 71d6 c33e 0ead 923e 2494 dd3d 870a 8e3d
00000100: 2db1 e3bc d9a5 ddbd 3025 5dbd d056 b6bd
00000110: ae1e 82bd 8fa4 69bd 4681 29be 5ecc 50be
00000120: 07e0 c03d c32e ff3d 1fcf 613d fde9 1fbe
00000130: 6ee3 113e 7e50 26bd 1852 b3bd 243b a0bd
00000140: 3800 d13d 271e 06bd 658c 3abe 50d7 63be
00000150: b555 033b 634f 06be f0e3 9bbe ccdf 35be
00000160: 0dd5 d9bd a7a2 93be 2af4 b93d a335 de3d
00000170: eb19 a3bd 930f d23c c719 e93e 34e6 82bc
00000180: 315e e33a 3544 543d 96ab d13d 999f 233d
00000190: 8a15 373e 4f2a 2a3c e1fa b53c 3986 cd3d
000001a0: 86e9 eb3d 2d3a 94bd 03fd 073d 0158 913d
000001b0: e94c f63d 68ee 5bbd 67df b83d 139f 8a3d
000001c0: 557f 1a3d 3afc 20be ab2d 9dbd 4646 d5bd
000001d0: c98f 5ebe 2e33 f3bd 1532 15be 77f6 59be
000001e0: b600 9cbe c085 12be 10cd 0cbd 2c52 bb3c
000001f0: 3588 53bd 1063 423e 0503 d9bd ebff 813c
00000200: c8d1 8abe ed40 85bd 10d2 adbc af8b 8ebe
00000210: 778a f0bd 9031 fc3b 3b68 88be 9ae6 ab3e
00000220: 9e0a b23e f789 f53d 2b5f 8f3e 18d6 223f
00000230: 328c e33d 1490 993d 3c45 843e 0f10 243d
00000240: f872 1d3d 263d a13d 2572 49bd 7046 453e
00000250: 4653 2a3d f8f1 82bd 1475 e03c 81c6 17bd
00000260: cbee 62be 9b49 963d ac03 c2bd 2a4b b9bd
00000270: d4e7 5d3d 7ad5 ba3d 05c0 553d 62de 953d
00000280: 96ca cd3d edf5 f13a a688 c53d 1a27 87bc
00000290: 8e3d c1bd 49d9 b2bd 05a7 2abe 6f6b 8dbd
000002a0: 0473 04bd 3992 c2bd 61be 16bc 4aef 16be
000002b0: 8a4a 0dbe 1482 45be 87eb 2dbe d4f0 bbbd
000002c0: 4e69 a7bd 5f34 48be 56f7 a23d 4f7c 39be
000002d0: 638c aa3e c1cb 413e 1988 973e 27b2 923e
000002e0: 01f2 083e fb34 7d3e c0ee 9f3e 3d59 0d3e
000002f0: bad6 0d3e 287a be3d 7f72 283e 2345 95bd
00000300: 05b9 23bd 0d60 b43d b064 14be 2f0b 3cbc
00000310: 6a64 5a3d 6a0e adbd 9f9b 273e 9131 403e
00000320: b14f c8bd feab a8bc b4f2 36bb 6d67 afbd
00000330: b31a ab3d 1b5b a5bc c32c 1c3e 633e 9f3d
00000340: ffe2 3abe b181 99be 8a73 463e 6db3 c53d
00000350: ccc2 81be 2de9 253e c351 853e 2341 34be
00000360: 6688 743e 1f31 fd3d 287a 94bd 1575 233e
00000370: 0038 933e aef5 093e f7a1 e3bd 2a14 113c
00000380: 7698 933d ee79 67ba 8c37 063e 3272 94bd
00000390: 4f69 b03e 04bf 323d 3341 05be 6fd0 8d3e
000003a0: bf69 843d 5816 29be e35b 1f3e fc99 b13d
000003b0: 2af9 24be e77e 713e b863 3b3d a61e 65be
000003c0: 9b79 033e 4dc3 783d 35dc cebc d1de 753e
000003d0: 240e bf3d 8154 733d b9b7 20bd 99ab 1e3e
000003e0: a894 9fbc 21a7 43bd 4c38 dfbc 11ea 9f3c
000003f0: 34b7 313e 7791 993e 91c0 7a3e 053c 793e

layer2.0.bias f4 [64]
9.949687 12.511828 13.694941 13.27026 11.881256 14.576067 12.347416 13.858032
11.5639715 12.594146 12.633989 13.873641 12.415207 14.170275 9.553826 10.631818
12.775886 13.578471 12.859437 11.423754 13.9917965 13.40026 13.297284 12.609382
13.0432415 12.31507 13.169966 12.137388 13.481703 12.081161 13.38339 12.64443
13.248317 13.269295 13.093929 14.25474 12.744961 13.436275 12.224679 11.883562
13.2876625 13.786824 13.659338 8.828879 13.219654 12.872471 13.875483 12.652032
13.843024 13.818611 13.924288 14.181835 13.547133 12.971278 13.252909 11.052339
13.522792 13.8559265 15.302632 14.31074 12.559834 13.079213 13.976933 12.596234
00000000: eb31 1f41 7330 4841 7a1e 5b41 fc52 5441
00000010: a019 3e41 9237 6941 048f 4541 80ba 5d41
00000020: 0706 3941 9f81 4941 d224 4a41 6ffa 5d41
00000030: b0a4 4641 72b9 6241 79dc 1841 ed1b 2a41
00000040: 076a 4c41 6b41 5941 41c0 4d41 b2c7 3641
00000050: 66de 5f41 7767 5641 adc1 5441 07c0 4941
00000060: 1eb1 5041 870a 4541 2eb8 5241 be32 4241
00000070: 0eb5 5741 6f4c 4141 5e22 5641 964f 4a41
00000080: 1bf9 5341 084f 5441 bc80 5141 6a13 6441
00000090: 5ceb 4b41 fbfa 5641 4998 4341 1223 3e41
000000a0: 449a 5441 d596 5c41 a68c 5a41 1743 0d41
000000b0: b483 5341 a4f5 4d41 fa01 5e41 b96e 4a41
000000c0: 077d 5d41 0819 5d41 e2c9 5e41 cce8 6241
000000d0: 0fc1 5841 5b8a 4f41 ea0b 5441 61d6 3041
000000e0: 5b5d 5841 e0b1 5d41 95d7 7441 cbf8 6441
000000f0: 14f5 4841 7544 5141 84a1 5f41 2d8a 4941

layer2.1.weight f4 [64]
0.4990473 0.96287876 1.117454 0.90799797 0.45481667 1.3161516 0.71900964 1.2005246
0.54833776 1.0966499 1.0979595 0.9160862 1.0750022 1.1621393 0.43824893 0.5226599
1.1973102 0.8960654 0.7698961 0.59119767 1.0890633 1.4066216 1.1043189 1.3515159
1.2527432 1.2000021 1.165467 0.71726096 0.74089295 1.0648148 1.2960507 0.83966845
0.85583884 1.2105579 0.76976395 1.3202653 0.6560352 1.0205275 1.3854865 0.7629741
0.8000657 1.233 0.88749844 0.38153535 1.2239358 1.0999757 1.285407 0.65884316
0.8630441 0.81958675 1.0944726 1.1775057 1.264523 1.145892 0.9301285 0.49418265
1.2127885 0.9429752 1.3055295 1.2562088 1.0408698 1.2084985 0.9498447 0.68542624
00000000: 2183 ff3e 397f 763f bc08 8f3f 8e72 683f
00000010: bbdd e83e a877 a83f 0411 383f caaa 993f
00000020: dd5f 0c3f 065f 8c3f f089 8c3f a084 6a3f
00000030: ac99 893f fbc0 943f 2a62 e03e 0acd 053f
00000040: 7641 993f 8b64 653f e917 453f bb58 173f
00000050: 6d66 8b3f 2d0c b43f 525a 8d3f 79fe ac3f
00000060: e459 a03f ab99 993f 062e 953f 6a9e 373f
00000070: 29ab 3d3f da4b 883f fde4 a53f 83f4 563f
00000080: 4118 5b3f 90f3 9a3f 400f 453f 74fe a83f
00000090: ecf1 273f a5a0 823f 9f57 b13f 4552 433f
000000a0: 1bd1 4c3f f2d2 9d3f 1933 633f 9a58 c33e
000000b0: eea9 9c3f 01cc 8c3f 3788 a43f f2a9 283f
000000c0: 75f0 5c3f 70d0 513f ae17 8c3f 82b8 963f
000000d0: e4db a13f 97ac 923f e71c 6e3f 8205 fd3e
000000e0: a73c 9b3f d366 713f 971b a73f 73cb a03f
000000f0: 393b 853f 14b0 9a3f 0629 733f 1878 2f3f

layer2.1.bias f4 [64]
-0.46972868 -0.19921851 -0.25973046 -0.0027325645 -0.37398452 0.034623764 -0.4835074 0.058742903
-0.31306002 -0.055029646 -0.21710432 -0.025185298 0.015386428 -0.067620695 -0.51315373 -0.52281463
-0.13915648 -0.17733088 -0.606623 -0.5198209 -0.24015658 -0.12216345 0.055911798 -0.049995724
0.09733081 0.28183913 -0.13404877 -0.3496713 -0.23411895 -0.1687286 -0.0037865713 0.05960058
-0.070372425 0.13562496 -0.2058588 0.23714499 -0.38171798 -0.13421907 0.051602963 -0.06881619
0.054469436 0.048515305 0.06647724 -0.55366164 0.04840123 0.05776542 0.037352122 -0.05340144
-0.025597177 -0.058448393 0.013872509 0.2327943 0.01777923 -0.113558546 -0.12302781 -0.75830466
0.01839712 -0.100841805 -0.24841122 0.079415694 0.10676274 -0.32643682 -0.2812539 -0.41527152
00000000: 4780 f0be f0ff 4bbe 64fb 84be d314 33bb
00000010: e67a bfbe a6d1 0d3d 488e f7be 669c 703d
00000020: 6749 a0be c466 61bd 9850 5ebe 6651 cebc
00000030: 5b17 7c3c b87c 8abd 0b5e 03bf 2ed7 05bf
00000040: 097f 0ebe 3a96 35be a54b 1bbf fc12 05bf
00000050: 9beb 75be d530 fabd c503 653d 51c8 4cbd
00000060: 6055 c73d 384d 903e 1544 09be 1e08 b3be
00000070: e1bc 6fbe 31c7 2cbe 2028 78bb bd1f 743d
00000080: 6b1f 90bd 45e1 0a3e a6cc 52be 23d6 723e
00000090: 8a70 c3be b970 09be a15d 533d 81ef 8cbd
000000a0: 581b 5f3d fcb7 463d 3825 883d c5bc 0dbf
000000b0: 5e40 463d 6f9b 6c3d 8afe 183d 78bb 5abd
000000c0: 2cb1 d1bc 9567 6fbd 8549 633c a161 6e3e
000000d0: bfa5 913c 6291 e8bd 01f6 fbbd 4120 42bf
000000e0: 8fb5 963c 2686 cebd 835f 7ebe b2a4 a23d
000000f0: 6ca6 da3d ba22 a7be 8300 90be 789e d4be

layer2.1.running_mean f4 [64]
18.26961 9.354883 9.408279 9.3700075 9.127018 9.249542 13.770265 -1.3153522
16.453564 8.28674 0.99434865 11.500099 8.657301 13.00997 17.919199 23.792065
2.7653885 11.906298 26.292862 13.608232 12.104385 5.977934 7.0478497 -0.5878296
4.585549 -4.659421 7.837391 9.553261 9.551612 0.37237743 11.913974 12.37426
-1.2781126 5.5003867 7.09123 11.026314 9.297302 7.436527 -8.894606 5.8638916
17.554413 11.100168 -0.07407385 18.221115 11.310677 8.23937 10.195102 10.166698
17.203552 11.858658 16.238594 -2.053205 5.4261284 4.055902 7.3675013 27.685215
4.966096 10.547848 12.534348 7.790968 3.5581172 4.265005 14.374014 9.703171
00000000: 2928 9241 9aad 1541 5088 1641 8deb 1541
00000010: 4408 1241 20fe 1341 0153 5c41 765d a8bf
00000020: e6a0 8341 7d96 0441 a28d 7e3f 6800 3841
00000030: 4e84 0a41 d628 5041 855a 8f41 2656 be41
00000040: 20fc 3040 3280 3e41 c857 d241 51bb 5941
00000050: 90ab 4141 3c4b bf40 fc87 e140 007c 16bf
00000060: d1bc 9240 fa19 95c0 e8cb fa40 28da 1841
00000070: 67d3 1841 41a8 be3e a39f 3e41 f8fc 4541
00000080: 3299 a3bf 2b03 b040 5beb e240 c86b 3041
00000090: c0c1 1441 07f8 ed40 4e50 0ec1 00a5 bb40
000000a0: 706f 8c41 4a9a 3141 08b4 97bd d8c4 9141
000000b0: 88f8 3441 76d4 0341 231f 2341 ccaa 2241
000000c0: e0a0 8941 10bd 3d41 a4e8 8141 b667 03c0
000000d0: d8a2 ad40 f3c9 8140 92c2 eb40 527b dd41
000000e0: 42ea 9e40 fcc3 2841 b08c 4841 9c4f f940
000000f0: 31b8 6340 ec7a 8840 f6fb 6541 3040 1b41

layer2.1.running_var f4 [64]
93.58034 134.38042 64.40129 30.939507 41.651672 59.692245 50.200184 52.753056
57.701164 92.0037 97.929985 22.244385 162.91348 45.969044 86.97327 95.72064
150.5548 22.223726 38.039997 84.12635 32.315407 104.227135 68.74711 174.76651
142.11351 174.52046 90.71692 55.212563 35.48024 135.0328 63.524433 39.498474
54.017513 97.73154 22.474066 51.36929 32.15262 59.987587 329.45544 139.6969
21.622215 78.09544 44.845455 238.74536 103.02103 62.280006 67.59884 22.216215
33.210567 14.433076 58.75949 39.55945 59.000126 100.01544 52.477985 90.45418
95.38625 28.791157 7.7004304 64.24488 91.75353 141.51201 28.30253 56.46389
00000000: 2229 bb42 6361 0643 76cd 8042 1c84 f741
00000010: 509b 2642 dcc4 6e42 fdcc 4842 2103 5342
00000020: fecd 6642 e501 b842 27dc c342 80f4 b141
00000030: dae9 2243 4de0 3742 50f2 ad42 f870 bf42
00000040: 078e 1643 31ca b141 f528 1842 b140 a842
00000050: fa42 0142 4b74 d042 857e 8942 3ac4 2e43
00000060: 0f1d 0e43 3d85 2e43 106f b542 aad9 5c42
00000070: c4eb 0d42 6608 0743 0519 7e42 70fe 1d42
00000080: ef11 5842 8c76 c342 e3ca b341 277a 4d42
00000090: 489c 0042 4af3 6f42 4cba a443 68b2 0b43
000000a0: 4cfa ac41 de30 9c42 bf61 3342 d0be 6e43
000000b0: c40a ce42 ba1e 7942 9b32 8742 cfba b141
000000c0: 9fd7 0442 e1ed 6641 b809 6b42 e03c 1e42
000000d0: 2100 6c42 e807 c842 75e9 5142 8ae8 b442
000000e0: c3c5 be42 4a54 e641 ed69 f640 617d 8042
000000f0: cf81 b742 1383 0d43 956b e241 06db 6142

layer3.0.weight f4 [64, 64, 3, 3]
-0.009512646 0.09310035 0.122535385 0.017761339 -0.036922265 -0.012283934 -0.039389964 0.011005748
0.014212596 -0.16020742 0.017573781 0.15045795 0.07289362 0.15103406 -0.00067869376 0.10604077
0.066562936 0.0035975492 -0.10703604 -0.11171615 -0.24035622 -0.41733283 -0.30969363 -0.36337447
-0.18624726 -0.16144511 -0.087034106 -0.14432779 -0.13166402 -0.047397185 0.009466364 -0.08060768
0.14676517 0.16369843 0.17151673 0.14228268 -0.13498408 -0.059864294 -0.027345262 -0.06534913
-0.02338516 0.07937503 -0.03224514 0.05324839 0.0492562 0.4521556 0.38186285 0.24199311
0.33889276 0.27661857 0.2617794 0.36789897 0.34270358 0.28297338 0.0818521 0.06095906
0.028319845 0.070187084 -0.07698384 0.0077475957 0.017460983 -0.066656806 -0.02936502 0.1935923
-0.03754476 0.012000631 0.08147255 -0.020921571 -0.002373605 0.16292524 0.051590685 -0.12521493
-0.07993893 -0.09409479 -0.026570097 0.014367858 0.03725972 0.14102249 0.06658363 0.14137137
0.08107728 -0.22905196 -0.19011404 -0.0076636057 -0.17327152 -0.067705154 0.13170943 -0.043202046
0.1733479 0.40556988 -0.32501307 -0.29959056 -0.07440013 -0.39713243 -0.38177258 -0.1821557
-0.256537 -0.13907632 -0.24770193 -0.26655275 -0.07435444 -0.003514039 -0.05773308 0.05288679
0.20117457 0.06565227 0.170097 0.14199673 -0.56594497 -0.03576911 0.085363984 -0.3185336
-0.09019658 0.21917893 -0.11116408 0.014985063 0.21416363 -0.17076723 -0.021288307 0.15787114
-0.10108406 0.11240122 0.20646304 0.10733228 0.37166268 0.39694738 0.16153839 0.23078425
0.09049565 0.124619104 0.18683773 -0.0031735487 0.023610307 0.16897206 0.04992825 -0.031891163
-0.05286183 0.00010384069 0.100189924 0.16172296 0.19738437 0.13586222 0.294501 0.15631741
0.081175596 0.06534886 -0.16356897 -0.008219338 -0.17694533 -0.25812796 -0.008802781 -0.0852227
-0.104057364 -0.16288213 -0.059507992 0.0076199276 -0.058725625 0.12918904 0.040667217 -0.052248523
0.039977554 0.0028876734 -0.21185488 -0.33704814 -0.30477363 0.07404173 0.015359258 0.057674382
0.29093492 0.3073542 0.15861058 0.062363073 0.06954908 0.05790606 -0.07091379 -0.07711307
-0.07317875 -0.07136568 -0.16345547 -0.18425684 -0.105041265 -0.09282351 0.058502387 -0.22363363
-0.13683382 -0.053864677 -0.11553346 -0.24408995 -0.11017839 -0.15226287 -0.064600706 0.23141496
0.054860238 0.11794898 0.25276607 0.02835491 0.20403343 0.17673926 0.05193062 -0.25865468
-0.27456793 0.15126048 -0.073772304 0.15228742 0.10528595 0.07132252 0.21881978 0.11270271
0.024349805 0.3049604 0.045519717 0.19319032 0.31301796 0.01844915 -0.019042807 0.17482084
-0.12614687 -0.32993606 -0.36091217 -0.28851444 -0.2813357 -0.3131335 -0.28963324 -0.13005054
-0.15206012 0.18653241 0.01259828 0.15391593 0.15538011 0.14691724 0.301166 -0.14852138
0.13879308 0.23429906 -0.2925803 -0.35144398 -0.35986298 -0.27758235 -0.45039573 -0.17112584
-0.110375434 -0.35337672 -0.3572472 -0.03299635 0.12687454 0.08494682 -0.119120084 0.0927225
-0.0867372 -0.22040448 -0.18469046 -0.2486487 0.027416188 0.29644978 0.04190855 0.10882987
00000000: eeda 1bbc 65ab be3d d5f3 fa3d 3a80 913c
00000010: cd3b 17bd 8e42 49bc 5f57 21bd 7451 343c
00000020: f3db 683c 6a0d 24be e4f6 8f3c a611 1a3e
00000030: 4049 953d aca8 1a3e 5eea 31ba e72b d93d
00000040: 2652 883d dcc4 6b3b b635 dbbd 70cb e4bd
00000050: f11f 76be a6ac d5be 2a90 9ebe 380c babe
00000060: 9ab7 3ebe de51 25be f03e b2bd aaca 13be
00000070: efd2 06be 8d23 42bd cf18 1b3c a415 a5bd
00000080: 9c49 163e 90a0 273e 15a2 2f3e 8db2 113e
00000090: 4439 0abe 4334 75bd 2c03 e0bc c4d5 85bd
000000a0: 3c92 bfbc 608f a23d 7b13 04bd fc1a 5a3d
000000b0: dfc0 493d f080 e73e 8783 c33e 0bcd 773e
000000c0: 5a83 ad3e f3a0 8d3e f307 863e 415d bc3e
000000d0: d876 af3e e3e1 903e 13a2 a73d 35b0 793d
000000e0: 05ff e73c 3fbe 8f3d b4a9 9dbd 8bdf fd3b
000000f0: 560a 8f3c 5d83 88bd e98e f0bc 0f3d 463e
00000100: 89c8 19bd 4b9e 443c 15db a63d b763 abbc
00000110: 7c8e 1bbb e0d5 263e c150 533d 5838 00be
00000120: 06b7 a3bd c5b4 c0bd 88a9 d9bc 2a67 6b3c
00000130: a69d 183d 3368 103e 005d 883d a8c3 103e
00000140: d80b a63d 998c 6abe 41ad 42be fc1e fbbb
00000150: 176e 31be 00a9 8abd d6de 063e a1f4 30bd
00000160: 1d82 313e dba6 cf3e 1d68 a6be ef63 99be
00000170: 185f 98bd f154 cbbe b277 c3be 0687 3abe
00000180: d158 83be 066a 0ebe 93a5 7dbe 9a79 88be
00000190: 2447 98bd cb4b 66bb 8679 6cbd d29f 583d
000001a0: b500 4e3e b374 863d e82d 2e3e 9767 113e
000001b0: c5e1 10bf a182 12bd 50d3 ae3d d616 a3be
000001c0: fcb8 b8bd 7170 603e fea9 e3bd e983 753c
000001d0: b64d 5b3e 9bdd 2ebe d164 aebc f9a8 213e
000001e0: 2905 cfbd 9c32 e63d 0c6b 533e 07d1 db3d
000001f0: 924a be3e b03c cb3e 526a 253e b552 6c3e
00000200: c955 b93d 4d38 ff3d 6452 3f3e 50fb 4fbb
00000210: 676a c13c 0307 2d3e 9181 4c3d 4fa0 02bd
00000220: a585 58bd 0cc5 d938 6030 cd3d b49a 253e
00000230: 211f 4a3e 771f 0b3e d6c8 963e ac11 203e
00000240: 643f a63d a0d5 853d a07e 27be 67aa 06bc
00000250: 2831 35be 5929 84be 8a39 10bc 3d89 aebd
00000260: 071c d5bd 93ca 26be a7be 73bd 96b0 f93b
00000270: 488a 70bd 224a 043e ab92 263d 8c02 56bd
00000280: 81bf 233d 1f3f 3d3b 7cf0 58be 9391 acbe
00000290: 4a0b 9cbe 31a3 973d 66a5 7b3c f93b 6c3d
000002a0: 6cf5 943e 885d 9d3e d06a 223e 6c70 7f3d
000002b0: c06f 8e3d e82e 6d3d 403b 91bd 75ed 9dbd
000002c0: bede 95bd 2b28 92bd df60 27be d3ad 3cbe
000002d0: e01f d7bd 411a bebd 33a0 6f3d 3700 65be
000002e0: 2a1e 0cbe 35a1 5cbd cf9c ecbd b7f2 79be
000002f0: 35a5 e1bd ccea 1bbe 604d 84bd 0bf8 6c3e
00000300: 21b5 603d 3c8f f13d 8e6a 813e 8e48 e83c
00000310: 24ee 503e 23fb 343e 34b5 543d 636e 84be
00000320: 2b94 8cbe 07e4 1a3e ef15 97bd 3cf1 1b3e
00000330: 29a0 d73d 8b11 923d 4b12 603e aed0 e63d
00000340: 3e79 c73c c523 9c3e e272 3a3d afd3 453e
00000350: e443 a03e ac22 973c a9ff 9bbc 3c04 333e
00000360: a52c 01be 61ed a8be 7bc9 b8be 2ab8 93be
00000370: 3c0b 90be 0953 a0be cf4a 94be f82b 05be
00000380: a6b5 1bbe 5a02 3f3e 0469 4e3c 239c 1d3e
00000390: f71b 1f3e 7971 163e 6e32 9a3e fd15 18be
000003a0: c61f 0e3e 18ec 6f3e 16cd 95be 77f0 b3be
000003b0: f63f b8be 461f 8ebe 459a e6be 9d3b 2fbe
000003c0: 840c e2bd cbed b4be 1be9 b6be 2e27 07bd
000003d0: 66eb 013e 99f8 ad3d 3bf5 f3bd 4be5 bd3d
000003e0: 46a3 b1bd b6b1 61be 7f1f 3dbe c49d 7ebe
000003f0: ea97 e03c 44c8 973e 4da8 2b3d 32e2 de3d

layer3.0.bias f4 [64]
8.5046425 6.8691773 7.074143 6.397936 7.789356 8.353728 8.043307 9.54626
8.907808 7.6703725 6.735547 9.332319 7.211855 7.1743584 7.9631696 7.1153398
5.603111 7.4918323 7.3413644 6.860358 6.1358085 7.6436453 6.002828 6.5479746
8.45962 3.9568772 7.7432466 4.872679 7.754818 7.095507 7.3467035 7.703908
5.4080296 7.7596345 6.905812 7.399079 6.08129 7.94513 7.439607 7.089589
6.7384424 5.4514394 7.1470985 4.2811685 7.529064 7.105576 8.189577 8.32305
4.775781 7.067851 6.8594713 7.2396016 7.7785544 7.000563 5.7923236 6.4601297
9.391836 7.069564 6.3112493 7.508333 7.4199653 8.089468 8.975275 7.210894
00000000: 0413 0841 4dd0 db40 615f e240 e4bb cc40
00000010: 6842 f940 dfa8 0541 63b1 0041 7bbd 1841
00000020: 6286 0e41 b173 f540 9a89 d740 2e51 1541
00000030: 84c7 e640 5894 e540 49d2 fe40 ddb0 e340
00000040: af4c b340 17bd ef40 75ec ea40 0e88 db40
00000050: 8b58 c440 be98 f440 2b17 c040 0289 d140
00000060: 9b5a 0741 7a3d 7d40 adc8 f740 fdec 9b40
00000070: 7827 f840 650e e340 3218 eb40 6a86 f640
00000080: 940e ad40 ed4e f840 69fc dc40 41c5 ec40
00000090: ed99 c240 813e fe40 4311 ee40 eadd e240
000000a0: 52a1 d740 3172 ae40 08b5 e440 55ff 8840
000000b0: 18ee f040 e160 e340 8208 0341 362b 0541
000000c0: 33d3 9840 d62b e240 ca80 db40 d1aa e740
000000d0: ebe9 f840 9d04 e040 b75a b940 62b9 ce40
000000e0: f644 1641 de39 e240 c1f5 c940 4444 f040
000000f0: 5b70 ed40 766e 0141 ba9a 0f41 a5bf e640

layer3.1.weight f4 [64]
1.0413266 0.7840509 0.8833966 0.90933186 0.8827743 1.1854985 1.2191652 1.2673951
1.2044766 1.2749134 1.2386898 1.3185308 1.2359747 0.8562377 1.2886994 1.0906923
0.68765783 1.0702834 1.2930275 1.0376176 0.6534673 1.3889449 0.6670061 0.76684195
1.3178638 0.5137327 0.890666 0.6233523 1.2107763 0.7266529 1.16544 0.8713954
0.92114073 1.092773 1.0803126 0.88307565 0.97106594 0.9870737 0.90780675 1.099627
1.0448203 0.6561066 0.82771623 0.5642408 0.7926089 1.1377585 1.3011339 1.3457448
0.53539133 1.2837836 1.2707772 1.002602 1.0693715 1.1128614 0.8101025 1.0323461
1.1890211 0.87944096 0.9979745 1.0546004 1.1679547 0.9162053 1.0922576 0.9357764
00000000: 314a 853f 8fb7 483f 4826 623f f9c9 683f
00000010: 7ffd 613f 6abe 973f 9b0d 9c3f 013a a23f
00000020: 4a2c 9a3f 5d30 a33f 638d 9e3f 9ec5 a83f
00000030: 6b34 9e3f 6532 5b3f 1af4 a43f ce9b 8b3f
00000040: 580a 303f 0cff 883f ed81 a53f a7d0 843f
00000050: a249 273f f2c8 b13f e9c0 2a3f c14f 443f
00000060: c3af a83f fc83 033f b002 643f 0494 1f3f
00000070: b8fa 9a3f ed05 3a3f 232d 953f c513 5f3f
00000080: e1cf 6b3f fcdf 8b3f af47 8a3f 3f11 623f
00000090: c797 783f ddb0 7c3f 0666 683f 94c0 8c3f
000000a0: acbc 853f 9af6 273f 36e5 533f 1672 103f
000000b0: 6be8 4a3f 12a2 913f 8e8b a63f 5e41 ac3f
000000c0: 680f 093f 0553 a43f d4a8 a23f 4355 803f
000000d0: 2ae1 883f 3e72 8e3f e162 4f3f eb23 843f
000000e0: d831 983f 0b23 613f 427b 7f3f 25fd 863f
000000f0: 8a7f 953f 6e8c 6a3f 19cf 8b3f 0b8f 6f3f

layer3.1.bias f4 [64]
-0.12712753 -0.09072147 -0.24936292 -0.24092361 -0.20377417 -0.48726586 -0.07102075 -0.09454869
-0.38047594 0.0521302 -0.21115878 -0.2978839 -0.14146882 -0.24594575 -0.17629455 -0.23002927
-0.34857875 -0.1734511 -0.22427687 -0.26409215 -0.14863618 -0.11945358 -0.2484685 -0.39535993
-0.36306643 -0.32351437 -0.28822008 -0.3785103 -0.07711311 -0.36237532 -0.10222581 -0.18153234
-0.1974329 -0.3871274 -0.1152954 -0.22442487 -0.030218825 -0.27789253 -0.23787901 -0.1382201
0.08799599 -0.2625755 -0.2829793 -0.30527648 -0.3030957 -0.0048523834 -0.1900137 -0.006604996
-0.45508116 -0.06605749 -0.17403173 -0.16853143 -0.24807572 -0.15156464 -0.29069003 -0.148846
-0.3113655 -0.2910498 -0.15532823 -0.0785848 -0.28943005 -0.35679454 -0.42099407 -0.31168553
00000000: b82d 02be 2ecc b9bd fe58 7fbe aeb4 76be
00000010: 2daa 50be e97a f9be 5473 91bd bea2 c1bd
00000020: becd c2be 7a86 553d 023a 58be 3d84 98be
00000030: 34dd 10be 34d9 7bbe 8f86 34be cb8c 6bbe
00000040: ea78 b2be 2a9d 31be d6a8 65be 1637 87be
00000050: 1534 18be 14a4 f4bd 876e 7ebe 9e6c cabe
00000060: d8e3 b9be ada3 a5be 9591 93be 1acc c1be
00000070: 7aed 9dbd 4289 b9be c45b d1bd 9de3 39be
00000080: da2b 4abe 9035 c6be ff1f ecbd a2cf 65be
00000090: 788d f7bc ee47 8ebe 8e96 73be 9289 0dbe
000000a0: 3e37 b43d 4c70 86be aae2 90be 334d 9cbe
000000b0: 5c2f 9bbe be00 9fbb f492 42be b96e d8bb
000000c0: 6600 e9be 2649 87bd 6035 32be 8193 2cbe
000000d0: 9007 7ebe c333 1bbe 53d5 94be 166b 18be
000000e0: 4c6b 9fbe 7b04 95be 5d0e 1fbe 11f1 a0bd
000000f0: 2d30 94be c6ad b6be 898c d7be 3f95 9fbe

layer3.1.running_mean f4 [64]
5.9766364 12.819624 -0.54052144 -11.853739 11.955792 7.949257 4.58763 7.7320333
7.281142 7.0372586 -2.2232394 5.4317923 0.25513163 3.6792884 11.038919 -1.1881189
0.31911916 5.6042557 0.9638964 0.22294684 -1.1995639 11.245822 -1.2620926 6.1486077
3.8053467 1.5991426 4.247201 10.525471 12.314391 3.7380745 5.795288 9.914713
-9.289886 3.7165911 10.041215 0.3869383 -2.4578931 4.098788 1.4968317 8.802922
0.6134214 3.9509885 5.234755 3.0090525 6.9438553 -14.101558 8.129093 7.2796016
1.9637216 6.0384283 5.849466 4.511908 6.6569834 -1.1185968 16.633553 -3.3345253
8.050778 -8.724303 -0.29748586 3.492078 -0.3232201 7.834246 6.8808045 4.667082
00000000: 9b40 bf40 2e1d 4d41 9d5f 0abf eaa8 3dc1
00000010: ed4a 3f41 5060 fe40 ddcd 9240 d16c f740
00000020: 1eff e840 3931 e140 8e49 0ec0 3ed1 ad40
00000030: 9da0 823e 7679 6b40 6a9f 3041 4814 98bf
00000040: 9663 a33e 1056 b340 eac1 763f 2d4c 643e
00000050: 4f8b 99bf e3ee 3341 408c a1bf 65c1 c440
00000060: cd8a 7340 b4b0 cc3f 12e9 8740 5468 2841
00000070: bf07 4541 9d3c 6f40 0073 b940 aaa2 1e41
00000080: 60a3 14c1 a1dc 6d40 d1a8 2041 c71c c63e
00000090: 1f4e 1dc0 4529 8340 2e98 bf3f c5d8 0c41
000000a0: 2f09 1d3f ffdc 7c40 1d83 a740 5194 4040
000000b0: 1034 de40 fb9f 61c1 c410 0241 7ff2 e840
000000c0: 3b5b fb3f ce3a c140 d32e bb40 8d61 9040
000000d0: 0206 d540 2e2e 8fbf 8411 8541 dd68 55c0
000000e0: fdcf 0041 bf96 0bc1 1150 98be 357e 5f40
000000f0: 1b7d a5be 25b2 fa40 8d2f dc40 bc58 9540

layer3.1.running_var f4 [64]
24.64248 35.530205 31.625027 71.27159 29.195246 31.601292 40.388584 13.743333
18.681509 42.247528 99.76922 16.832582 86.48949 35.92114 52.101795 48.10545
47.469505 51.304497 85.93204 78.799255 32.32163 55.710976 65.0263 21.223232
46.634106 141.19766 32.271954 182.86337 33.110226 41.84391 88.30245 17.039335
83.30324 35.88467 75.14996 36.181667 83.69833 24.032633 28.797432 81.85199
124.54259 46.039345 45.931175 58.266724 24.39482 77.697914 25.63631 39.642117
52.00984 81.74339 65.143074 54.143326 42.024204 82.68873 81.75272 145.01309
13.806571 31.458931 137.36853 50.238102 64.36679 23.823034 16.6792 34.841534
00000000: cd23 c541 ee1e 0e42 0e00 fd41 0e8b 8e42
00000010: dd8f e941 72cf fc41 e98d 2142 b1e4 5b41
00000020: bb73 9541 78fd 2842 d789 c742 21a9 8641
00000030: 9efa ac42 3faf 0f42 3d68 5042 fb6b 4042
00000040: c6e0 3d42 ce37 4d42 34dd ab42 3899 9d42
00000050: 5949 0142 0ad8 5e42 770d 8242 2ec9 a941
00000060: 5389 3a42 9a32 0d43 7b16 0142 06dd 3643
00000070: df70 0442 2a60 2742 db9a b042 8f50 8841
00000080: 429b a642 e789 0f42 c84c 9642 07ba 1042
00000090: 8c65 a742 d542 c041 2461 e641 38b4 a342
000000a0: ce15 f942 4a28 3842 86b9 3742 2011 6942
000000b0: 9728 c341 5565 9b42 2a17 cd41 8791 1e42
000000c0: 130a 5042 9e7c a342 4149 8242 c492 5842
000000d0: c918 2842 a160 a542 6581 a342 5a03 1143
000000e0: b7e7 5c41 e4ab fb41 585e 0943 d1f3 4842
000000f0: ccbb 8042 9395 be41 006f 8541 bb5d 0b42

layer4.0.weight f4 [64, 64, 3, 3]
0.018764056 0.011755926 -0.03262984 -0.28707677 -0.30441314 -0.19092622 -0.1567297 -0.3111204
-0.18983173 -0.12214822 -0.03748887 0.06481366 -0.10314746 0.02738544 -0.038943913 -0.12688603
-0.035028614 0.047919523 -0.052060265 0.062019367 0.056496885 0.039045118 0.1541592 0.04249745
0.090762034 0.038762573 -0.021504303 0.16926523 -0.022045061 0.0052174604 0.028919399 0.01356539
-0.010968729 0.033344906 -0.047997087 -0.20263287 -0.0034349274 -0.006096916 0.014680448 0.004343278
-0.08503747 -0.105384134 0.13549212 0.2236271 0.0849948 0.2652417 0.20872973 0.24425715
0.14089808 0.16560501 0.21014322 0.067503706 0.23736446 0.25564748 0.03907632 0.18836214
0.17960472 0.09164797 0.17927614 0.08459149 0.091488175 0.10183751 0.19440155 -0.23144746
-0.14404424 -0.104560554 -0.30519164 -0.22762765 -0.27266175 -0.23447438 -0.2785176 -0.32521307
-0.4408657 -0.26865074 -0.059647232 -0.3600717 -0.24558346 -0.18333565 -0.27474278 -0.08879818
-0.3142206 -0.28319615 -0.1410119 -0.09392755 -0.09143469 -0.026082573 0.15926057 0.15421663
0.16370504 0.12491195 0.108407915 -0.23237318 -0.2393249 0.043311577 -0.09505672 -0.24723376
0.06593207 -0.12391081 -0.21833688 -0.2368346 -0.08175645 -0.072350025 -0.17691791 -0.04373022
-0.06147599 -0.092079416 -0.02678875 -0.036633417 -0.06564113 -0.07949665 0.10468925 -0.03897852
-0.020995246 -0.14455295 -0.0043380144 0.14831284 0.1153317 0.008902873 0.09641566 0.013902573
0.039525133 -0.10109602 -0.031227661 -0.21638304 -0.052212875 -0.12615463 0.19592108 0.11387432
0.121270776 0.10984754 -0.011836179 0.053619314 0.22434463 0.1464363 0.1414063 0.09908133
0.009598799 0.010486102 0.14544384 0.1315199 -0.00025447813 0.025348356 -0.03119814 -0.0025737663
-0.17155674 -0.20242548 -0.09709711 -0.20177844 -0.16912776 -0.15151915 -0.12156464 -0.297172
-0.244314 -0.16597219 -0.192747 -0.06213276 -0.040548813 -0.28498042 -0.1806822 0.14777537
0.07210701 0.06413141 -0.14712344 -0.37930682 -0.15900403 -0.09378721 -0.1098974 -0.1316669
0.11498021 -0.005945629 -0.14175831 0.14175129 0.034419045 -0.08210584 0.10338861 0.22880693
0.022318399 0.094335906 0.16582434 0.09486397 0.08517134 -0.07947997 -0.1784068 0.03741646
-0.028672349 -0.16836047 -0.043311726 -0.21371023 -0.1318056 -0.32360148 -0.59819114 -0.36514357
-0.15859915 -0.58097154 -0.26032037 -0.06488416 -0.13065507 -0.16646257 -0.009593228 -0.013053385
0.0017175403 0.044176705 0.028586572 -0.043093037 0.04932925 0.087416634 0.01545865 -0.31543803
-0.3386949 -0.39247948 -0.2756578 -0.39407626 -0.3155996 -0.2326816 -0.2944072 -0.1686011
0.23577346 0.27839938 0.27167302 0.30839458 0.28081077 0.29125768 0.30738053 0.33151862
0.24381883 -0.10533002 -0.08582261 0.011203694 -0.03885344 0.025736455 -0.02195966 0.123566955
0.07003185 -0.072883554 -0.021937968 0.06586902 -0.012472355 0.015762541 0.06565823 -0.17743601
0.13272934 0.072985485 -0.026535328 -0.057634857 -0.12624834 -0.17259958 -0.015295934 -0.054506626
0.017582273 -0.04397193 -0.076592445 -0.077653445 -0.07171071 -0.1868961 -0.1891185 -0.08323241
00000000: 14b7 993c ed9b 403c dea6 05bd bafb 92be
00000010: 0adc 9bbe 2a82 43be c07d 20be 2c4b 9fbe
00000020: 4063 42be d928 fabd ee8d 19bd 06bd 843d
00000030: fa3e d3bd 6e57 e03c a783 1fbd 69ee 01be
00000040: 2a7a 0fbd 4347 443d 253d 55bd 0508 7e3d
00000050: 4769 673d c6ed 1f3d e9db 1d3e ce11 2e3d
00000060: 72e1 b93d 81c5 1e3d cb29 b0bc dd53 2d3e
00000070: d897 b4bc 3bf7 aa3b 60e8 ec3c 5f41 5e3c
00000080: 2fb6 33bc ab94 083d 9898 44bd fe7e 4fbe
00000090: 851c 61bb a3c8 c7bb 4386 703c 0e52 8e3b
000000a0: 2028 aebd a3d3 d7bd 72be 0a3e 81fe 643e
000000b0: c111 ae3d c3cd 873e 3fbd 553e 8c1e 7a3e
000000c0: 9647 103e 5c94 293e c92f 573e 623f 8a3d
000000d0: ab0f 733e 3ae4 823e 7e0e 203d 01e2 403e
000000e0: 4dea 373e eeb1 bb3d 2a94 373e 4e3e ad3d
000000f0: 275e bb3d 2f90 d03d 3311 473e 9000 6dbe
00000100: 5580 13be d823 d6bd 1442 9cbe 3917 69be
00000110: 529a 8bbe 0d1a 70be dc99 8ebe 5482 a6be
00000120: 26b9 e1be 978c 89be a850 74bd 515b b8be
00000130: 3b7a 7bbe 57bc 3bbe 16ab 8cbe d2db b5bd
00000140: 86e1 a0be 16ff 90be 6c65 10be 165d c0bd
00000150: 1c42 bbbd 1fab d5bc 3415 233e f7ea 1d3e
00000160: 4ba2 273e d6d1 ff3d f804 de3d 3cf3 6dbe
00000170: 9611 75be 7b67 313d 19ad c2bd d92a 7dbe
00000180: 6507 873d f3c4 fdbd b493 5fbe c584 72be
00000190: ed6f a7bd 402c 94bd f829 35be 761e 33bd
000001a0: 3fce 7bbd 2294 bcbd 1574 dbbc ec0c 16bd
000001b0: db6e 86bd 24cf a2bd 5167 d63d f1a7 1fbd
000001c0: 39fe abbc b005 14be e725 8ebb 52df 173e
000001d0: 0733 ec3d 5bdd 113c 9375 c53d 9ec7 633c
000001e0: 1be5 213d 6e0b cfbd 27d1 ffbc 8493 5dbe
000001f0: 2bdd 55bd ae2e 01be 899f 483e f136 e93d
00000200: d05c f83d bff7 e03d 88ec 41bc ed9f 5b3d
00000210: 99ba 653e 66f3 153e d0cc 103e 27eb ca3d
00000220: 4844 1d3c e6cd 2b3c 3bef 143e 27ad 063e
00000230: 7a6b 85b9 5ba7 cf3c 3e93 ffbc a2ac 28bb
00000240: 92ac 2fbe a048 4fbe d9da c6bd 029f 4ebe
00000250: d42f 2dbe d627 1bbe e2f6 f8bd ee26 98be
00000260: 732d 7abe 9df4 29be 785f 45be ec7e 7ebd
00000270: 8316 26bd f4e8 91be c104 39be 6d52 173e
00000280: d7ac 933d 5457 833d 87a7 16be 8134 c2be
00000290: f4d1 22be 8213 c0bd e311 e1bd b0d3 06be
000002a0: bf7a eb3d 8dd3 c2bb 1729 11be 4027 113e
000002b0: fcfa 0c3d 1b27 a8bd 68bd d33d 5d4c 6a3e
000002c0: 13d5 b63c 2f33 c13d dbcd 293e 0b48 c23d
000002d0: 506e ae3d 65c6 a2bd 46b0 36be 0142 193d
000002e0: 46e2 eabc b066 2cbe a367 31bd dbd6 5abe
000002f0: 0cf8 06be 18af a5be 0e23 19bf 19f4 babe
00000300: d167 22be 8dba 14bf b648 85be fde1 84bd
00000310: 71ca 05be 2a75 2abe ea2c 1dbc dddd 55bc
00000320: 171f e13a a2f2 343d 632e ea3c 5382 30bd
00000330: 780d 4a3d 7e07 b33d 4746 7d3c 1881 a1be
00000340: 6b69 adbe 12f3 c8be 0523 8dbe 5dc4 c9be
00000350: 4596 a1be 1644 6ebe 8abc 96be c4a5 2cbe
00000360: 996e 713e 5d8a 8e3e ba18 8b3e e5e5 9d3e
00000370: 6ec6 8f3e ba1f 953e fb60 9d3e cfbc a93e
00000380: a5ab 793e 44b7 d7bd c4c3 afbd b38f 373c
00000390: c924 1fbd 42d5 d23c bfe4 b3bc ac10 fd3d
000003a0: dc6c 8f3d f943 95bd 41b7 b3bc 56e6 863d
000003b0: d958 4cbc 7220 813c d277 863d c9b1 35be
000003c0: 33ea 073e 6a79 953d 9e60 d9bc 8712 6cbd
000003d0: 3f47 01be f2bd 30be cc9b 7abc 5742 5fbd
000003e0: b308 903c e91b 34bd 80dc 9cbd c508 9fbd
000003f0: 11dd 92bd b161 3fbe 48a8 41be c175 aabd

layer4.0.bias f4 [64]
8.963561 8.916676 7.612408 8.796315 7.4780154 9.293223 8.947484 6.8697047
8.267537 8.950719 7.876728 7.1175647 7.9065285 7.8509154 8.485559 8.530698
9.208482 8.238645 8.341128 8.541263 9.01513 7.4767413 8.020214 7.8941617
7.7387905 7.6959105 8.3397665 7.9216566 7.4190226 7.3031397 7.79333 9.346909
7.7928185 8.628125 8.559991 7.9654527 8.450058 6.8237467 8.213559 8.292669
8.877185 8.675215 8.21956 8.734968 8.043951 7.3770633 8.932965 7.288349
8.73268 8.460125 9.200955 8.607803 8.746198 8.87411 9.313924 9.64745
7.134641 8.903159 8.3630085 8.970377 8.769187 8.217576 7.5475 8.594458
00000000: bf6a 0f41 b4aa 0e41 d998 f340 b5bd 0c41
00000010: e74b ef40 0bb1 1441 e528 0f41 9fd4 db40
00000020: d547 0441 2536 0f41 280e fc40 17c3 e340
00000030: 4802 fd40 b33a fb40 dac4 0741 bd7d 0841
00000040: f155 1341 7dd1 0341 4375 0541 03a9 0841
00000050: f93d 1041 7741 ef40 cc52 0041 f99c fc40
00000060: 2ca4 f740 e644 f640 af6f 0541 367e fd40
00000070: a268 ed40 52b3 e940 f662 f940 f08c 1541
00000080: c55e f940 cd0c 0a41 b9f5 0841 fde4 fe40
00000090: 7033 0741 225c da40 bd6a 0341 c6ae 0441
000000a0: f308 0e41 aecd 0a41 5183 0341 6ec2 0b41
000000b0: 06b4 0041 e710 ec40 6ded 0e41 283a e940
000000c0: 0fb9 0b41 ac5c 0741 1d37 1341 90b9 0941
000000d0: 6df0 0b41 5bfc 0d41 d505 1541 f55b 1a41
000000e0: fb4e e440 5773 0e41 e2ce 0541 aa86 0f41
000000f0: 974e 0c41 317b 0341 1f85 f140 e682 0941

layer4.1.weight f4 [64]
1.0467212 1.0634118 0.87472343 1.0068376 1.0311413 1.027319 1.2236971 0.8620223
1.1038716 1.2409551 0.92831576 0.82662284 1.1309564 1.0133202 0.99453783 1.1448795
1.1238583 1.1099464 1.1689106 1.2046893 1.0141294 1.1805874 1.1256553 1.0135083
1.0647979 1.0101773 0.97840947 1.1384747 0.8946706 1.2796234 0.93521804 1.1980469
0.88457435 0.9529736 1.014551 1.2590445 1.0461541 0.9422114 1.1678377 0.96487725
0.9681821 1.0655825 1.0064834 1.0900224 0.881138 1.163237 1.1129959 0.85624236
1.292237 0.9751918 1.2390854 1.0063196 1.0973043 1.0381036 1.1778524 1.3260471
0.7727087 1.0546952 1.0350926 1.116552 0.9507338 0.81287986 0.98193705 1.2589874
00000000: f6fa 853f e11d 883f e0ed 5f3f 0ee0 803f
00000010: 70fc 833f 307f 833f 1ba2 9c3f 7ead 5c3f
00000020: aa4b 8d3f 9ed7 9e3f 1aa6 6d3f 8e9d 533f
00000030: 2ec3 903f 7ab4 813f 089a 7e3f 698b 923f
00000040: 97da 8f3f b912 8e3f dd9e 953f 4233 9a3f
00000050: fece 813f 7d1d 973f 7915 903f a4ba 813f
00000060: 4c4b 883f 7d4d 813f 0b79 7a3f 8ab9 913f
00000070: 2209 653f b3ca a33f 736a 6f3f 9a59 993f
00000080: 7773 623f 14f6 733f cfdc 813f 5f28 a13f
00000090: 61e8 853f c434 713f b57b 953f 3202 773f
000000a0: c8da 773f 0265 883f 73d4 803f db85 8b3f
000000b0: 4392 613f f3e4 943f a676 8e3f b332 5b3f
000000c0: 0668 a53f 2ba6 793f 5a9a 9e3f 15cf 803f
000000d0: 7874 8c3f 94e0 843f dec3 963f e9bb a93f
000000e0: 3dd0 453f 4100 873f ea7d 843f 2deb 8e3f
000000f0: 4a63 733f e518 503f 3a60 7b3f 8026 a13f
