miniImagenet/vanilla_models/miniImagenet_mixture_network_10way_1shot.pkl (torch_old, 598290 bytes, 24 tensors)

layer1.0.weight f4 [64, 64, 3, 3]
0	0xbe2dacde	-0.16960475
1	0xbcd15d3b	-0.025557151
2	0xba8542b2	-0.0010166971
3	0x3dfa8a09	0.12233359
4	0x3ea4ec10	0.3221135
5	0x3ccc23f3	0.024919486
6	0x3da64530	0.08118665
7	0x3e20844a	0.15675464
8	0xbc687d36	-0.014190009
9	0xbe9b844f	-0.3037438
10	0xbe3deeb0	-0.18548083
11	0xbe0c6e4b	-0.13713948
12	0xbea15e0b	-0.31517062
13	0xbe1d9a39	-0.15390863
14	0x3d9be4c9	0.07611997
15	0xbe1bc4e7	-0.15211831
16	0xbd880dd4	-0.066432625
17	0x3d43db92	0.04781682
18	0xbe862d59	-0.26206473
19	0xbe22a577	-0.15883432
20	0xbe83987a	-0.25702268
21	0xbdc16894	-0.09443775
22	0xbcab9d65	-0.020949075
23	0xbe34f230	-0.17670512
24	0xbda46cb1	-0.08028544
25	0xbe30e10e	-0.17273352
26	0xbde347e6	-0.11097698
27	0x3eb0cd56	0.3453166
28	0x3e527d86	0.20555696
29	0x3e6da642	0.23207954
30	0x3e049e02	0.129509
31	0x3d8ee482	0.06977178
32	0xbe0b5b09	-0.13608946
33	0xbd66057c	-0.056157574
34	0xbe32ff60	-0.1748023
35	0xbe36d7a8	-0.17855704
36	0xbd741bd5	-0.059596855
37	0x3e120093	0.14258032
38	0xbd6ea9e2	-0.05826748
39	0x3c799611	0.0152335325
40	0x3e0747c0	0.13210964
41	0xbdb22e3b	-0.08700224
42	0x3da0ef41	0.07858134
43	0x3ded498e	0.11586295
44	0x3d737326	0.059435986
45	0xbd52c04e	-0.051452927
46	0x3de1928b	0.11014279
47	0x3e926b1b	0.2859734
48	0xbe0be72f	-0.13662408
49	0x3e1ea581	0.15492822
50	0x3e9674d0	0.29385996
51	0xbe901578	-0.2814138
52	0x3d948835	0.07252542
53	0x3e17fe66	0.14843139
54	0x3e440a85	0.19144638
55	0x3ec4c251	0.38429502
56	0xbcf53994	-0.029934682
57	0x3e0498ed	0.12948962
58	0x3e4c214d	0.19934578
59	0xbe66da47	-0.22544204
60	0x3e125722	0.14291051
61	0x3e9e9e90	0.3098035
62	0xbb691be9	-0.0035569614
63	0x3e4a8ec0	0.19781017
64	0x3ea9ea34	0.33186495
65	0x3e9ebb02	0.3100205
66	0xbe6de185	-0.2323056
67	0xbd7b6f32	-0.06138534
68	0x3cc2d9c9	0.023785489
69	0xbea65294	-0.32484877
70	0xbe8c1c65	-0.27365413
71	0xbe58bfb6	-0.21166882
72	0x3e87bc1f	0.26510713
73	0xbd9a91fb	-0.07547375
74	0x3e167809	0.14694227
75	0xbcfaad1d	-0.030600125
76	0xbedbc02c	-0.42920053
77	0xbea53807	-0.32269308
78	0x3c5add6c	0.013358455
79	0xbedcc6c7	-0.43120405
80	0xbedb7fbc	-0.4287089
81	0xbee18fb7	-0.44054958
82	0xbe6ec905	-0.2331887
83	0xbd03ae8f	-0.032148894
84	0xbe5818d2	-0.21103218
85	0xbd8e6795	-0.069533505
86	0x3e19adb6	0.15007672
87	0xbe8e8727	-0.27837488
88	0xbe100dfa	-0.14067832
89	0xbb6344a1	-0.0034678357
90	0xbe7c4325	-0.24634989
91	0xbe525d0f	-0.20543312
92	0xbe336d76	-0.17522225
93	0xbe812b5b	-0.2522839
94	0xbded8168	-0.11596948
95	0xbe51b0b5	-0.20477565
96	0xbe87b8ec	-0.26508272
97	0xbde4be80	-0.111691475
98	0xbdf75cec	-0.1207827
99	0x3e95aee6	0.29235
100	0x3eaf3785	0.34222046
101	0x3d9b2cb2	0.07576884
102	0x3ea5a9ef	0.32356212
103	0x3ebac4e4	0.3647834
104	0x3e5594f4	0.20857602
105	0x3ed4181d	0.41424647
106	0x3ebf8e2d	0.3741316
107	0x3e874c07	0.26425192
108	0xbe6adf47	-0.22936736
109	0xbe970ee8	-0.2950356
110	0xbe749b0f	-0.23887275
111	0xbec381b5	-0.38184896
112	0xbed84358	-0.4223888
113	0xbeded5c2	-0.4352246
114	0xbe06608e	-0.1312277
115	0xbe527c63	-0.20555262
116	0xbdf7d0e6	-0.12100391
117	0xbea6b6e4	-0.3256141
118	0xbe9b1169	-0.3028672
119	0xbdc57f43	-0.09643414
120	0xbe5ca4c6	-0.21547231
121	0xbdac3597	-0.08408659
122	0x3c9d1539	0.019175159
123	0xbe196e58	-0.14983499
124	0x3e2d7eab	0.16942851
125	0x3e860368	0.26174474
126	0x3cd862e4	0.026414342
127	0xbe5c7a3f	-0.21531008
128	0xbd9fed30	-0.07808912
129	0x3d743367	0.059619334
130	0xbe1128a6	-0.14175662
131	0xbd33b61b	-0.04387484
132	0x3d86a617	0.06574648
133	0xbe5d8c1b	-0.21635477
134	0xbdb0c95e	-0.08632158
135	0xbe68f244	-0.22748667
136	0x3d200880	0.039070606
137	0x3ceffa0e	0.02929404
138	0xbc8b4306	-0.016999733
139	0x3b8aa017	0.00423051
140	0xbd640ad3	-0.055674385
141	0x3ceb6dd4	0.028738894
142	0x3dd8ea2c	0.1059154
143	0x3dced7b1	0.100997336
144	0x3d774f4d	0.06037836
145	0x3de9bb7f	0.11412715
146	0x3dd091f2	0.10184087
147	0x3e50308d	0.2033102
148	0x3df51ee2	0.11968781
149	0x3e407f9d	0.1879868
150	0x3e74e2ee	0.23914692
151	0x3d748406	0.05969622
152	0x3e580172	0.21094301
153	0xbda2260d	-0.07917414
154	0xbe8eb187	-0.27869818
155	0xbe6bb96c	-0.23019952
156	0xbe2f50e4	-0.17120701
157	0xbe4e1343	-0.20124535
158	0xbe209c93	-0.15684728
159	0x3d81cb13	0.063375615
160	0x3e16f03a	0.14740077
161	0x3e591b85	0.21201904
162	0xbe7b1790	-0.24520707
163	0xbcd0a07d	-0.025467152
164	0xbe82be07	-0.25535604
165	0xbee30ad1	-0.4434419
166	0xbe447b54	-0.19187671
167	0xbe772cd0	-0.24138188
168	0xbf3d381d	-0.7391375
169	0xbef3ca4e	-0.47615284
170	0xbf03d5fa	-0.5149838
171	0x3dc7441d	0.097297885
172	0x3e945fc3	0.2897931
173	0x3e18438e	0.1486952
174	0x3d290b8c	0.041270778
175	0x3e9478e9	0.28998497
176	0x3d2343f5	0.03985973
177	0x3d94cd70	0.072657466
178	0x3e233f7c	0.15942186
179	0x3e04d34f	0.12971233
180	0x3c70868b	0.014680515
181	0x3e390fdc	0.18072456
182	0x3e9e2bd0	0.308928
183	0x3e08cf34	0.13360292
184	0x3e94029a	0.28908235
185	0x3ec1297f	0.37726972
186	0x3ddf4f2e	0.10903774
187	0x3e8e3834	0.27777255
188	0x3e9b86f9	0.30376413
189	0x3d61519f	0.05500948
190	0xbe20db2e	-0.1570861
191	0xbe91669f	-0.28398606
192	0x3c7bb2ae	0.015362425
193	0xbda58125	-0.08081273
194	0xbe5577ef	-0.20846532
195	0xbe8e4e22	-0.27793986
196	0xbef5e365	-0.4802505
197	0xbf20f300	-0.6287079
198	0x3e9c42c8	0.305197
199	0xbd471dbe	-0.04861235
200	0x3e53b3b7	0.20674025
201	0x3d958d0f	0.073022954
202	0xbeb6fc20	-0.3573923
203	0xbd8107e4	-0.06300333
204	0xbe19c8d6	-0.15018019
205	0xbf034283	-0.51273364
206	0xbe9e32ad	-0.30898038
207	0xbe2a7c33	-0.1664894
208	0xbdc43e15	-0.09582154
209	0xbe9ed9da	-0.31025583
210	0x3d75efe8	0.060043246
211	0x3c624c7f	0.013812183
212	0x3db98d7a	0.09060188
213	0x3ec72c5e	0.38901037
214	0x3e847507	0.25870535
215	0x3e70912a	0.23492876
216	0x3d994f56	0.07485835
217	0x3e581b28	0.2110411
218	0x3d0ba279	0.034090493
219	0x3c47575e	0.012166826
220	0x3e38a7c7	0.18032752
221	0x3c1547fa	0.009111399
222	0xbe88c41e	-0.26712126
223	0xbe726adb	-0.23673575
224	0xbe9afbfb	-0.3027037
225	0xbdb27d93	-0.08715358
226	0xbd9900c1	-0.07470847
227	0xbe843226	-0.2581951
228	0xbcf1a396	-0.02949695
229	0xbe296ce3	-0.16545443
230	0xbe6d56b4	-0.23177606
231	0x3e0a2f54	0.13494617
232	0x3d921d04	0.071344405
233	0xbd44925d	-0.047991145
234	0x3e015d6e	0.12633297
235	0x3e92056d	0.28519765
236	0x3e0df584	0.13863188
237	0x3e259e86	0.16173753
238	0x3ea5bb22	0.32369334
239	0x3d926d60	0.07149768
240	0x3e097dc3	0.1342688
241	0x3e4a0b5d	0.19730897
242	0x3c89789a	0.01678114
243	0xbdd89aa6	-0.10576372
244	0x3e94667c	0.2898444
245	0x3e081bd0	0.1329186
246	0xbc8f5109	-0.017494695
247	0x3e9df710	0.30852556
248	0x3d97a53f	0.07404565
249	0x3cc7fed3	0.024413502
250	0x3ec37d88	0.3818171
251	0x3d7eb216	0.062181555
252	0xbf2a56af	-0.6653852
253	0xbee0a1e1	-0.43873504
254	0xbe5fa877	-0.21841608
255	0xbed7874d	-0.42095414

layer1.0.bias f4 [64]
0	0x41813c68	16.154495
1	0x4183eb88	16.490005
2	0x4176d1fc	15.426266
3	0x417ab5ae	15.669355
4	0x41698374	14.594593
5	0x41677f0e	14.468519
6	0x417aad2b	15.667277
7	0x41916369	18.17354
8	0x418963d5	17.173746
9	0x418fc4fd	17.971186
10	0x41606ea8	14.027016
11	0x41810a12	16.129917
12	0x4179a5f4	15.603016
13	0x416d7ad2	14.842485
14	0x416a9806	14.662115
15	0x4181dcac	16.23275
16	0x4189d0b0	17.226898
17	0x41865597	16.791792
18	0x41821ab9	16.263048
19	0x418a1ea0	17.264954
20	0x417b90c9	15.722848
21	0x416c0b2f	14.75273
22	0x4172a975	15.166371
23	0x417832cd	15.512403
24	0x41731a36	15.193899
25	0x416fb072	14.980577
26	0x41669b86	14.41297
27	0x4163b8bd	14.232602
28	0x416054da	14.020716
29	0x4174aaad	15.291669
30	0x41800e6f	16.007048
31	0x416edb42	14.92853
32	0x417e7f81	15.906129
33	0x415ee4a1	13.930818
34	0x4181110d	16.133326
35	0x4180114c	16.008446
36	0x41851d69	16.63936
37	0x41812b01	16.145998
38	0x417ea9e1	15.916474
39	0x416e9e1c	14.913601
40	0x417d42a0	15.828766
41	0x4171cd60	15.11264
42	0x417a0364	15.625828
43	0x41850a4c	16.630028
44	0x4180c197	16.094526
45	0x418de40d	17.736353
46	0x4170eaf7	15.057364
47	0x417906d1	15.564164
48	0x418bcbd9	17.474535
49	0x41819a17	16.20024
50	0x417f7d6f	15.968123
51	0x41755040	15.332092
52	0x4171c6ff	15.111083
53	0x416f55ba	14.958429
54	0x417a42fd	15.641355
55	0x4182e030	16.359467
56	0x41754c4a	15.331125
57	0x417f833c	15.96954
58	0x4176f107	15.433845
59	0x41871ad0	16.888092
60	0x41820ede	16.25726
61	0x4157a1ea	13.47703
62	0x417b7548	15.716133
63	0x415bbee5	13.734105

layer1.1.weight f4 [64]
0	0x3f8a7602	1.0817263
1	0x3f8c4038	1.0957098
2	0x3f5aad28	0.85420465
3	0x3f6862f8	0.90776014
4	0x3f6cd81e	0.9251727
5	0x3f579d18	0.8422408
6	0x3f69f1df	0.9138469
7	0x3fc0512b	1.502477
8	0x3f8b3184	1.0874486
9	0x3fa8c58b	1.3185285
10	0x3f37d04b	0.71802205
11	0x3f904ae8	1.127286
12	0x3f5c6de1	0.8610516
13	0x3f6c8acd	0.92399293
14	0x3f63ba90	0.88956547
15	0x3f822d24	1.0170026
16	0x3f7a6781	0.97814184
17	0x3f7f9dc3	0.998501
18	0x3f84af68	1.036603
19	0x3f8e67fd	1.1125485
20	0x3f90d910	1.1316242
21	0x3f4a0c16	0.7892469
22	0x3f5f8638	0.87314177
23	0x3f87a315	1.0596644
24	0x3f82ca14	1.0217919
25	0x3f83ca38	1.0296087
26	0x3f4df8a9	0.8045755
27	0x3f4f6ea2	0.8102819
28	0x3f827411	1.0191671
29	0x3f8050f5	1.0024706
30	0x3f843217	1.0327786
31	0x3f6ccb6a	0.92497885
32	0x3f5dedd4	0.8669102
33	0x3f35d734	0.710315
34	0x3f8552c6	1.0415885
35	0x3f7c6362	0.98589146
36	0x3f8a0aee	1.0784585
37	0x3f6ef8b8	0.93348265
38	0x3f65c940	0.8976021
39	0x3f5f730c	0.8728492
40	0x3f8270fe	1.0190732
41	0x3f735ea3	0.9506628
42	0x3f8192db	1.0122942
43	0x3f859143	1.0434955
44	0x3f70af1b	0.9401719
45	0x3facab67	1.3489808
46	0x3f6c9c09	0.9242559
47	0x3f8e32d9	1.1109267
48	0x3f9d1bda	1.2274125
49	0x3f94aff9	1.1616203
50	0x3f7f619f	0.9975833
51	0x3f7e0ed5	0.9924138
52	0x3f92e69b	1.1476625
53	0x3f6b8a13	0.9200756
54	0x3f836d73	1.0267776
55	0x3fa20c07	1.265992
56	0x3f7a54d7	0.97785705
57	0x3f84e3f2	1.0382063
58	0x3f67bafc	0.9051969
59	0x3f8379bb	1.0271524
60	0x3f91c5ee	1.1388528
61	0x3f5a387e	0.8524245
62	0x3f69452f	0.9112119
63	0x3f35ad90	0.7096796

layer1.1.bias f4 [64]
0	0xbeb87bba	-0.36031896
1	0xbe919e14	-0.28440917
2	0xbee849bb	-0.45368752
3	0xbec096d9	-0.37615088
4	0xbeb888bc	-0.3604182
5	0xbe9f68a7	-0.3113453
6	0xbf368f33	-0.71312255
7	0xbec86e7a	-0.39146787
8	0xbf338496	-0.70124185
9	0xbef61096	-0.4805953
10	0xbef01d65	-0.46897426
11	0xbe81b7e4	-0.2533561
12	0xbf145cc7	-0.57954067
13	0xbefe0bb5	-0.49618307
14	0xbeca90b8	-0.39563537
15	0xbeeaefd9	-0.45886114
16	0xbf33ad48	-0.7018628
17	0xbeef04aa	-0.46683246
18	0xbef26600	-0.47343445
19	0xbe950324	-0.2910396
20	0xbe50dab2	-0.20395926
21	0xbddd3894	-0.10801807
22	0xbf1f98c3	-0.6234247
23	0xbe5caace	-0.21549532
24	0xbeed40e5	-0.46338573
25	0x3d9075e0	0.07053733
26	0xbecca238	-0.39967513
27	0xbf0b2306	-0.54350317
28	0xbe55b3b6	-0.20869336
29	0xbedec8d5	-0.43512598
30	0xbf12812c	-0.5722835
31	0xbee5a6e4	-0.4485389
32	0xbf334719	-0.7003036
33	0xbedbf53f	-0.42960545
34	0xbf173b4f	-0.5907487
35	0xbe99685e	-0.29962438
36	0xbee4f87b	-0.44720826
37	0xbe0aa262	-0.13538507
38	0xbeaca44b	-0.33719096
39	0xbf16ef4c	-0.5895889
40	0xbeea7505	-0.45792404
41	0xbe4aab45	-0.19791897
42	0xbe76b9a7	-0.24094258
43	0xbf03cef9	-0.5148769
44	0xbf04906c	-0.5178287
45	0xbdc47be5	-0.095939435
46	0xbeb225b5	-0.34794393
47	0xbe8a8bf6	-0.27059907
48	0xbe8edd1d	-0.2790307
49	0xbec55c25	-0.38546863
50	0xbeceba45	-0.40376487
51	0xbe81e8ea	-0.25373012
52	0x3bf38bee	0.0074324524
53	0xbe718d76	-0.2358912
54	0xbe9aaff8	-0.30212379
55	0xbe705bba	-0.23472491
56	0xbe1e75ad	-0.15474577
57	0xbe8bd1fa	-0.27308637
58	0xbf0cc4cd	-0.54987794
59	0xbec63a07	-0.38716146
60	0xbdbf3032	-0.093353644
61	0xbdf3ac6a	-0.1189812
62	0xbf12107b	-0.570564
63	0xbf0157fb	-0.5052487

layer1.1.running_mean f4 [64]
0	0x40be819a	5.9533205
1	0x41660c0c	14.377941
2	0x414bf57e	12.747435
3	0x4162f026	14.18363
4	0x411711a4	9.441807
5	0x41416d57	12.089194
6	0x41811794	16.136513
7	0x41276708	10.462654
8	0x4026586f	2.5991476
9	0x41126926	9.150671
10	0x4125ec5f	10.370208
11	0x40e6d4c7	7.213474
12	0x412ab457	10.669028
13	0x4139d6ac	11.61491
14	0x407007cc	3.750476
15	0x41504195	13.016011
16	0x417cc1ff	15.797362
17	0x4127723f	10.465392
18	0x414c84b1	12.782395
19	0x40e5df3b	7.1835
20	0x4129fa88	10.623665
21	0x409372ba	4.6077547
22	0x40d2ebe5	6.5912957
23	0x406a43f7	3.6603982
24	0x41b0c6d8	22.097092
25	0x411d4e2a	9.831583
26	0x40ae2d8d	5.4430604
27	0x41a843dc	21.033134
28	0x40869fe0	4.207016
29	0x41693aa5	14.5768175
30	0x413c5894	11.7716255
31	0x4124eb40	10.307434
32	0x4135d882	11.365358
33	0x417d9d3e	15.850889
34	0x40bd09a2	5.907426
35	0x414c468c	12.767223
36	0x4180a439	16.080187
37	0x41039adf	8.22531
38	0x4171b09c	15.105618
39	0x40dd5688	6.916813
40	0x4146dde7	12.429175
41	0x404608a3	3.0942771
42	0x40db6f4f	6.8573375
43	0x408e70ab	4.4512534
44	0x409f7226	4.982684
45	0x40f713dc	7.7211742
46	0x40d9e48e	6.8091497
47	0x40d4db57	6.651775
48	0x415a756f	13.65367
49	0xbeb01356	-0.34389752
50	0x4157dbf9	13.491204
51	0x406701f0	3.6094933
52	0x407abd64	3.9178095
53	0x4155c8f5	13.361562
54	0x4182badc	16.34124
55	0x417943a9	15.579019
56	0x40bb11b3	5.8459105
57	0x4131159b	11.067775
58	0x415a4aee	13.643293
59	0x4147e9f8	12.494621
60	0x40d119fd	6.5344224
61	0xc025fd9b	-2.5936038
62	0x4068f8a6	3.6401763
63	0x3ee27a0b	0.44233736

layer1.1.running_var f4 [64]
0	0x423ef382	47.7378
1	0x422de732	43.475777
2	0x421f1217	39.767666
3	0x42545ad4	53.0887
4	0x4282d9ac	65.42514
5	0x4255889a	53.3834
6	0x4238c131	46.188663
7	0x42484fc4	50.077896
8	0x4239431e	46.315544
9	0x420f43d4	35.81624
10	0x42667d57	57.622402
11	0x4281328e	64.59874
12	0x422564dd	41.3485
13	0x42613d91	56.310123
14	0x426c913f	59.14184
15	0x4222c778	40.694794
16	0x41fca8bf	31.582396
17	0x42247720	41.116333
18	0x4247a6a7	49.912746
19	0x420e20e8	35.532135
20	0x42874c05	67.648476
21	0x4240779b	48.116802
22	0x423041f5	44.06441
23	0x424c1d6c	51.028732
24	0x4280d01d	64.40647
25	0x42f736d9	123.607124
26	0x424a3c47	50.558865
27	0x425eff00	55.749023
28	0x42d24ac9	105.146065
29	0x426760c6	57.844505
30	0x425c4d3f	55.075436
31	0x42421e64	48.52968
32	0x42241dce	41.029106
33	0x425a0279	54.502415
34	0x4257e7f2	53.97651
35	0x422fdc78	43.9653
36	0x4242dbb4	48.714554
37	0x4230c5bb	44.193096
38	0x424aa997	50.665615
39	0x423c886c	47.133224
40	0x423e62f2	47.596626
41	0x427368f5	60.852497
42	0x425d8097	55.375576
43	0x4232cbad	44.698902
44	0x4221cf32	40.45234
45	0x426bc820	58.945435
46	0x422b0d04	42.76271
47	0x426ba104	58.90724
48	0x422d488f	43.320858
49	0x428e3ec2	71.122574
50	0x42450489	49.25443
51	0x4264c03b	57.187725
52	0x42a97e3e	84.74657
53	0x4269618a	58.345253
54	0x424aaf9a	50.671486
55	0x4267a0f1	57.90717
56	0x4274430d	61.06548
57	0x42713946	60.30593
58	0x42316504	44.348648
59	0x42149ee8	37.15518
60	0x426edfbe	59.7185
61	0x429a3100	77.0957
62	0x4223578c	40.835495
63	0x42689af0	58.151306

layer2.0.weight f4 [64, 64, 3, 3]
0	0xbe680bcd	-0.22660752
1	0xbca57cce	-0.020201113
2	0x3de13103	0.10995676
3	0xbd0c8213	-0.034303736
4	0x3e1441c8	0.14478219
5	0x3e5a86cb	0.21340482
6	0xbd354f55	-0.04426511
7	0x3e0a9eac	0.13537091
8	0x3df548ce	0.11976777
9	0x3e0fe4d1	0.1405213
10	0x3dd7e563	0.10541799
11	0x3de5fd23	0.112299226
12	0x3e68d330	0.22736812
13	0x3e0d5e36	0.1380547
14	0x3e84aad6	0.25911587
15	0x3d7e74ef	0.062123235
16	0x3e3b47e4	0.18289143
17	0x3e1b8a27	0.1518942
18	0x3d6ef8c2	0.058342703
19	0x3dc437db	0.09580966
20	0x3dfbf063	0.123017095
21	0x3d8087ff	0.06275939
22	0x3e616d40	0.22014332
23	0x3e41a3d0	0.18910146
24	0xbce02ce9	-0.027365165
25	0xbd3d4a03	-0.04621316
26	0x3e0ac852	0.13552979
27	0x3dfb4e98	0.1227085
28	0x3e41adbf	0.18913935
29	0xbd9c9046	-0.076447055
30	0x3e975363	0.29555807
31	0x3e3f09ac	0.18656033
32	0x3daa76d7	0.08323448
33	0x3e61bf60	0.2204566
34	0x3ecfec2d	0.40609875
35	0x3e48cd4e	0.19609568
36	0xbe0cc090	-0.13745332
37	0xbe53bbe8	-0.2067715
38	0xbe69eb9b	-0.22843783
39	0xbce061c4	-0.027390368
40	0x3d8c8491	0.068612225
41	0xbe37ddaa	-0.17955652
42	0xbc1bd677	-0.009511582
43	0x3dfed20d	0.12442408
44	0xbde2bb84	-0.11070922
45	0x3ad4ce75	0.0016235845
46	0xbdc7073f	-0.09718179
47	0xbe108a05	-0.1411515
48	0x3bac3d00	0.005256295
49	0xbd724c04	-0.059154525
50	0xbd525650	-0.051351845
51	0xbe1b3435	-0.15156634
52	0xbea35449	-0.31900242
53	0xbe15fef0	-0.14648032
54	0x3d277085	0.04087879
55	0xbb62ca7b	-0.003460555
56	0xbe20d1cf	-0.15705036
57	0x3e1d7976	0.15378365
58	0x3e02131e	0.12702605
59	0xbde10883	-0.109879516
60	0x3caa34c3	0.020777112
61	0x3e763a77	0.2404574
62	0x3c9460fe	0.018112656
63	0x3e66768a	0.22506157
64	0x3d769697	0.060202207
65	0x3d0bb688	0.034109622
66	0x3dd5cce5	0.10439471
67	0x3e94141e	0.28921598
68	0x3e83be0a	0.25730926
69	0x3de61ca8	0.112359345
70	0x3e3930fd	0.18085094
71	0xbd6a03af	-0.05713242
72	0xbd56fe29	-0.05248848
73	0xbc2340e8	-0.009964205
74	0xbe4bf1fa	-0.19916525
75	0x3c94e663	0.018176263
76	0xbd1c3cad	-0.038143802
77	0xbcb0d5d3	-0.021586334
78	0xbdbc14b0	-0.09183633
79	0xbe45030c	-0.19239444
80	0xbe1b34fe	-0.15156934
81	0xbd88179a	-0.06645127
82	0xbd3407ed	-0.04395287
83	0xbc885d1e	-0.016645964
84	0xbe286497	-0.16444622
85	0xbdc97dd6	-0.098384544
86	0x3cf32da0	0.029684842
87	0xbe46b4f4	-0.19404966
88	0xbe09abe1	-0.13444473
89	0xbd4d7919	-0.050164316
90	0x3d047060	0.03233373
91	0x3a0e62c7	0.0005431589
92	0x3deed599	0.11661834
93	0x3ed95166	0.42444915
94	0x3ebd9e45	0.37034813
95	0x3effb27a	0.49940854
96	0x3ee7dcef	0.45285746
97	0x3ef81682	0.48454672
98	0x3f01ebdb	0.5075051
99	0xbd00e608	-0.031469375
100	0x3c26977c	0.010167953
101	0xbe59573e	-0.21224687
102	0xbd9497e4	-0.07255533
103	0x3d26cfa3	0.04072536
104	0x3d1437c7	0.036186006
105	0xbe0b6380	-0.13612175
106	0xbbc060dd	-0.005870922
107	0x3d8845aa	0.06653912
108	0xbb0dd5df	-0.002164237
109	0xbd91424a	-0.07092722
110	0xbe03a6e6	-0.12856635
111	0xbd4563e9	-0.048190985
112	0xbd8842ef	-0.066533916
113	0x3d623f8b	0.05523638
114	0x3d6f5840	0.05843377
115	0x3d8252a4	0.06363419
116	0x3d949c89	0.07256419
117	0xbd99e6af	-0.075147025
118	0x3c3c23d8	0.011483155
119	0x3e1d752f	0.15376733
120	0x3ced6a4e	0.028981354
121	0x3e253605	0.16133888
122	0x3e7d72bb	0.24750797
123	0x3cba3f28	0.022735193
124	0x3c95f292	0.018304143
125	0x3dc1e34f	0.09467184
126	0x3e2701df	0.16309308
127	0xbd02fd2a	-0.031979717
128	0xbe175374	-0.14777929
129	0x3dec6258	0.11542195
130	0x3cc1adc5	0.02364243
131	0xbce53245	-0.027978072
132	0x3db69268	0.089146435
133	0xbca3005f	-0.019897638
134	0x3df2ba45	0.11851934
135	0xbd83a72b	-0.06428369
136	0x3db28262	0.08716275
137	0x3e231b51	0.15928389
138	0xbe4765bf	-0.19472407
139	0x3c5afcdb	0.0133659495
140	0xbd26c9d7	-0.040719833
141	0xbe854331	-0.26027825
142	0xbe6a79fb	-0.22898094
143	0xbe3bca1b	-0.18338816
144	0x3e92c88c	0.2866863
145	0x3db351df	0.0875585
146	0x3d838eee	0.06423746
147	0x3e3e4b02	0.185833
148	0xbd70d409	-0.058795962
149	0xbe002baa	-0.12516657
150	0x3e9100a4	0.283208
151	0xbe264e47	-0.16240798
152	0xbe1310ca	-0.14361873
153	0xbe349976	-0.17636666
154	0xbee6affe	-0.45056146
155	0xbe399531	-0.18123318
156	0xbe044c12	-0.12919644
157	0xbeefefd6	-0.46862668
158	0xbf14572e	-0.57945526
159	0xbe2d1e54	-0.169061
160	0xbe8e39dc	-0.27778518
161	0xbed1b07f	-0.40954968
162	0x3d149406	0.03627398
163	0x3e69aa33	0.22818832
164	0x3d67ee7e	0.05662393
165	0x3e019ae0	0.12656736
166	0x3de95941	0.11393977
167	0x3dfcceb4	0.12344113
168	0xbe5754d8	-0.21028459
169	0xbec68e46	-0.3878042
170	0xbeb24b5f	-0.3482313
171	0xbe9195df	-0.28434655
172	0xbdf2e818	-0.118606746
173	0xbdd68980	-0.10475445
174	0xbe59f220	-0.2128377
175	0xbce1f204	-0.027581222
176	0xbe512820	-0.20425463
177	0xbd9837e8	-0.07432538
178	0xbd3f90b5	-0.046768863
179	0xbe57639e	-0.21034095
180	0xbecdd1be	-0.40199083
181	0xbec8d797	-0.39226982
182	0xbe9b2ff4	-0.30310023
183	0xbeaa5a2b	-0.33271918
184	0xbee0bb34	-0.43892825
185	0xbe9dae3e	-0.30797
186	0xbe4db4a2	-0.20088437
187	0xbebd998d	-0.37031212
188	0xbead5935	-0.33857122
189	0x3d8adbe1	0.0678022
190	0x3dba9966	0.0911129
191	0xbdb9da47	-0.09074836
192	0x3d46ea6b	0.048563402
193	0x3d6d780c	0.057975814
194	0xbd891013	-0.06692519
195	0xbd4559cb	-0.048181336
196	0xbd1522a4	-0.03640999
197	0xbd2a3158	-0.041550964
198	0x3e2a278c	0.16616648
199	0x3e6a600b	0.228882
200	0x3e3b0f32	0.18267515
201	0xbdaade06	-0.08343129
202	0x3e2039db	0.1564707
203	0x3e5b0886	0.2138997
204	0xbdf73756	-0.12071101
205	0xbd90bc9d	-0.07067225
206	0x3dce8a63	0.10084989
207	0x3cfdb1e3	0.030968612
208	0xbe02496b	-0.12723319
209	0xbde66671	-0.11250008
210	0x3e342154	0.17590839
211	0xbd5d7e42	-0.054075487
212	0xb9b2ed79	-0.00034127737
213	0x3e89c79e	0.26910108
214	0x3e20e3f2	0.15711954
215	0x3dac0b6a	0.084006146
216	0xbe25869c	-0.1616463
217	0x3e44e234	0.19226915
218	0x3eb5efca	0.35534507
219	0xbe803492	-0.25040108
220	0x3c1b6417	0.0094843125
221	0x3e1d9e46	0.15392408
222	0xbe4a3b9f	-0.19749306
223	0x3dd38815	0.1032869
224	0x3e08c8bd	0.13357826
225	0x3e49ab9f	0.19694375
226	0x3e9532b2	0.2914024
227	0x3e4e24d3	0.20131235
228	0x3e9c0b82	0.3047753
229	0x3eae0f28	0.33995938
230	0x3ef5c95b	0.48005185
231	0x3e84b7a0	0.25921345
232	0x3e994840	0.29937935
233	0x3e86ca00	0.2632599
234	0xbe1bfb3d	-0.15232559
235	0xbdba5841	-0.09098864
236	0xbe3b0e71	-0.18267228
237	0xbe0676ef	-0.13131307
238	0xbdc47d78	-0.09594244
239	0xbd7fc683	-0.062445175
240	0xbe69dbcd	-0.22837754
241	0xbdf84602	-0.12122728
242	0xbda8ca32	-0.08241691
243	0x3d230a69	0.03980485
244	0x3dfe101f	0.124054186
245	0x3e3f6b94	0.18693382
246	0x3d1b1ca5	0.037869114
247	0x3e781d22	0.24229863
248	0x3e0a12b5	0.13483699
249	0xbcf664b4	-0.030077316
250	0xbcf1ed1f	-0.029532013
251	0xbb24f9af	-0.0025173237
252	0xbeae2f8e	-0.34020656
253	0xbf1b7b6e	-0.60735214
254	0xbedf3b20	-0.43599796
255	0xbe6ef309	-0.23334898

layer2.0.bias f4 [64]
0	0x417a8ea5	15.659825
1	0x4181ce75	16.22581
2	0x4182efcb	16.367086
3	0x416cfee5	14.81223
4	0x417ac83e	15.673887
5	0x4178e819	15.556664
6	0x4168fed6	14.562216
7	0x416c41b1	14.766038
8	0x4181453a	16.158802
9	0x41682503	14.509036
10	0x41823b4f	16.27896
11	0x41723c40	15.139709
12	0x4165d8bf	14.365417
13	0x4180b261	16.0871
14	0x4169b850	14.607498
15	0x4181c799	16.22246
16	0x4176b548	15.419258
17	0x4185764e	16.682766
18	0x41725b45	15.147283
19	0x417caf60	15.792816
20	0x417499b3	15.287524
21	0x417e5de3	15.897922
22	0x41791667	15.567969
23	0x416c2c38	14.760796
24	0x41676b52	14.463701
25	0x415f072f	13.939254
26	0x416931d3	14.574664
27	0x41795db9	15.5853815
28	0x4158ffe7	13.562476
29	0x41723f50	15.140457
30	0x416c540a	14.770517
31	0x41737cad	15.217938
32	0x417f4fec	15.957012
33	0x4180d728	16.105057
34	0x4178a56d	15.540387
35	0x41770701	15.43921
36	0x4175afc0	15.355408
37	0x416da07f	14.851684
38	0x4163334e	14.200026
39	0x416abde7	14.671363
40	0x417af376	15.684439
41	0x416e9379	14.911004
42	0x416cb701	14.794679
43	0x4173919e	15.223051
44	0x4178d45d	15.5518465
45	0x41807b8c	16.060326
46	0x416ffb3b	14.998836
47	0x415e2d97	13.88613
48	0x415409d4	13.252399
49	0x415ffa4d	13.998609
50	0x417413af	15.254806
51	0x4172b1c7	15.168403
52	0x417433ef	15.262679
53	0x41809ce5	16.076609
54	0x4171f4ed	15.122296
55	0x41518465	13.094823
56	0x416b8f66	14.722509
57	0x4179277e	15.572142
58	0x4182ae08	16.334976
59	0x415779ff	13.467284
60	0x41738658	15.220299
61	0x417b1d8c	15.694714
62	0x4183ae0e	16.459988
63	0x4178f715	15.560323

layer2.1.weight f4 [64]
0	0x3f7ebf47	0.99510616
1	0x3f920ea2	1.1410716
2	0x3f824e86	1.0180213
3	0x3f7a2627	0.97714466
4	0x3f837c31	1.0272275
5	0x3f812a15	1.0090967
6	0x3f7bd409	0.98370415
7	0x3f65cd7f	0.8976669
8	0x3f88cb9a	1.0687134
9	0x3f6276ef	0.8846273
10	0x3f7ad02e	0.97973907
11	0x3f833a5f	1.0252188
12	0x3f5f134f	0.8713884
13	0x3f7759b9	0.9662128
14	0x3f7aa0bd	0.9790152
15	0x3f8fb899	1.122821
16	0x3f7c3ee1	0.98533446
17	0x3f867bbb	1.050651
18	0x3f9baf06	1.2162788
19	0x3f886afd	1.065765
20	0x3f72a6aa	0.9478556
21	0x3f798336	0.97465837
22	0x3f7f647c	0.997627
23	0x3f6e8cfb	0.9318387
24	0x3f743b47	0.9540295
25	0x3f5ba1fc	0.85794044
26	0x3f6c06c3	0.9219782
27	0x3f8567f9	1.0422355
28	0x3f6759e7	0.90371555
29	0x3f64d1b0	0.8938246
30	0x3f774fea	0.96606314
31	0x3f6f75dd	0.9353922
32	0x3f84f0e2	1.0386012
33	0x3f72de3c	0.9487035
34	0x3f880b84	1.0628514
35	0x3f80d142	1.006386
36	0x3f854a2b	1.0413259
37	0x3f696c63	0.9118101
38	0x3f6bd109	0.9211584
39	0x3f79dfe2	0.97607243
40	0x3f89bcc3	1.076073
41	0x3f7d0366	0.9883331
42	0x3f4ea5d1	0.80721766
43	0x3f754f5b	0.9582421
44	0x3f85f4d7	1.0465344
45	0x3f78d61f	0.9720172
46	0x3f83fca0	1.031147
47	0x3f57d4b0	0.8430891
48	0x3f645316	0.8918928
49	0x3f49baf3	0.78800887
50	0x3f91b488	1.1383219
51	0x3f821183	1.0161594
52	0x3f81007a	1.007827
53	0x3f809507	1.004548
54	0x3f61d244	0.88211465
55	0x3f4ae015	0.7924817
56	0x3f477426	0.77911603
57	0x3f85988b	1.0437177
58	0x3f8addd1	1.0848943
59	0x3f66dc6e	0.901801
60	0x3f8fd819	1.1237823
61	0x3f686604	0.90780663
62	0x3f98180c	1.1882339
63	0x3f7c155c	0.9847009

layer2.1.bias f4 [64]
0	0xbf05f9ca	-0.5233427
1	0xbef83ae4	-0.4848243
2	0xbea91bfe	-0.3302917
3	0xbea0a3c2	-0.31374937
4	0xbf6af2cd	-0.91776735
5	0xbf1c21ab	-0.60988873
6	0xbe7f116f	-0.24908994
7	0xbed34d7d	-0.41270056
8	0xbe9b35c3	-0.30314454
9	0xbeb91383	-0.361477
10	0xbecce975	-0.40021864
11	0xbf1d092a	-0.6134211
12	0xbdbf2de9	-0.093349285
13	0xbf099e11	-0.53756815
14	0xbe80327e	-0.25038522
15	0xbeb8e782	-0.36114126
16	0xbf0f7d23	-0.5605032
17	0xbe1e30c0	-0.15448284
18	0xbeca4815	-0.3950812
19	0xbebfba5f	-0.37446877
20	0xbecd6692	-0.40117317
21	0xbeab5a9d	-0.3346757
22	0xbf027b10	-0.5096903
23	0xbea91895	-0.33026567
24	0xbeba8b71	-0.3643451
25	0xbebbc4ce	-0.36673588
26	0xbe22bef6	-0.15893158
27	0xbe4e40a4	-0.20141846
28	0xbe22dbb9	-0.1590413
29	0xbeff413f	-0.49854466
30	0xbf0ba125	-0.5454276
31	0xbe93ca91	-0.28865483
32	0xbefcd959	-0.49384573
33	0xbf5c26c1	-0.85996634
34	0xbeb3a519	-0.35086897
35	0xbe3b0ddd	-0.18267007
36	0xbeee8caf	-0.46591708
37	0xbee4a754	-0.4465891
38	0xbd8b8651	-0.06812728
39	0xbed89b17	-0.42305824
40	0xbea26e02	-0.31724554
41	0xbef164e1	-0.47147277
42	0xbee5dd24	-0.4489528
43	0xbeabbbf4	-0.33541834
44	0xbf096f70	-0.53685665
45	0xbe8da5a6	-0.27665442
46	0xbe967785	-0.2938806
47	0xbeab339a	-0.33437806
48	0xbe5ba243	-0.21448617
49	0xbe838716	-0.25689
50	0xbf030beb	-0.5119006
51	0xbe3b4859	-0.18289317
52	0xbec40b23	-0.38289747
53	0xbeef99ed	-0.46797124
54	0xbed45a44	-0.41475117
55	0xbe695dd7	-0.22789703
56	0xbef5459d	-0.47904673
57	0xbeaec789	-0.34136608
58	0xbf1eec87	-0.6207966
59	0xbe5591a8	-0.20856345
60	0xbea1a861	-0.31573775
61	0xbef4f9ee	-0.4784693
62	0xbf376d23	-0.71650904
63	0xbf0626da	-0.5240303

layer2.1.running_mean f4 [64]
0	0x4160fe8e	14.062147
1	0x40a01546	5.002597
2	0x408fcd97	4.4938464
3	0x419b6de1	19.428652
4	0x4115afd5	9.355428
5	0x40ebeb67	7.3724856
6	0x40ac3b2a	5.382222
7	0x419af008	19.367203
8	0x4100593a	8.021784
9	0x4119367e	9.575804
10	0x41838388	16.439224
11	0x4128dd96	10.554098
12	0x40167b98	2.3512936
13	0x41117ae8	9.092506
14	0xc14325e7	-12.1967535
15	0x40efb9e3	7.4914412
16	0xbf85cb43	-1.0452656
17	0x41658be9	14.346658
18	0xbf27226d	-0.65286905
19	0xc0582501	-3.3772585
20	0x41ba4684	23.284431
21	0x412e37c7	10.8886175
22	0x415c4f93	13.769427
23	0x40aa4ea0	5.322098
24	0xc0a0dbe4	-5.026842
25	0x415cc1ee	13.797346
26	0x410d6b13	8.838641
27	0xbe6be3b1	-0.23036076
28	0x4120fd52	10.061846
29	0x40e2738c	7.076605
30	0x413b527a	11.707636
31	0x403d5ea7	2.9589021
32	0x40214249	2.5196707
33	0x4186cab3	16.848974
34	0x4154e965	13.306981
35	0x40e95bf9	7.292477
36	0x4138832b	11.532023
37	0x40b544c4	5.6646442
38	0x41b4686e	22.550991
39	0x3fc88195	1.5664545
40	0x40ab9599	5.3620114
41	0x40ec4951	7.3839498
42	0x4091455c	4.5397167
43	0x40bbfff6	5.874995
44	0x410a6fe3	8.652316
45	0x41670842	14.439516
46	0xc04f89d3	-3.2427871
47	0xbebe45b3	-0.3716255
48	0x3fb33d86	1.400315
49	0x41323846	11.138739
50	0xbfa35681	-1.2760774
51	0x3eea2d01	0.4573746
52	0x4002c07a	2.0429978
53	0x409261e5	4.57445
54	0x4168fff6	14.56249
55	0xc0bff620	-5.9987946
56	0x41b39cde	22.451595
57	0xc07f1dc1	-3.986191
58	0x40b020b2	5.503991
59	0xc0c01ae1	-6.003281
60	0x4192fa3b	18.372183
61	0x419ab232	19.33701
62	0x410c4809	8.767587
63	0x41c5d53d	24.72912

layer2.1.running_var f4 [64]
0	0x426d78e0	59.368042
1	0x426e5622	59.584114
2	0x42587755	54.116535
3	0x428fd159	71.90888
4	0x424a7be3	50.620983
5	0x4267ebe2	57.980354
6	0x42df8437	111.75823
7	0x429195d5	72.79264
8	0x428ec6b6	71.38811
9	0x42a899dd	84.300514
10	0x424b244a	50.78544
11	0x4270958a	60.146034
12	0x42b04460	88.133545
13	0x425b9516	54.89559
14	0x429a7612	77.230606
15	0x4254cf9f	53.202755
16	0x4258b32c	54.174973
17	0x426372a8	56.86197
18	0x429192ec	72.78696
19	0x427b816f	62.8764
20	0x427e74e3	63.614147
21	0x4252d42f	52.70721
22	0x426bac64	58.91835
23	0x42ae394e	87.11192
24	0x4286fdff	67.496086
25	0x427ef3d1	63.738102
26	0x4297c7b4	75.890045
27	0x4288115d	68.03391
28	0x42a9f69a	84.98164
29	0x424403d8	49.003754
30	0x4268c378	58.190887
31	0x423d0b2d	47.260914
32	0x428a7c3f	69.24267
33	0x424a033a	50.50315
34	0x42835261	65.6609
35	0x4288e847	68.45367
36	0x42857bb3	66.7416
37	0x4291839d	72.75706
38	0x42ab1d98	85.5578
39	0x42b8303b	92.0942
40	0x429084be	72.25926
41	0x427c7753	63.116528
42	0x4265afa6	57.42153
43	0x428d472b	70.639
44	0x428230ac	65.09506
45	0x4243e8ec	48.977463
46	0x4279b0ea	62.422768
47	0x428698b6	67.29826
48	0x42c781a6	99.75322
49	0x429710df	75.53295
50	0x42a86e77	84.21575
51	0x42876b30	67.70935
52	0x428c5e1e	70.18382
53	0x4268a1c2	58.157967
54	0x427255e0	60.583862
55	0x42b2882b	89.26595
56	0x425fefe7	55.98428
57	0x427df07e	63.484856
58	0x42592162	54.2826
59	0x42dbed6e	109.96373
60	0x42a9301b	84.593956
61	0x42409d02	48.153328
62	0x424e07b0	51.507507
63	0x42698ef1	58.38959

layer3.0.weight f4 [64, 64, 3, 3]
0	0xbe8c1b5e	-0.2736463
1	0xbdc56bc5	-0.09639696
2	0xbe59a0ef	-0.21252798
3	0xbeabe646	-0.33574122
4	0xbd8efb57	-0.06981533
5	0xbc873a1f	-0.016507206
6	0xbeb6d8d0	-0.3571229
7	0xbea0cfad	-0.31408444
8	0xbe3ce655	-0.1844724
9	0x3e40e190	0.18836045
10	0x3e8048b0	0.25055456
11	0x3ea650e5	0.32483593
12	0x3ddf2984	0.1089659
13	0x3e38f538	0.18062294
14	0x3eac66c0	0.33672142
15	0x3b2e5893	0.0026603087
16	0x3e03c2e8	0.1286732
17	0x3e9b4f00	0.3033371
18	0x3e862e52	0.26207215
19	0x3de282a0	0.11060071
20	0x3e0454e3	0.12923007
21	0x3e64ecdb	0.22355978
22	0x3e46fd77	0.19432627
23	0x3dfcedc0	0.12350035
24	0x3da5609f	0.0807507
25	0x3daa46ba	0.08314271
26	0x3e74f0cb	0.2391998
27	0x3e373357	0.17890678
28	0x3d10ee44	0.035383478
29	0x3c407a87	0.011747963
30	0x3e466092	0.19372776
31	0x3e98a1a1	0.29810813
32	0x3db2da8e	0.08733092
33	0x3e6afdf1	0.22948433
34	0x3e8bf254	0.2733332
35	0x3e5b9b5b	0.21445982
36	0x3cef4023	0.029205387
37	0x3d630522	0.055424817
38	0x3e2d2d74	0.1691187
39	0x3e1f8069	0.15576328
40	0x3db79ade	0.089650854
41	0x3e38b390	0.18037248
42	0x3e44d5e4	0.19222218
43	0x3e995cb7	0.29953548
44	0x3e86cce5	0.26328197
45	0x3eb38f9e	0.3507051
46	0x3e03d2cd	0.12873383
47	0x3e42b563	0.19014506
48	0x3e236d6f	0.15959714
49	0x3e0dcff5	0.1384886
50	0x3e401b97	0.18760525
51	0x3e83ee40	0.25767708
52	0xbc119b43	-0.008887115
53	0x3e5ece8e	0.21758482
54	0xbd2cc57e	-0.04218053
55	0xbda623c6	-0.08112292
56	0x3d2d6ea3	0.04234184
57	0x3ce95fa2	0.028487984
58	0x3e354d09	0.17705168
59	0x3e734de7	0.23760186
60	0x3c809ad5	0.01569883
61	0x3deb818b	0.11499318
62	0x3d115368	0.035479933
63	0xbefe571a	-0.49675828
64	0xbeee2dca	-0.4651931
65	0xbeb6fbc4	-0.35738957
66	0xbe18c979	-0.14920606
67	0xbe937531	-0.28800347
68	0xbe99f92c	-0.30072916
69	0xbe173980	-0.14768028
70	0xbe20a389	-0.15687384
71	0xbe4f6614	-0.20253783
72	0xbe00b3db	-0.1256861
73	0xbe476c51	-0.19474913
74	0xbd2c2527	-0.04202762
75	0x3d603885	0.0547414
76	0x3b466bec	0.0030276729
77	0x3e745caf	0.23863481
78	0xbd1c23a7	-0.03811994
79	0xbd849c06	-0.064750716
80	0x3eb93e51	0.36180356
81	0x3e8cae09	0.27476528
82	0x3eb10b9c	0.3457917
83	0x3ed3c1d7	0.41358826
84	0xbe46037f	-0.19337271
85	0xbd43d4f8	-0.047810525
86	0x3dcbf13d	0.09958122
87	0xbce11caa	-0.027479488
88	0x3cd48eaf	0.025946943
89	0x3e0f3195	0.13983758
90	0xbd332690	-0.043737948
91	0xbd8eec70	-0.069786906
92	0xbc8ca159	-0.01716678
93	0xbdc0cff5	-0.09414665
94	0xbda3b0df	-0.0799272
95	0xbe131e1d	-0.14366956
96	0xbeb060be	-0.34448808
97	0xbe0bcc91	-0.13652255
98	0xbe582e02	-0.211113
99	0xbc404bb5	-0.0117368
100	0x3cab60c8	0.020920172
101	0x3e8a5113	0.2701498
102	0xbda0786d	-0.078354694
103	0xbe692242	-0.22766975
104	0xbdaff891	-0.08592332
105	0x3dc626ba	0.09675355
106	0xbe07cf7b	-0.13262741
107	0xbe56450f	-0.20924781
108	0xbcc9a7fa	-0.02461623
109	0xbe5440cb	-0.20727842
110	0x3d250723	0.04029001
111	0x3dc24783	0.09486296
112	0x3d7a681d	0.061134446
113	0x3e6c85b6	0.23097882
114	0x3e52fe58	0.20604837
115	0x3e28d793	0.16488485
116	0x3e7b89ea	0.24564329
117	0xbe417cb7	-0.18895231
118	0xbe4723b5	-0.19447215
119	0x3cf1c684	0.029513605
120	0xbddfec79	-0.109337755
121	0xbe12599b	-0.14291994
122	0xbc4ea253	-0.012611943
123	0xbe359297	-0.17731701
124	0xbe84d651	-0.2594476
125	0xbd7bec97	-0.061504927
126	0xbe13d686	-0.14437303
127	0xbe0296fc	-0.12752908
128	0xbd27fe8d	-0.041014243
129	0xbe761a9f	-0.24033593
130	0xbeb6e12d	-0.3571867
131	0xbea4f044	-0.32214558
132	0x3b676992	0.0035310728
133	0xbdbfa973	-0.09358492
134	0xbe8b56de	-0.27214712
135	0xbf1cd0f2	-0.61256325
136	0xbef01a6d	-0.4689516
137	0xbecea714	-0.40361845
138	0xbee8b4cf	-0.45450446
139	0xbee259cf	-0.44209144
140	0xbe91f219	-0.28505018
141	0xbec8f84a	-0.3925193
142	0xbe0c7728	-0.1371733
143	0xbe8122e7	-0.2522194
144	0xbe379900	-0.17929459
145	0x3cb67e88	0.022277132
146	0xbe5e73fd	-0.21723934
147	0xbe8401dc	-0.2578267
148	0xbe80970c	-0.2511524
149	0xbeb990dc	-0.3624333
150	0xbe67d2e5	-0.22639044
151	0xbec82972	-0.3909412
152	0xbe9e44dd	-0.30911914
153	0xbdc16e41	-0.094448574
154	0xbe8ff8f9	-0.2811964
155	0xbea6602a	-0.32495242
156	0xbd9c96b3	-0.07645931
157	0xbdc1638b	-0.094428144
158	0xbe3eba18	-0.18625677
159	0x3e24dfef	0.16101049
160	0x3e84ef7b	0.2596396
161	0x3e05e280	0.13074684
162	0x3da8a067	0.08233719
163	0x3cd68a5f	0.026189027
164	0x3dbc0edd	0.091825224
165	0xbadf5a2b	-0.0017040422
166	0xbd1f7ac1	-0.038935427
167	0xbe188f27	-0.14898358
168	0x3e3d4137	0.18481909
169	0x3d5c83b7	0.05383655
170	0xbe479eca	-0.19494167
171	0xbcb86d4b	-0.022513052
172	0xbdd86253	-0.10565629
173	0x3d82aca0	0.06380582
174	0xbdf6ae43	-0.120449565
175	0xbd5e921b	-0.054338556
176	0x3d76a507	0.060215976
177	0xbdadbb36	-0.08482973
178	0xbe397287	-0.18110095
179	0xbdc87b22	-0.09789111
180	0xbe731e06	-0.23741922
181	0xbdc9996f	-0.09843718
182	0x3c2a10e7	0.010380006
183	0xbe3a758e	-0.18208906
184	0xbe1e4be5	-0.15458639
185	0x3d468e40	0.048475504
186	0xbd6285f4	-0.05530353
187	0xbda03bc2	-0.07823898
188	0x3e29744f	0.16548274
189	0xbd4ffe0a	-0.05077938
190	0xbe3dd337	-0.18537603
191	0xbd8b91de	-0.06814931
192	0x3eba5b38	0.3639772
193	0x3e7d4907	0.24734889
194	0x3e60ef3f	0.21966265
195	0x3f3fedb0	0.7497206
196	0x3f1b4b2c	0.6066158
197	0x3f3a2261	0.7270871
198	0xbd2cddec	-0.04220383
199	0xbb80663e	-0.003918438
200	0x3ce496cc	0.027903937
201	0x3da3d883	0.08000281
202	0x3c1df870	0.009641752
203	0x3e26dfee	0.1629636
204	0x3e5ab21d	0.21357007
205	0x3dadeb44	0.08492139
206	0x3d336a6d	0.043802667
207	0xbf181dd4	-0.59420514
208	0xbf1e4b65	-0.6183379
209	0xbf16d6cc	-0.58921504
210	0xbe8d6ca8	-0.2762196
211	0xbe6f4d2a	-0.2336928
212	0xbe8500d9	-0.2597721
213	0x3e1d0484	0.15333754
214	0x3e759955	0.23984273
215	0x3e8fbb1d	0.28072444
216	0xbe6312ba	-0.22175112
217	0xbeee71be	-0.46571153
218	0xbe832be6	-0.2561943
219	0xbe7fa51e	-0.24965331
220	0xbeab1c84	-0.33420193
221	0xbe8f39e3	-0.27973852
222	0x3e6a8398	0.22901762
223	0x3d8d93b1	0.069129355
224	0x3dbabf57	0.091185264
225	0xbeec2f73	-0.4612995
226	0xbeced37c	-0.40395725
227	0xbed77d6d	-0.4208788
228	0xbd23631a	-0.039889432
229	0xbe826971	-0.2547107
230	0xbe727a72	-0.23679522
231	0x3cead379	0.028665291
232	0x3d090d1d	0.03345977
233	0xbd111f74	-0.035430387
234	0xbe2f785c	-0.17135757
235	0xbd2e7c1c	-0.04259883
236	0xbe1426a2	-0.14467862
237	0xbe37402f	-0.17895578
238	0xbb4e6061	-0.0031490552
239	0xbd2811f1	-0.041032735
240	0xbdd6c81f	-0.10487389
241	0xbe25973c	-0.16170973
242	0xbd02a07e	-0.03189134
243	0xbebc867f	-0.36821362
244	0xbea31946	-0.3185522
245	0xbe5602a6	-0.20899448
246	0xbe1b9ace	-0.15195772
247	0xbd7eeadf	-0.06223571
248	0x3e454279	0.19263639
249	0xbe550e57	-0.20806251
250	0xbd801c2c	-0.06255373
251	0x3e008704	0.12551504
252	0xbe377d43	-0.17918877
253	0xbe152e20	-0.14568377
254	0xbe3cd336	-0.18439946
255	0x3c5853fb	0.013203616

layer3.0.bias f4 [64]
0	0x41822d35	16.272074
1	0x41637e78	14.218376
2	0x417711ac	15.441814
3	0x418336c6	16.401745
4	0x416029bd	14.01019
5	0x418479ab	16.559408
6	0x416db284	14.856083
7	0x4184266a	16.518757
8	0x417e007e	15.87512
9	0x41818c20	16.19342
10	0x418372a8	16.430984
11	0x415ab1b2	13.668383
12	0x417da84c	15.853588
13	0x41818ce0	16.193787
14	0x417d1545	15.817693
15	0x41885e76	17.046124
16	0x4186e9eb	16.864218
17	0x41802b18	16.021042
18	0x417a9f3e	15.6638775
19	0x417cf910	15.810806
20	0x4169dd74	14.616566
21	0x418370f9	16.430162
22	0x41743a38	15.264214
23	0x4183e305	16.48585
24	0x418267a0	16.300598
25	0x417ba847	15.728583
26	0x41801682	16.01099
27	0x413dd096	11.863424
28	0x4183d020	16.476624
29	0x417d0809	15.814462
30	0x417b30b6	15.699392
31	0x415edf65	13.92954
32	0x4178120d	15.504407
33	0x4176fcdd	15.436734
34	0x4184507e	16.539303
35	0x4183705f	16.429869
36	0x4175800b	15.3437605
37	0x41788dba	15.534601
38	0x4176bcee	15.421125
39	0x4164422a	14.266153
40	0x417655f1	15.395982
41	0x4186bd4c	16.84243
42	0x41800ed3	16.007238
43	0x4185bd4e	16.717434
44	0x417844cf	15.516799
45	0x4153efdd	13.24606
46	0x418df466	17.744335
47	0x417aaa0a	15.666513
48	0x417f7aa8	15.967445
49	0x41792c81	15.573365
50	0x4184544a	16.541157
51	0x415810c4	13.504093
52	0x417228e1	15.13498
53	0x41752bab	15.323161
54	0x41793641	15.575746
55	0x41751800	15.318359
56	0x4181cb69	16.224321
57	0x4177bccc	15.483593
58	0x4182bd1e	16.342342
59	0x416d0d40	14.815735
60	0x415668e5	13.400609
61	0x418d2875	17.644754
62	0x41825b93	16.294714
63	0x41804760	16.034851

layer3.1.weight f4 [64]
0	0x3f85c84d	1.0451752
1	0x3f56fea5	0.83982307
2	0x3f756ea9	0.9587198
3	0x3f800a64	1.0003171
4	0x3f572c68	0.84052134
5	0x3f88c466	1.0684936
6	0x3f564230	0.83694744
7	0x3f8158b7	1.0105199
8	0x3f543843	0.8289835
9	0x3f78b25c	0.97147155
10	0x3f70079a	0.937616
11	0x3f7ee85a	0.9957329
12	0x3f67a2d6	0.9048284
13	0x3f71d943	0.9447214
14	0x3f6e2fca	0.9304167
15	0x3f8546bc	1.0412211
16	0x3f7f6c35	0.99774486
17	0x3f91500e	1.1352556
18	0x3f709f43	0.93993014
19	0x3f84a368	1.0362368
20	0x3f726614	0.9468701
21	0x3f8c868b	1.0978559
22	0x3f6177cd	0.88073426
23	0x3f861a37	1.047675
24	0x3f887f0f	1.0663775
25	0x3f62f178	0.886497
26	0x3f8bdb63	1.0926327
27	0x3f3718ed	0.7152241
28	0x3f890a8b	1.0706342
29	0x3f69f6ac	0.91392016
30	0x3f8a8211	1.0820943
31	0x3f673cc1	0.9032708
32	0x3f5fe74a	0.87462294
33	0x3f847c36	1.0350406
34	0x3f7e486f	0.99329275
35	0x3f83461c	1.0255771
36	0x3f62d887	0.88611645
37	0x3f883fc1	1.0644456
38	0x3f5385b1	0.8262587
39	0x3f82e92e	1.0227411
40	0x3f71a620	0.9439411
41	0x3f83b458	1.0289412
42	0x3f7423b8	0.95367
43	0x3f8e7822	1.1130412
44	0x3f867547	1.050454
45	0x3f680938	0.90639067
46	0x3f8e315b	1.1108812
47	0x3f81818a	1.0117657
48	0x3f69f4c1	0.9138909
49	0x3f86fb88	1.0545511
50	0x3f795356	0.97392786
51	0x3f8069b7	1.0032262
52	0x3f79e487	0.9761433
53	0x3f61bc61	0.8817807
54	0x3f8d168e	1.1022508
55	0x3f7d50a3	0.98951167
56	0x3f7fcac3	0.99918765
57	0x3f65c060	0.89746666
58	0x3f82925a	1.0200913
59	0x3f5a7b50	0.8534441
60	0x3f63f4ca	0.89045393
61	0x3f97e5ee	1.1867044
62	0x3f75398c	0.95790935
63	0x3f8ff1c2	1.1245654

layer3.1.bias f4 [64]
0	0xbf05765d	-0.52133733
1	0xbe8ec740	-0.2788639
2	0xbe197d23	-0.14989142
3	0xbe94491a	-0.28962022
4	0xbe0b9b41	-0.13633443
5	0xbec604aa	-0.38675433
6	0xbebb8a42	-0.3662892
7	0xbf4120f4	-0.7544091
8	0xbf3d85bc	-0.7403219
9	0xbef877b9	-0.4852884
10	0xbf2838e8	-0.6571183
11	0xbde03098	-0.109467685
12	0xbdc555bc	-0.09635493
13	0xbf050477	-0.5195994
14	0xbe8d1f3f	-0.275629
15	0xbeb68e43	-0.35655412
16	0xbf1b4dba	-0.60665476
17	0xbe89135c	-0.26772583
18	0xbefd7499	-0.4950302
19	0xbed2d3cb	-0.4117721
20	0xbe3176f8	-0.17330539
21	0xbef00383	-0.4687768
22	0xbf014667	-0.5049805
23	0xbef40c1f	-0.47665498
24	0xbef53b32	-0.47896725
25	0xbf252929	-0.6451593
26	0xbefc1939	-0.49237993
27	0xbe0519ad	-0.12998076
28	0xbee17f8c	-0.44042623
29	0xbecb4bbc	-0.39706218
30	0xbe3f1e0a	-0.18663803
31	0xbebc42b9	-0.36769655
32	0xbf18d281	-0.59696203
33	0xbd78d5d8	-0.060750812
34	0xbe968659	-0.29399374
35	0xbe85dc69	-0.26144722
36	0xbea098ba	-0.3136652
37	0xbe799df2	-0.24376658
38	0xbe8f6a55	-0.28010812
39	0xbdf532db	-0.119725905
40	0xbeea62f0	-0.45778608
41	0xbf26adad	-0.6510876
42	0xbebee9b6	-0.37287682
43	0xbea06b3e	-0.3133182
44	0xbe7cb6ac	-0.24679059
45	0xbe0780ac	-0.13232678
46	0xbf5e24c8	-0.86774874
47	0xbf21bd49	-0.6317945
48	0xbeff6a2e	-0.49885696
49	0xbeceeb64	-0.40413964
50	0xbf4748d2	-0.7784549
51	0xbd2c152e	-0.042012386
52	0xbed355fb	-0.41276535
53	0xbeb946bc	-0.3618678
54	0xbe7df7f5	-0.2480162
55	0xbf07e61b	-0.5308549
56	0xbf139bff	-0.57659906
57	0xbf037d3c	-0.5136297
58	0xbec9cbb0	-0.39413214
59	0xbed30f48	-0.41222596
60	0xbc928dcc	-0.01788988
61	0xbed34df6	-0.41270417
62	0xbeb05c6d	-0.34445515
63	0xbe770ccf	-0.2412598

layer3.1.running_mean f4 [64]
0	0x4108d6cc	8.552441
1	0x416eef07	14.933356
2	0xc01ccffc	-2.4501944
3	0x40d00853	6.501016
4	0x3fb0a420	1.3800087
5	0x41037e1b	8.218287
6	0x41bd249b	23.642874
7	0x41906de9	18.053667
8	0x41689319	14.5359125
9	0x4180f069	16.117388
10	0x410acb4d	8.674634
11	0x414cd768	12.802589
12	0x3f0814a7	0.5315651
13	0x411e5ba9	9.897378
14	0x419bb161	19.46161
15	0x4143100c	12.191418
16	0x414e9849	12.912179
17	0xc01642b6	-2.3478217
18	0x41a1fb2c	20.247643
19	0x401091b3	2.2588928
20	0x3eef92ec	0.4679178
21	0x403195c8	2.774767
22	0x41f8ced2	31.100986
23	0x40f845d2	7.758523
24	0x417f4632	15.954638
25	0x418bb914	17.46537
26	0x41af9b19	21.950731
27	0x40d3267a	6.598447
28	0x41386fc1	11.527284
29	0x3fb38799	1.4025756
30	0x400c9685	2.196687
31	0x41a23862	20.27753
32	0x4151e904	13.119389
33	0x41990954	19.129555
34	0x40726a74	3.7877474
35	0x409df6d1	4.936379
36	0x41102140	9.008118
37	0x402a3d45	2.6599896
38	0xbfdc4169	-1.7207462
39	0x416d40cc	14.82832
40	0x4155b90b	13.3576765
41	0x418f8a65	17.942575
42	0x41069ec7	8.413764
43	0x3f2cfc40	0.675724
44	0x40fcae0b	7.8962455
45	0x4057e83f	3.3735502
46	0x415e2c30	13.885788
47	0x41627f90	14.156143
48	0x414aa494	12.66518
49	0x4159e90c	13.619396
50	0x41742036	15.257864
51	0x418fa994	17.957802
52	0x41bb53d2	23.415928
53	0x3f92a8a8	1.145772
54	0x416dd2dc	14.863979
55	0x412e4871	10.892686
56	0x419737a1	18.902163
57	0x404c33be	3.190658
58	0x4118d325	9.551549
59	0x412c244e	10.758863
60	0x418d2d33	17.64707
61	0x40cd6050	6.418007
62	0x411ec293	9.922503
63	0x416ecfca	14.92573

layer3.1.running_var f4 [64]
0	0x42684780	58.069824
1	0x4283c544	65.885284
2	0x42605000	56.078125
3	0x41f7527b	30.915274
4	0x4277c774	61.94478
5	0x420791a7	33.89224
6	0x4239973c	46.39769
7	0x42260c8f	41.512264
8	0x41fb2932	31.395115
9	0x4228d48a	42.207558
10	0x42007e9a	32.123634
11	0x42a737e1	83.60914
12	0x4235e5b5	45.474323
13	0x420ab68c	34.67827
14	0x420d85aa	35.38053
15	0x420a9f7e	34.655754
16	0x4208b108	34.172882
17	0x422b86f6	42.881798
18	0x421e9967	39.649807
19	0x425754f1	53.83295
20	0x425f49ca	55.82206
21	0x4209640a	34.347694
22	0x4221bf58	40.43686
23	0x42035e7d	32.842274
24	0x424143dc	48.31627
25	0x41f59f4b	30.70278
26	0x42218a97	40.38534
27	0x430786c8	135.52649
28	0x42023753	32.554028
29	0x41c66cea	24.80318
30	0x4255caed	53.44817
31	0x427386e5	60.881733
32	0x420e9124	35.64174
33	0x429ee998	79.45624
34	0x42194662	38.318733
35	0x425334dd	52.801624
36	0x424e3f22	51.561653
37	0x42468111	49.62604
38	0x42104150	36.06378
39	0x42ac318c	86.09677
40	0x42296b7b	42.35496
41	0x420474de	33.11413
42	0x420ebbe9	35.683506
43	0x4234a274	45.158646
44	0x42484eaa	50.07682
45	0x427e818d	63.626514
46	0x41d6a5e9	26.83101
47	0x42230e04	40.763687
48	0x42620afb	56.510723
49	0x424c14df	51.020382
50	0x41f7e6ed	30.987757
51	0x42b3a076	89.8134
52	0x426a210e	58.53228
53	0x42336aa2	44.854134
54	0x428cef48	70.46735
55	0x423ba7b6	46.91378
56	0x422fa492	43.910713
57	0x4248858b	50.130413
58	0x42194e30	38.326355
59	0x424e5a0d	51.58794
60	0x42a9df6b	84.93636
61	0x421309d9	36.759617
62	0x422c6f54	43.10872
63	0x42573098	53.797455

layer4.0.weight f4 [64, 64, 3, 3]
0	0xbefca5c1	-0.4934521
1	0xbe9d110f	-0.30677077
2	0xbe873891	-0.26410344
3	0xbe1c7fd3	-0.15283136
4	0xbdb19623	-0.086712144
5	0xbe1f88f6	-0.1557959
6	0xbdb66b20	-0.08907151
7	0x3d28c66a	0.041204847
8	0x3d9a581f	0.07536339
9	0xbeaf4758	-0.34234118
10	0xbe8a2cdb	-0.26987347
11	0xbec862d8	-0.39137912
12	0xbc8c1f0e	-0.017104652
13	0x3d9c4eae	0.076321945
14	0xbd49f547	-0.04930618
15	0x3d97f989	0.07420642
16	0xbc88453a	-0.016634572
17	0xbd345f5e	-0.04403626
18	0xbeb0a2b3	-0.3449913
19	0xbec4fb56	-0.38473004
20	0xbedc51b8	-0.43031096
21	0xbd91b7ae	-0.07115112
22	0xbd979f59	-0.0740344
23	0xbe0ae6d4	-0.13564616
24	0xbd83ebec	-0.06441483
25	0xbe95b930	-0.2924285
26	0xbe869365	-0.26284328
27	0x3d1801e4	0.037111178
28	0x3d9824f6	0.07428925
29	0x3dc9d532	0.09855117
30	0xbd628eb4	-0.055311874
31	0x3e13c73b	0.14431469
32	0x3da9f9ca	0.082995966
33	0x3dac3d38	0.08410114
34	0xbe61f752	-0.22067001
35	0x3cf9e875	0.030506352
36	0x3b36d3d2	0.002789725
37	0xbc1e01dd	-0.009643999
38	0xbd1f0d21	-0.03883088
39	0xbe1450ca	-0.14483944
40	0xbd29a482	-0.041416653
41	0xbded4c74	-0.11586848
42	0xbe39a4ca	-0.18129268
43	0xbe570874	-0.20999318
44	0xbe5b5b8a	-0.21421638
45	0x3ae5c6a3	0.0017530512
46	0xbd9a6528	-0.07538825
47	0xbd66a5da	-0.056310512
48	0x3e0e3b64	0.13889843
49	0x3dc96921	0.09834505
50	0x3e1396b8	0.14412963
51	0x3dad7094	0.08468738
52	0x3ca58928	0.020207003
53	0xbd1050e1	-0.035233382
54	0x3d093195	0.03349455
55	0x3c9ba6c9	0.019000428
56	0x3e6a145d	0.2285933
57	0xbd8162e1	-0.06317688
58	0xbd194c76	-0.037426434
59	0x3d972621	0.073803194
60	0xbd98e4f7	-0.074655466
61	0xbd92b5ca	-0.0716358
62	0x3a8292b2	0.0009961932
63	0xbe11c8ae	-0.1423671
64	0x3ced4bf7	0.028966887
65	0xbd10c54a	-0.0353444
66	0xbe00dcd3	-0.12584238
67	0xbe0292e2	-0.12751344
68	0x3dd63e77	0.10461133
69	0xbe0610e4	-0.13092381
70	0x3ac1d997	0.0014789578
71	0xbd9a13c8	-0.07523304
72	0xbd15f7ce	-0.036613278
73	0x3d85fa57	0.06541889
74	0xbdf72385	-0.12067322
75	0xbdcf7764	-0.10130194
76	0xbd43181d	-0.047630418
77	0xbd9d2561	-0.07673145
78	0xbe504575	-0.20338996
79	0xbe207a6a	-0.15671697
80	0xbe97492f	-0.29548022
81	0xbe25f759	-0.16207637
82	0xbe4c6140	-0.19958973
83	0xbe0238d4	-0.1271699
84	0xbdfe9fb4	-0.12432805
85	0xbd31ad79	-0.043378327
86	0xbcb8a17f	-0.022537945
87	0x3c9d0220	0.019166052
88	0xbd85af29	-0.0652755
89	0x3cef34cb	0.029199978
90	0x3cc52971	0.024067612
91	0xbe4e2b69	-0.20133747
92	0xbe130633	-0.14357834
93	0x3d0cfc2a	0.03442017
94	0xbc479e5c	-0.012183752
95	0xbe0ae3cc	-0.1356346
96	0xbd9ea57f	-0.077464096
97	0xbe5cbbb0	-0.21555972
98	0xbe2099df	-0.15683697
99	0xbeb78c06	-0.35849017
100	0xbe536d46	-0.20647153
101	0xbe8fd974	-0.2809559
102	0xbd6fd512	-0.05855281
103	0xbd25af81	-0.040450577
104	0xbe418881	-0.18899728
105	0xbe5ca8c2	-0.21548751
106	0xbe569516	-0.2095531
107	0xbe97d5fb	-0.29655442
108	0xbd2c306c	-0.042038366
109	0xbe1f010f	-0.15527748
110	0xbde4fe17	-0.11181276
111	0x3e1a3867	0.15060578
112	0x3e4f8493	0.20265417
113	0x3e0b9a72	0.13633135
114	0xbce0f3ca	-0.027459998
115	0xbd87727c	-0.06613633
116	0x3b1f6eaf	0.0024327447
117	0x3dd77744	0.10520795
118	0x3aa1ed79	0.0012354098
119	0xbd3a87aa	-0.045539536
120	0x3e9d5098	0.3072555
121	0x3e5bec23	0.21476798
122	0x3e218b47	0.15775786
123	0x3e80face	0.2519135
124	0x3e8ff4bd	0.28116408
125	0x3ed75e75	0.42064252
126	0xbebd6d57	-0.36997482
127	0xbe2ace8a	-0.16680351
128	0xbe15e17d	-0.14636798
129	0xbe131c47	-0.14366256
130	0xbcea0fe6	-0.028572034
131	0xbbf67bd6	-0.0075220866
132	0xbe93a8c3	-0.28839692
133	0x3c3d25e1	0.011544676
134	0xbb743926	-0.0037265508
135	0xbe5f0264	-0.21778256
136	0xbe981f31	-0.29711297
137	0xbe591100	-0.21197891
138	0x3e0b5786	0.13607606
139	0x3c236d70	0.009974822
140	0x3d3a6a2f	0.04551142
141	0x3ee808d4	0.45319235
142	0x3ea58c3c	0.32333553
143	0x3ed3d1a4	0.4137088
144	0xbdb1d508	-0.086832106
145	0x3ce7f4b5	0.028314928
146	0x3e158c83	0.14604382
147	0xbd2b82be	-0.041872732
148	0x3cbd5650	0.023112446
149	0x3df788bb	0.12086626
150	0xbe3c115d	-0.18365999
151	0xbe8a6930	-0.27033377
152	0xbe26a5e1	-0.16274215
153	0xbd491dd3	-0.04910071
154	0xbe16d179	-0.14728345
155	0xbe072348	-0.13197052
156	0xbd90c7cf	-0.070693605
157	0xbd83b01d	-0.06430075
158	0x3ceb37fa	0.028713215
159	0x3cf00127	0.029297424
160	0x3cb552bb	0.022134176
161	0xbd8935b5	-0.06699697
162	0x3da218bf	0.07914876
163	0x3c4d8896	0.012544772
164	0x3def42f7	0.116826944
165	0xbdcb149c	-0.0991604
166	0xbd857151	-0.06515754
167	0x3cc9536c	0.024575911
168	0xbf18e104	-0.59718347
169	0xbee83a93	-0.4535719
170	0xbe906943	-0.28205308
171	0x3dd44456	0.103645965
172	0x3dd3207e	0.10308932
173	0x3e008948	0.12552369
174	0x3de8e4d1	0.11371768
175	0x3d6ea6d2	0.05826456
176	0x3ddf5d17	0.10906427
177	0x3dc274a8	0.09494907
178	0x3d71257a	0.05887363
179	0x3c6582ea	0.014008263
180	0xbe8fcf94	-0.28088057
181	0xbe318449	-0.17335619
182	0xbe40f563	-0.18843608
183	0x3daecee5	0.08535556
184	0x3dc67b59	0.096914954
185	0x3e25abf4	0.16178876
186	0x3dfc3898	0.12315482
187	0x3df0458a	0.117320135
188	0x3e18fd2f	0.14940332
189	0xbd8ca45a	-0.06867285
190	0xbcdbc1ec	-0.026825868
191	0xbc95246a	-0.01820584
192	0x3e9d4c87	0.30722448
193	0x3df6133b	0.12015387
194	0x3e24778e	0.16061231
195	0x3e741c09	0.2383882
196	0x3e042b8d	0.12907238
197	0x3dbc1d28	0.091852486
198	0x3df447c8	0.11927754
199	0x3e170c50	0.1475079
200	0x3e57e1db	0.21082251
201	0x3da06cf5	0.07833282
202	0x3e351b9d	0.17686315
203	0x3e842ad8	0.25813937
204	0xbdd773d3	-0.105201386
205	0x3da77469	0.081765
206	0x3d2aafec	0.04167168
207	0x3c86e078	0.016464457
208	0xbd952a3b	-0.072834454
209	0xbd95f71e	-0.073225245
210	0x3d76dd3c	0.06026958
211	0xbc4d530d	-0.012532008
212	0x3d7295fa	0.05922506
213	0xbdab06f8	-0.083509386
214	0xbd09646a	-0.033543028
215	0xbd4aa32c	-0.04947202
216	0x3d177202	0.03697396
217	0xbd10b5b0	-0.03532952
218	0x3df2add2	0.1184956
219	0x3e8e2fc6	0.27770823
220	0x3e82342d	0.25430432
221	0x3e8bd637	0.2731187
222	0xbd1bf82c	-0.038078472
223	0x3e0a4327	0.13502179
224	0x3e516fb2	0.20452765
225	0x3cd53335	0.026025394
226	0x3dab8a89	0.08376033
227	0x3ccc5e62	0.024947349
228	0x3e020065	0.12695463
229	0x3e654af3	0.22391872
230	0x3e3f4b95	0.18681176
231	0x3dd0f553	0.10203042
232	0x3e473ddd	0.19457193
233	0x3d9de489	0.07709605
234	0x3ddd7350	0.1081301
235	0x3dbc6ae9	0.09200079
236	0xbdf6fd1d	-0.12059996
237	0xbe097b27	-0.13425885
238	0xbddfebe0	-0.109336615
239	0xbdf1c9ae	-0.118060455
240	0xbe0cdad4	-0.13755351
241	0xbe0eea44	-0.13956553
242	0xbe5ada7e	-0.2137241
243	0xbeae068b	-0.33989367
244	0xbea2dcb8	-0.3180902
245	0xbecb3de0	-0.39695644
246	0xbe20caca	-0.15702358
247	0xbcd2da6d	-0.02573892
248	0xbe6c4c3a	-0.23075953
249	0x3d91caf2	0.07118787
250	0x3cb22b78	0.021749243
251	0x3b0c1c6e	0.002137925
252	0x3e17b3b2	0.14814642
253	0x3e4eb96c	0.2018792
254	0x3dde4a74	0.108540446
255	0x3e07b377	0.13252054
