miniImagenet/vanilla_models/miniImagenet_relation_network_5way_1shot.pkl (torch_old, 526106 bytes, 33 tensors)

layer1.0.weight f4 [64, 2, 3, 3]
000000 3c 0a 14 bf d3 7a de 3d 31 6e f5 bc 67 fa 08 3e
       -0.57828116 0.108632706 -0.02995977 0.13376771
000010 04 95 94 3e 68 67 66 be 41 e9 82 bc 10 60 51 3e
       0.2901994 -0.22500384 -0.015980365 0.20446801
000020 73 80 de bd 5c 00 f1 be 79 03 c5 3e 6b 43 02 3f
       -0.108643435 -0.47070587 0.38479212 0.5088412
000030 d0 ef 53 3e 72 8e f7 be 43 c4 00 3c 61 f8 90 3c
       0.2069695 -0.48350865 0.007859292 0.017696561
000040 1f ba ce be c7 cb 7b 3d b8 e1 b4 be d0 bb 80 3e
       -0.40376374 0.061473634 -0.3532846 0.2514329
000050 31 11 01 be 3e 2e 65 bd 22 d3 54 bd cf 75 38 3d
       -0.12604214 -0.055952303 -0.051959164 0.045034226
000060 8d 11 e3 3e 20 09 cc be 90 73 ec 3d 07 a6 cd be
       0.44349328 -0.39850712 0.11545479 -0.4016573
000070 1e 36 11 3f a5 cb ae 3b ff ea 06 3e f9 80 c0 bd
       0.567232 0.005334335 0.13175581 -0.093995996
000080 d4 67 9d bc 22 84 22 3f e7 c5 71 be 11 cb 7b 3e
       -0.019214548 0.6348287 -0.2361065 0.24589182
000090 90 8a 63 be a0 2c a8 bd 6b 05 d1 3d 88 a2 8a 3e
       -0.22220826 -0.082116365 0.102061115 0.27077127
0000a0 48 2b 37 bf 42 d5 66 3e 5b eb 97 3e 80 b7 06 3e
       -0.71550417 0.22542289 0.2967175 0.13155937
0000b0 2e a0 8e 3e 1d 90 15 be 59 e3 85 ba b3 0d 55 3b
       0.27856582 -0.14605756 -0.001021485 0.0032509386
0000c0 7f 62 31 be 39 96 84 3e 2c 05 aa 3c 91 b3 08 be
       -0.1732273 0.2589586 0.02075442 -0.13349749
0000d0 dc 1d b6 3d 31 85 6c bf 5a f2 5d 3e a7 de 12 3f
       0.08892414 -0.92390734 0.21674481 0.5737099
0000e0 c2 2c 87 3e c2 4b f2 bd 15 4c 16 be 63 de 63 bd
       0.26401335 -0.11830856 -0.1467746 -0.055632006
0000f0 04 52 ce be f1 00 1c be 74 75 35 be 65 c5 ac 3e
       -0.40296948 -0.15234734 -0.17720586 0.3374435
000100 1f c7 bb 3e db f7 60 3c 00 ce af be 9e 3b 85 be
       0.36675355 0.013730968 -0.34336853 -0.26022047
000110 ee 1f 0f 3d 8d 5d 1a bf 82 9a 9a be c8 d9 2a bd
       0.03494256 -0.60299 -0.30196005 -0.0417116
000120 46 eb a1 be 8e 91 a3 3c b3 9a af 3e fa 2e a6 3e
       -0.31624812 0.019966867 0.34297714 0.32457715
000130 31 e0 2a 3e 86 e5 54 be 8c 5f 38 be 07 7f 6a be
       0.16687085 -0.20790681 -0.18005198 -0.2290002
000140 1f 3c db 3d 46 fb 31 3f a9 df 56 be 26 93 fa be
       0.107048266 0.6952404 -0.20983757 -0.4894039
000150 39 c4 13 be 6b 33 21 3e f9 53 91 3e bf d1 a7 bd
       -0.14430322 0.1574227 0.2838438 -0.08194303
000160 b1 8e 02 3e 8a 1c 43 3e 1d 0b c4 3e 21 d1 8b 3d
       0.12749745 0.19053856 0.3828973 0.068269975
000170 e5 50 d2 bd 41 83 82 3e 80 fe b2 be c3 e3 d5 bd
       -0.10269336 0.25490764 -0.34959793 -0.10443833
000180 06 24 f3 bd 2f 9d 98 be 7c 6f 09 3f 02 a0 99 3e
       -0.11872105 -0.29807422 0.53685737 0.3000489
000190 51 75 91 3c bf 4f e4 bd f5 b6 92 3e cf d0 19 bf
       0.017756136 -0.11148023 0.2865521 -0.6008424
0001a0 5c 22 99 be 4c 46 e7 3c d1 40 9b be 9d 6d c7 3e
       -0.29909027 0.028231762 -0.30322888 0.38950816
0001b0 bb af d0 be 42 b4 04 3e 6b 15 9a be 7a fe c7 3c
       -0.40759072 0.12959388 -0.30094466 0.024413336
0001c0 fa eb 58 3e 21 72 b4 bc 25 42 83 3e 88 c8 18 3f
       0.21183768 -0.022027077 0.25636402 0.59680986
0001d0 0f 8f 68 3e 6f 23 90 3e b6 0e 8b 3e 2b 60 b7 3d
       0.22710823 0.28152034 0.2715966 0.089538895
0001e0 64 0a 04 3e f9 e1 a8 bd b3 2c 91 bd 16 7e b2 be
       0.12894589 -0.08246226 -0.07088604 -0.3486182
0001f0 65 23 4a bf 2e 70 e0 bc 5b 78 1a be 17 8e 86 be
       -0.7896026 -0.027397241 -0.15084974 -0.2628028
000200 06 3c 3e be 6c 6e 72 be ea 56 c8 3e 1b 01 c1 3e
       -0.18577585 -0.23674935 0.3912881 0.37696156
000210 b7 13 c3 3e 63 5e c6 3c b2 f3 6a be fe 7b b4 3c
       0.3810098 0.024214929 -0.22944525 0.02203178
000220 ba a2 65 be 8f 7f 9d be 1b 41 87 be 0c 0f e8 3e
       -0.22425357 -0.30761382 -0.2641686 0.4532398
000230 24 f3 d5 3e 10 8d cc 3e a4 2b 14 bd b8 a7 7a be
       0.41787064 0.39951372 -0.03617443 -0.24478042
000240 ef 04 aa 3e 1c 94 7b 3d 16 cd a3 be d1 27 54 be
       0.3320689 0.061420545 -0.31992406 -0.20718314
000250 95 5e 1a 3e 0c c9 1f bd 34 f5 be 3e c1 3f a5 bd
       0.15075143 -0.039010093 0.3729645 -0.08068801
000260 35 6d 21 bf c7 d9 a0 3e c1 28 d4 3d 25 34 df be
       -0.6305726 0.3141615 0.10359336 -0.4359447
000270 0d 79 ad be 37 b6 c7 3d e5 2e c4 bd ee ca a1 3e
       -0.33881417 0.097515516 -0.09579257 0.31600136
000280 97 1f 6b be 1c 48 18 bf fa 9d 8b 3e c0 77 08 bd
       -0.2296127 -0.5948503 0.27268964 -0.033317327
000290 25 4d ba be bc d5 aa 3e 06 62 8c be 4c 33 8a be
       -0.36386982 0.3336619 -0.27418536 -0.2699226
0002a0 da 86 07 be 49 d3 38 3f 24 45 89 3e bc 22 ff 3b
       -0.13235036 0.72197396 0.26810563 0.007786123
0002b0 09 78 9b 3e 4f e4 cf bc 09 ae c4 be 58 ae 07 be
       0.30365017 -0.02537742 -0.38414028 -0.132501
0002c0 94 e8 cc 3b 2b 18 c7 be 87 6c 44 be a2 20 18 3e
       0.0062533114 -0.38885626 -0.19182025 0.14856198
0002d0 7c a9 c1 3e f2 90 fa be 53 49 3e be 44 63 93 3e
       0.3782462 -0.4893871 -0.18582658 0.2878667
0002e0 b2 6a cc bd e6 34 f8 3d ad dc 35 be 81 de 7f be
       -0.09981288 0.121194646 -0.17759962 -0.24987222
0002f0 01 a1 f6 3d 2e 9c f1 3c f0 d2 a4 3e af 1f b7 be
       0.12042428 0.029493418 0.32192183 -0.3576636
000300 70 25 84 be 1c 7b 01 3f 4c a9 6c 3e e2 a5 71 be
       -0.25809813 0.50578475 0.23111457 -0.23598436
000310 b2 f2 09 3f a3 ea 36 be a7 a0 db be a2 0e 8f bd
       0.5388595 -0.17862944 -0.42896006 -0.06985213
000320 3b 89 c2 be 52 30 8e be 34 7f 79 be 6b 4b b7 be
       -0.37995324 -0.2777124 -0.2436493 -0.35799727
000330 2c 0e e9 be 21 e3 8c bd 53 c2 13 be 1b 47 9b 3e
       -0.45518625 -0.06879259 -0.14429598 0.30327687
000340 9c e3 a0 3d 6e 3c f4 3e de fd b3 3c e6 2f db 3e
       0.07855913 0.47702354 0.02197164 0.4280998
000350 c2 23 ab 3e c8 03 94 3e b2 e6 ee bd d0 a9 fd 3d
       0.3342572 0.28909135 -0.116650954 0.12385905
000360 f1 4a ae bb d6 4d 6e be e0 47 a9 be 00 53 1a 3e
       -0.0053189923 -0.2327188 -0.3306265 0.15070724
000370 93 5c a4 bd 33 a6 ef bd 38 82 1f 3f b2 82 74 3e
       -0.0802547 -0.11701622 0.62308073 0.23877981
000380 bf fe 04 3f 5f 7d 22 bd 17 cf b2 be 35 3e 8f be
       0.5195121 -0.039670344 -0.34923622 -0.27977148
000390 04 9c f9 3d c1 92 2a be 5c a1 45 bd e6 c5 d2 3e
       0.12187961 -0.16657545 -0.048249587 0.4116661
0003a0 25 54 8a 3e 5f 1c c9 3e fe 62 0c be 5f b7 21 be
       0.27017322 0.39279458 -0.13709638 -0.15792607
0003b0 c4 25 08 bc 0a c8 f4 be af e3 56 3d 1e 90 18 bf
       -0.008309785 -0.47808868 0.05246323 -0.59594905
0003c0 6f a2 d6 be 3d 95 56 bc d3 8d 0b bf cd 9b ca bd
       -0.41920802 -0.013097105 -0.5451328 -0.09892998
0003d0 c1 cc 07 bd df dd 17 3e 23 1e 12 bf 98 6d 03 3d
       -0.033154253 0.14830731 -0.57077235 0.03208694
0003e0 1a 62 fe be 3b 61 97 be 80 0c a1 3d 94 8b 04 bf
       -0.4968422 -0.29566368 0.07863712 -0.5177548
0003f0 18 52 23 3f 07 52 dd bd 22 d8 54 be a3 d5 ef 3e
       0.6379714 -0.10806661 -0.20785573 0.4684268

layer1.0.bias f4 [64]
000000 80 6d ec bd 0f 0e 64 3e 35 3f 06 40 71 bf 38 3d
       -0.11544323 0.22270988 2.0976079 0.045104448
000010 d8 fc e4 3d 4d b1 3c be e3 2c 37 3d d9 d6 a5 3e
       0.111810386 -0.1842701 0.04472054 0.32390478
000020 80 30 e8 3d 1f a4 8b be 10 14 12 be 09 77 36 be
       0.11337376 -0.27273652 -0.14265466 -0.17818846
000030 3f ea 37 3e 0c a5 b2 3d 36 ef 06 be de ff 26 3c
       0.17960452 0.087228864 -0.13177189 0.010192839
000040 3f 42 b5 3d fc c4 c8 3c f0 41 fc 3f f9 f1 4b 3d
       0.08850526 0.024507992 1.9707623 0.04979131
000050 14 cd 29 be 9f 54 4f bc 18 9d 4a bc cb 5d 85 3e
       -0.16582137 -0.012654453 -0.012366556 0.2604812
000060 ae 36 8c be 9a ad 66 be c4 9a 08 3e 64 ff a0 bd
       -0.27385467 -0.22527161 0.13340288 -0.07861212
000070 47 47 b9 3d 81 07 17 be 2d 23 fa 3d 86 45 ef 3f
       0.09046798 -0.14748956 0.122137405 1.8693092
000080 60 e5 85 3e e2 e3 6d 3b 94 05 02 bc 5a f4 c3 3c
       0.26151562 0.0036299159 -0.0079359 0.023920227
000090 7c a0 05 3e e2 77 57 be c6 33 5f 3e 38 57 e3 3f
       0.13049501 -0.21041825 0.21797094 1.7760992
0000a0 6a 95 de bc ed b1 51 3d 51 81 2e bd c8 08 b7 3d
       -0.027170856 0.051195074 -0.042603794 0.08937222
0000b0 72 6f 24 be 35 fc a0 3d a2 61 88 3e 8b c0 4b 3f
       -0.16058138 0.07860605 0.26636988 0.7959067
0000c0 e6 e5 1f 3e 83 d9 fb 3d 27 eb 22 3b 4c 23 1a 3e
       0.15615043 0.122973464 0.00248594 0.15052527
0000d0 66 07 b2 3d 0a fc e6 bc fb df 1a 3d 1b 81 a8 3e
       0.086928174 -0.028196353 0.03781126 0.32911
0000e0 cb 03 29 be 91 d7 05 3e ba c3 38 40 b6 4c ee 3d
       -0.16505353 0.13070513 2.8869462 0.11635725
0000f0 a7 f3 99 be f8 6d 05 3e 93 14 a0 bd cd 9e 4f 3e
       -0.30068704 0.13030231 -0.07816424 0.20275421

layer1.1.weight f4 [64]
000000 b4 41 40 3f 3e e8 84 3f 01 29 01 3e 62 11 9a 3f
       0.75100255 1.0383375 0.12613298 1.2036555
000010 24 d0 61 3f 43 d8 81 3f 83 74 ae 3f 9e 14 e5 3f
       0.8820822 1.0144123 1.3629307 1.7896917
000020 99 37 83 3f 02 ba 6f 3f de de 8f 3f 11 16 76 3f
       1.0251342 0.936432 1.1239889 0.9612742
000030 28 7e 99 3f a9 35 9e 3f a1 12 61 3f cc 9a 91 3f
       1.1991625 1.2360126 0.8791905 1.1375365
000040 f9 ca 85 3f d4 eb b6 3f 98 6c 6b 3f 7e bc 5b 3f
       1.0452567 1.4290719 0.91962576 0.8583449
000050 20 95 82 3f 81 9c 5b 3f 47 28 6d 3f 3b d3 9f 3f
       1.0201759 0.8578568 0.92639583 1.2486337
000060 d2 04 75 3f 93 5b b7 3f 29 f6 85 3f 73 25 4a 3f
       0.9571048 1.4324821 1.0465747 0.7896339
000070 6b ea 5c 3f 40 b5 87 3f 40 c0 b8 3f 38 57 4c 3f
       0.86295193 1.0602188 1.443367 0.79820585
000080 15 d0 98 3f fb fd d7 3f 97 df 84 3f 25 5e 90 3f
       1.1938502 1.6874384 1.0380734 1.1278731
000090 4b 24 9d 3f 11 73 8e 3f 87 1a 75 3f b9 6e 56 3f
       1.2276701 1.1128865 0.957436 0.837627
0000a0 a7 95 ad 3f b8 11 01 3f 15 40 88 3f ba 97 8a 3f
       1.3561295 0.5041766 1.0644556 1.0827553
0000b0 26 60 85 3f b5 31 97 3f a7 a8 96 3f af 9d 32 3f
       1.0419967 1.1812044 1.1770219 0.69771856
0000c0 47 17 ad 3f 0f a0 76 3f 19 89 7c 3f c0 a8 99 3f
       1.3522729 0.9633798 0.98646694 1.2004623
0000d0 9e 6a 9e 3f 93 bf f1 3f 24 25 7e 3f 9b cb bd 3f
       1.2376287 1.8886589 0.9927542 1.482776
0000e0 7b 0d 40 3f e1 3a 9a 3f 86 12 25 3f d6 62 89 3f
       0.7502057 1.2049218 0.6448139 1.0733287
0000f0 0d 42 bc 3f 9d 6b af 3f ce 8e 4f 3f 09 a9 ad 3f
       1.4707657 1.3704716 0.8107728 1.356721

layer1.1.bias f4 [64]
000000 10 69 91 be 7a 20 ff be 0e d7 77 42 b6 0d 6c bf
       -0.2840047 -0.49829465 61.960014 -0.9220842
000010 5c 50 ae be 66 02 98 3f 8b 43 38 bf b3 55 fa bc
       -0.34045684 1.1875732 -0.7197806 -0.030558443
000020 93 bd 17 bf 30 14 e5 bd 34 59 11 be 8c 51 08 bf
       -0.5927364 -0.11185491 -0.14194185 -0.5324943
000030 ce 62 5f be c9 02 03 bf 94 24 69 bf 0a 41 47 be
       -0.21815035 -0.51176125 -0.9107144 -0.19458404
000040 d3 b3 c7 be bf dd f0 be eb 59 44 42 11 e4 ab be
       -0.39004382 -0.4704418 49.08781 -0.33572438
000050 67 69 cf be 4e 39 d5 be 5e 60 76 be d7 7e 88 bd
       -0.40510103 -0.41645283 -0.24060199 -0.06664818
000060 05 76 0d bf ef dc 04 bd 89 1b fa 3e 09 0e bb be
       -0.5525821 -0.03243726 0.48849133 -0.36534145
000070 9f 2e af be cd fc 8a be f7 a0 a2 be a1 ec 1f 42
       -0.34215257 -0.27145997 -0.3176343 39.981083
000080 f6 3d 1b bf 0f bc ad 3e 7b 2c 82 be 8c 87 89 be
       -0.6064142 0.3393254 -0.2542456 -0.26861227
000090 fc 72 10 3f 71 56 16 bf 51 ff b9 be 40 88 0b 42
       0.5642545 -0.5872565 -0.36327603 34.883057
0000a0 60 53 03 bf 86 cf cb bd f3 22 26 bd c8 1e 8f bc
       -0.51299095 -0.09951691 -0.040560674 -0.017470732
0000b0 cf c4 24 bf 16 a1 88 3e 97 a2 1b bf ee 54 a3 41
       -0.64362806 0.266854 -0.6079497 20.41647
0000c0 e1 14 f6 3e 2b 01 10 bf 89 78 05 3f 56 e1 28 bf
       0.48062804 -0.5625178 0.5213705 -0.65968835
0000d0 c0 a5 fa bd f4 32 d7 3e 67 b0 34 3f 06 9b 5a be
       -0.122386456 0.42031062 0.7058167 -0.21348199
0000e0 06 7f fc be da 7c 84 3d 5f 18 53 42 c9 21 ed be
       -0.4931566 0.06469126 52.7738 -0.4631484
0000f0 56 25 42 3d 08 15 b8 be 1e 20 91 bd 41 93 bf 3f
       0.047398888 -0.35953546 -0.07086204 1.4966813

layer1.1.running_mean f4 [64]
000000 70 62 79 be 77 5d e6 3e 52 c3 ee 3f 64 b1 58 be
       -0.24353957 0.44993183 1.8653357 -0.21161419
000010 26 5e 95 3e 0c ca 42 be ab f3 c9 3d 7a 07 db 3e
       0.29173392 -0.19022387 0.09860929 0.42779142
000020 44 a2 90 be 6c 36 a1 be a0 62 38 bd 0c 78 ae be
       -0.282488 -0.31486833 -0.04501593 -0.34075963
000030 e7 b0 07 3f 16 3b 9d bf ff 16 5a 3d 85 f0 0a 3d
       0.53004307 -1.2283657 0.053244587 0.033920784
000040 e6 74 bc 3f 2e 89 3f bf a2 97 0e 40 bc 00 29 be
       1.4723175 -0.74818695 2.228005 -0.16504186
000050 84 44 8c be c0 82 9b 3d 64 8d 7c be 68 b7 ce bd
       -0.27396023 0.07593298 -0.24663311 -0.10093576
000060 d2 e1 d3 be 6a 6a b3 be 3a 99 67 3e 88 52 9c be
       -0.41383225 -0.35042125 0.22617045 -0.30531716
000070 58 2b 1e be 3c b7 03 be 04 fb 2a be 66 34 e8 3f
       -0.15446222 -0.12862867 -0.16697317 1.8140991
000080 10 48 16 be f4 33 d7 be 67 61 9f 3f 89 05 a8 3c
       -0.14675927 -0.42031825 1.24516 0.020510452
000090 28 98 c7 bd fc e3 c9 be b3 c6 6a 3e 6b 39 d8 3f
       -0.097458184 -0.3943175 0.2292736 1.6892523
0000a0 52 76 11 3d 40 63 10 3e fc 9c 08 be 5e ff e0 3c
       0.03551323 0.14100361 -0.13341135 0.027465519
0000b0 5a cb 10 3e 48 6e 40 bf da e5 dd 3e 31 af 89 3f
       0.14140072 -0.75168276 0.43339425 1.0756589
0000c0 ea 8d 24 3e 40 95 02 3c 6e 62 06 3e 33 bb 27 3e
       0.16069761 0.007970154 0.13123485 0.16380005
0000d0 78 a5 23 3e 28 d9 6c be bd a4 19 3c 00 23 6d bd
       0.1598109 -0.23129714 0.009377656 -0.057894707
0000e0 c4 a7 35 be c9 c6 ad 3d 2f 63 22 40 56 3e dd 3d
       -0.17739779 0.08485181 2.5373037 0.10802905
0000f0 39 02 11 bf c0 08 3f bd b0 4c 2d bd b0 cc 02 bd
       -0.56644017 -0.046639204 -0.042309463 -0.031933486

layer1.1.running_var f4 [64]
000000 0a 8a 87 3d a2 f7 80 3d 0f 69 a4 3d ee 4e f4 3d
       0.06618126 0.06297232 0.08027851 0.11929117
000010 f8 1a fc 3c ef 8d b4 3d fd 5b a3 3d 2a 3d 8f 3d
       0.030774578 0.08816134 0.0797653 0.06994088
000020 3f cd ea 3d a5 f2 7c 3d 2a 1f 9a 3d d2 36 e7 3d
       0.11464929 0.06175484 0.07525475 0.11289753
000030 55 3f 0d 3e 16 1b 87 3e 8a 5c 0b 3e 63 e2 7a 3d
       0.1379369 0.26387852 0.1360952 0.061251055
000040 8d cb 76 3e 0f e2 31 3e b4 63 fc 3d 24 6a d0 3d
       0.24101086 0.17371391 0.12323704 0.10176495
000050 06 7f 88 3d 86 49 84 3d 46 da a1 3d db 1a ce 3d
       0.06664853 0.06459336 0.079029605 0.10063716
000060 a0 3f a6 3d 46 21 c7 3d 0f ec bf 3d 43 a5 88 3d
       0.08117604 0.09723143 0.093711965 0.06672146
000070 29 56 ab 3d bb 62 9f 3c 9f 36 f7 3d bb 9b fb 3d
       0.08366043 0.019456258 0.12070965 0.122855626
000080 af ac 00 3e 56 7c d9 3d fa ff 5f 3e a1 c9 84 3d
       0.12565874 0.10619418 0.21874991 0.0648377
000090 67 9d 10 3e 8f 8a 9b 3d 99 63 81 3d 70 b2 96 3d
       0.14122544 0.07594787 0.06317825 0.07358253
0000a0 b0 19 ac 3d 3d de be 3d c6 e9 f9 3d 31 ac ae 3d
       0.08403337 0.09319732 0.12202792 0.08528937
0000b0 50 e6 9b 3d 61 3e 46 3e 8e 0e 87 3d 19 8a 9c 3d
       0.07612288 0.19359733 0.06594573 0.076435275
0000c0 e8 c8 aa 3d dc 54 eb 3d 7a 06 8b 3d e1 81 8b 3d
       0.08339101 0.11490795 0.06788345 0.06811882
0000d0 76 3a 8a 3d e4 16 92 3d 8c 37 0f 3e 03 dd 0e 3e
       0.06749432 0.07133272 0.13986033 0.13951497
0000e0 f2 4f ab 3d 5b 3a ac 3d 47 ae a5 3d ef fa 92 3d
       0.08364858 0.08409568 0.080898814 0.07176768
0000f0 e1 95 8c 3d de 31 e0 3d c1 20 88 3d d1 51 00 3e
       0.06864525 0.109470114 0.06646872 0.1253121

layer2.0.weight f4 [64, 64, 3, 3]
000000 4c 14 86 be 5d 87 96 3d d0 d2 06 bf 0f cd fb 3e
       -0.2618736 0.07350037 -0.52665424 0.49179885
000010 d7 c2 b0 3d cd 08 d2 bd b6 36 51 be 52 b4 73 3e
       0.08630913 -0.10255585 -0.20431027 0.23799255
000020 b6 f3 07 be d6 47 3d be 31 56 85 3d 21 4b c8 3d
       -0.13276562 -0.18484434 0.0651058 0.09779955
000030 69 f1 9b be e2 71 b4 be 6d 9e 8b be 5c d8 8f be
       -0.3045762 -0.35243136 -0.27269307 -0.28094757
000040 78 c4 2e be 5b e7 03 bc 36 00 59 c0 25 30 36 c0
       -0.17067134 -0.008050765 -3.3906379 -2.8466885
000050 da 70 80 c0 3e b2 46 c0 ac b7 1a c0 9a 35 56 c0
       -4.013776 -3.104629 -2.4174604 -3.3470216
000060 7a 22 1f c0 ba 4e 25 c0 c3 e4 56 c0 2b 4c 8e 3d
       -2.4864793 -2.58293 -3.3577125 0.06948122
000070 bc 05 9f 3e b3 af 78 3e 30 41 42 bc 18 6d 57 3e
       0.31059062 0.24285774 -0.011856362 0.2103771
000080 48 6f c7 3e 1c f0 b1 3d f7 fc 0b bf 5d b6 c8 3e
       0.38952088 0.08688375 -0.5468287 0.39201632
000090 e1 55 a4 bd 48 91 07 bb e8 98 96 3c 64 da f9 be
       -0.080241926 -0.002068596 0.018383458 -0.4879943
0000a0 cc 6d 28 3e 3d 5d fb be 74 ff a6 3e 1d a2 4d 3e
       0.16448134 -0.49094573 0.3261677 0.20081373
0000b0 bf c4 ef 3d c0 57 17 bc 75 dc f6 bd 28 76 2e be
       0.11707448 -0.00923723 -0.120537676 -0.1703726
0000c0 d7 57 1c bf 6d 6e 07 3e fa de 83 3e a7 c7 40 3b
       -0.6107153 0.13225718 0.25756055 0.0029415877
0000d0 96 3b d9 3c 3e 91 08 bd f5 ce 12 be 68 06 55 be
       0.02651767 -0.03334164 -0.1433676 -0.20803225
0000e0 32 2f e6 3c 55 87 58 3e 59 47 08 3f 7e 97 86 3e
       0.028098676 0.21145375 0.5323387 0.26287454
0000f0 01 4e 0d bf c9 3b a9 be 81 0b d4 be bd 21 a9 3e
       -0.5519715 -0.33053425 -0.41415027 0.33033553
000100 6c fd 81 3e 8e df d6 be 53 ea ee bc f6 9e c3 3e
       0.25388658 -0.41967434 -0.029164469 0.38207215
000110 4d 21 fc be ee 3e 8d be 07 95 0d 3c e1 53 a5 be
       -0.49244156 -0.27587074 0.008641488 -0.32290557
000120 80 a6 39 3d 5c d3 86 3e 52 49 e5 be bb 9c ca 3e
       0.045324802 0.2633313 -0.447825 0.395727
000130 8d 77 d2 3e 8b fe 08 be 63 10 46 3e 80 1f 89 3e
       0.41106835 -0.1337835 0.19342189 0.26781845
000140 d7 67 7d 3e 2b f9 5d 3e 3d 80 09 bc c0 68 4b be
       0.24746643 0.21677081 -0.008392391 -0.19864178
000150 23 e4 d1 3e 76 b9 57 3e a5 82 db 3e 11 87 c9 bd
       0.40994367 0.21066841 0.4287311 -0.09840215
000160 01 3e d3 3c d1 68 11 be 17 e1 f7 be 8f 62 07 3f
       0.025786402 -0.1420014 -0.48413917 0.52884763
000170 cc 23 1f 3d 6f 7f ff be b4 d7 2f bd f0 84 d7 be
       0.038852498 -0.49901912 -0.04293032 -0.4209361
000180 9b dc 83 be 91 43 4d 3f e6 cf 9c be 2b 57 64 3d
       -0.25754246 0.80181223 -0.30627364 0.055747192
000190 d3 dd a8 3e 3a ea 04 be 4d 1d de 3b 1f 24 64 be
       0.32981738 -0.12979975 0.0067783953 -0.22279404
0001a0 1f cc 0f 3e f2 64 13 3e 5e 52 cc 3e 73 0d 42 be
       0.1404271 0.14393976 0.3990659 -0.18950443
0001b0 3a 0a a4 be 99 f8 0a 3e 3b cf 2e 3e 5e ca 56 be
       -0.32039052 0.13571395 0.1707124 -0.20975634
0001c0 e7 d2 8c be e9 26 26 bd ba af d1 be 55 17 9a 3e
       -0.27504656 -0.04056445 -0.4095438 0.30095926
0001d0 0a 1c db bd 30 de 0a be 90 2c 9e 3e 43 62 75 3e
       -0.106987074 -0.1356132 0.30893373 0.23963265
0001e0 31 b8 8d 3e 09 47 2f 3e 7d e4 08 3e c7 b1 9d 3d
       0.2767959 0.17116942 0.13368411 0.07699924
0001f0 44 9b 76 bd ec 49 bc 3e e8 5b 4a be 20 e9 1c be
       -0.060206667 0.36775148 -0.19761622 -0.15323305
000200 26 64 30 bf e0 b9 92 be e4 f9 56 bd 24 31 20 bf
       -0.68902814 -0.28657436 -0.052484408 -0.6257498
000210 fc ab cc be 05 58 8f bd 5d 35 b9 be 15 55 af 3e
       -0.39974964 -0.0699921 -0.36173525 0.342446
000220 d3 ce 7a 3e 78 f9 67 3e cb 8b 85 be 28 0d 70 be
       0.2449296 0.22653759 -0.26083216 -0.23442519
000230 f2 6f 9a be 7a 23 8e bd 18 41 09 bd ec 4d ce 3e
       -0.30163532 -0.0694036 -0.033509344 0.40293825
000240 36 59 90 be 95 4a 31 be 50 bc 99 3e ae 20 ca bd
       -0.28193063 -0.17313607 0.30026484 -0.098695144
000250 d3 84 6d bd 1a c0 da 3e 8e c4 9e be c7 be 61 be
       -0.057988 0.42724687 -0.31009334 -0.22045432
000260 03 1b 1e 3e 83 9c 20 3e b8 48 bc 3e c0 ca d9 3d
       0.15439992 0.15684704 0.3677423 0.106343746
000270 90 dd 7f be 4b 45 a4 bd a1 3c 2a bd 2a 1d bb 3c
       -0.24986863 -0.08021029 -0.041561726 0.022841055
000280 bd 90 c4 be 0a 31 91 3e 23 ff 4c be b4 ff ba 3c
       -0.38391677 0.28357726 -0.20019202 0.022827007
000290 ee 5a b7 be 95 e7 e2 be 47 15 1c bf 58 e7 8b be
       -0.3581156 -0.44317308 -0.60969967 -0.2732494
0002a0 0c 17 bd be 4f 85 e1 be 26 47 dd be 09 d3 1f bd
       -0.36931646 -0.4404702 -0.43218344 -0.03901962
0002b0 0d 55 2e bf 6f 5c 09 3e ac b9 03 bf f1 56 0f bf
       -0.6809853 0.13414167 -0.5145519 -0.5599204
0002c0 33 52 14 be 3e 5c ca 3e 1c ab d5 3e 8d 79 4c 3f
       -0.14484482 0.395235 0.4173211 0.7987297
0002d0 71 86 2d 3d bc 11 8f 3d 6b d0 d1 be 47 2a b0 3d
       0.04236454 0.069858044 -0.40979323 0.08601814
0002e0 b4 2c d2 bd 7b c9 34 bf fa 82 b6 3e 80 d1 41 3e
       -0.10262433 -0.70619935 0.35646802 0.18927574
0002f0 05 f3 89 bd df 51 1c 3f 2d b9 cf 3e 2d 18 b8 be
       -0.067358054 0.61062425 0.40570965 -0.35955945
000300 39 5f 6e 3e 9f ba c8 3b 16 09 47 bf 7f 81 0b 3e
       0.23278512 0.0061257626 -0.7774824 0.13623618
000310 52 aa 0f 3f 32 24 e8 bd 05 3f 0b bf 8d ad 5a be
       0.56119263 -0.11335029 -0.54393035 -0.21355267
000320 cf 94 0f bf 37 48 ab bd ca 34 a4 be de c2 11 bf
       -0.5608644 -0.08363383 -0.32071525 -0.5693797
000330 0b 40 92 3e 9a 23 63 3f 84 b8 95 3d 73 21 0b bf
       0.28564486 0.887262 0.07310584 -0.54347914
000340 e2 3e fc 3e c1 d1 d4 be 05 b0 23 3e 9b 23 eb 3e
       0.49266726 -0.4156628 0.15985115 0.45925602
000350 64 94 b4 be eb d3 0a bf f4 8f 32 be f5 77 04 bf
       -0.35269463 -0.5422961 -0.17437726 -0.5174554
000360 06 b7 a0 bc 32 0d 9a 3d 6b dc 1c be 6d 55 f4 be
       -0.019618522 0.07522048 -0.15318458 -0.47721425
000370 78 7c af 3d 9a 2d fc be fd f4 cf bc 1a 82 dd 3e
       0.085686624 -0.4925354 -0.025385374 0.43263322
000380 24 4b a6 3e 28 70 81 be 1b 05 f6 3d 71 44 c4 3c
       0.32479203 -0.2528088 0.120126925 0.023958417
000390 1e 5a 1d 3c 09 cf 06 3d 1e bd 4a 3e a4 39 4a 3e
       0.009604005 0.032912288 0.19798705 0.1974855
0003a0 fb 35 02 3f 74 a7 aa 3e d5 44 b2 bd d8 e1 13 3e
       0.5086362 0.33330882 -0.08704535 0.14441621
0003b0 a2 1d 6c be e0 57 90 be cf 8b 38 be 43 c7 8a bd
       -0.23058179 -0.28192043 -0.18022083 -0.067762874
0003c0 07 04 48 be 88 81 27 3e cb 06 19 bf bd 2a 6b 3d
       -0.19532786 0.16358006 -0.5977599 0.057413805
0003d0 ea 43 bd 3c 3f cd fc be 98 b6 11 be 6b 59 a5 be
       0.023103673 -0.4937534 -0.1422981 -0.32294783
0003e0 d3 26 6f bd c5 43 72 3d 6d 2a 99 3d 84 f0 00 be
       -0.058386635 0.05914666 0.07478795 -0.1259175
0003f0 6b 8d 8e 3e 88 11 8b be 58 97 58 be a7 a1 af be
       0.27842268 -0.27161813 -0.21151483 -0.34303018

layer2.0.bias f4 [64]
000000 2b 48 d2 c1 18 e2 db c1 f4 f5 d3 c1 1d a5 de c1
       -26.285238 -27.485397 -26.495094 -27.830622
000010 7e fb d9 c1 f6 6d d5 c1 7b d8 da c1 c8 ff d7 c1
       -27.247799 -26.678692 -27.355703 -26.999893
000020 5a 92 d3 c1 8f c4 d9 c1 96 3a d6 c1 22 48 d2 c1
       -26.44646 -27.220976 -26.778606 -26.285221
000030 bb 9a df c1 5e dc d6 c1 fe 2d db c1 f2 df d8 c1
       -27.950552 -26.857601 -27.397457 -27.109348
000040 1f 5c d6 c1 13 0b cc c1 84 a4 d0 c1 23 72 d2 c1
       -26.794981 -25.505407 -26.08033 -26.30573
000050 13 32 d6 c1 ca c9 da c1 56 5e c6 c1 6f f1 d9 c1
       -26.77445 -27.34853 -24.796062 -27.242887
000060 bf 73 d4 c1 52 fb c7 c1 ce db da c1 9c 4e db c1
       -26.556517 -24.997715 -27.357327 -27.413383
000070 d9 f2 dc c1 9e 48 c3 c1 f7 09 db c1 c3 2e d8 c1
       -27.618578 -24.410458 -27.379866 -27.022833
000080 9f f9 db c1 a6 2c db c1 29 d2 c6 c1 4f 0e d5 c1
       -27.496885 -27.396801 -24.852617 -26.631987
000090 55 e3 d0 c1 90 4a d3 c1 92 6e d3 c1 cd d8 ca c1
       -26.111002 -26.411407 -26.42899 -25.35586
0000a0 69 da d2 c1 d3 a2 cc c1 62 9a d6 c1 69 a3 cc c1
       -26.356646 -25.579504 -26.825382 -25.57979
0000b0 47 50 d8 c1 26 22 ce c1 ae b2 d4 c1 82 a3 d6 c1
       -27.039198 -25.766674 -26.587246 -26.829838
0000c0 f4 6d cd c1 d4 09 d3 c1 56 e1 d4 c1 41 50 d9 c1
       -25.678688 -26.379799 -26.610027 -27.164186
0000d0 82 e2 c9 c1 bd 17 d7 c1 1d 70 d6 c1 ad fa d5 c1
       -25.2356 -26.886591 -26.804743 -26.7474
0000e0 45 36 c5 c1 56 43 d5 c1 e4 08 dc c1 1e d6 dc c1
       -24.651499 -26.657879 -27.504341 -27.60455
0000f0 0a ec e7 c1 b5 f9 d3 c1 8d b7 d7 c1 b2 86 d4 c1
       -28.990253 -26.496927 -26.964624 -26.56577

layer2.1.weight f4 [64]
000000 00 a8 7e 3f 33 ee a1 3f d4 66 91 3f c1 4f 8c 3f
       0.994751 1.2650818 1.1359506 1.0961839
000010 21 e9 a0 3f 8a 98 85 3f c9 18 9a 3f c1 e1 80 3f
       1.2571145 1.0437176 1.2038814 1.0068895
000020 38 cb 87 3f 16 d7 8a 3f 5e af 85 3f 53 f0 7f 3f
       1.0608892 1.0846889 1.0444143 0.9997608
000030 c2 ab a7 3f 36 45 5d 3f 20 95 ac 3f a3 2c 9f 3f
       1.3099291 0.8643373 1.3483009 1.2435497
000040 a1 b5 a3 3f 96 b8 62 3f 32 25 80 3f 07 7e 94 3f
       1.2789804 0.88562906 1.0011351 1.160096
000050 4a db 86 3f 1c 17 a3 3f 0a cd 4f 3f 5b 29 92 3f
       1.0535672 1.2741427 0.8117224 1.1418871
000060 25 ae 6e 3f c8 d6 30 3f 8b 71 9e 3f 55 41 9d 3f
       0.93234473 0.6907773 1.23784 1.2285563
000070 e9 d0 95 3f 65 be 47 3f fb c9 9e 3f f4 6f 81 3f
       1.1704379 0.78024894 1.240539 1.011229
000080 2d 81 94 3f 68 51 96 3f 6a c1 82 3f 64 f9 8e 3f
       1.1601921 1.1743593 1.0215275 1.1169858
000090 23 c3 95 3f 41 69 7d 3f 86 22 68 3f 68 27 80 3f
       1.1700176 0.9898873 0.9067768 1.0012026
0000a0 e2 22 6a 3f d2 94 50 3f 1f 97 58 3f 76 d7 6e 3f
       0.91459477 0.8147708 0.8460559 0.9329752
0000b0 4c 2c 83 3f f2 d0 4d 3f 53 98 8b 3f 0a 63 8b 3f
       1.0247893 0.8039695 1.0905861 1.0889599
0000c0 ff 09 46 3f 17 47 88 3f 31 54 73 3f 8a fa 73 3f
       0.77359 1.0646695 0.9505034 0.9530417
0000d0 67 d9 55 3f 59 8a 99 3f ac f5 7f 3f dc 9a 5b 3f
       0.83534855 1.1995345 0.9998424 0.8578317
0000e0 4f 57 71 3f 83 a2 75 3f de 43 a9 3f a2 7d 99 3f
       0.9427385 0.959511 1.3223836 1.1991465
0000f0 7a 09 92 3f 97 6e 54 3f 62 b9 96 3f d9 9b 60 3f
       1.1409142 0.82981247 1.1775324 0.87737805

layer2.1.bias f4 [64]
000000 1c ce 43 3e b1 4d e1 be 7e f4 b1 bd 83 94 d4 3d
       0.19121593 -0.44004586 -0.08689211 0.10379889
000010 41 d0 0c bd c5 0f fd be b7 f8 e7 bd 6d 55 f8 be
       -0.034378294 -0.49426094 -0.113267355 -0.48502675
000020 8e 42 81 bd 3e 84 ab be 87 1e 12 bd b1 8e 27 3e
       -0.063115224 -0.3349933 -0.035673644 0.16363026
000030 5e 2d 40 3f 09 8d 38 bf 65 d9 32 3f 99 50 35 3e
       0.75069225 -0.720902 0.6986297 0.17706527
000040 ef ce 10 be 08 8c 6d 3d 86 2a 72 3e 1e dc 0d bf
       -0.14141439 0.057994872 0.23649034 -0.55414
000050 d4 4c d2 bd 3d d2 df bc e2 95 ed be ac b8 c6 bd
       -0.1026856 -0.02732193 -0.46403414 -0.09703192
000060 38 ab 76 be b4 70 28 bd 48 92 4d 3f b3 ba 9a 3c
       -0.24088752 -0.041123107 0.8030133 0.018887853
000070 3e a5 8d be 5f 63 91 be a7 fa 0b 3d 1c ea 23 bf
       -0.27665132 -0.28396127 0.034174588 -0.640291
000080 89 c8 0c bf 05 1a 9e bd 08 e2 55 be bb 01 13 bf
       -0.5499349 -0.077198066 -0.20887005 -0.57424515
000090 ea 9d 2d be 23 c3 36 be 00 9b 38 be 7a a4 a4 bd
       -0.1695477 -0.17847876 -0.18027878 -0.08039184
0000a0 61 7a 80 ba 59 d1 0c 3e 28 85 8e be 99 71 c6 bd
       -0.0009802097 0.13751735 -0.27835965 -0.09689636
0000b0 e8 4f c7 be 9c 15 96 be df c2 84 be fb af 8d 3e
       -0.3892815 -0.29313362 -0.25929925 0.27673325
0000c0 bf 7b 31 bd 82 30 96 be 31 4c 30 be 07 c0 f1 3c
       -0.043330904 -0.29333884 -0.17216565 0.029510511
0000d0 d3 95 af bd cd ab ac be f1 64 ce 3e 3f 45 51 be
       -0.085734986 -0.33724824 0.40311387 -0.20436572
0000e0 e9 5e 2a bf 66 b9 1c 3d ee 6e 11 3f 20 4d 06 3e
       -0.6655107 0.038262747 0.5680989 0.13115358
0000f0 e5 74 8e bc e1 5c 10 be 0e da 68 bd 1f 73 3c 3e
       -0.017389724 -0.1409793 -0.05684858 0.1840329

layer2.1.running_mean f4 [64]
000000 71 98 21 c5 9b 9f 08 c5 e7 4e 10 c5 06 eb 0a c5
       -2585.5276 -2185.9753 -2308.9314 -2222.689
000010 d2 52 18 c5 86 d8 19 c5 21 d7 13 c5 76 01 1b c5
       -2437.1763 -2461.5327 -2365.4456 -2480.0913
000020 78 c4 05 c5 19 ec ea c4 2a 28 1d c5 33 fe 23 c5
       -2140.2793 -1879.378 -2514.5103 -2623.8875
000030 35 db 12 c5 b8 0c e6 c4 46 84 f9 c4 18 dd 03 c5
       -2349.7004 -1840.3975 -1996.1335 -2109.8184
000040 6a 73 0d c5 2e 08 12 c5 26 12 09 c5 8d ae b5 c4
       -2263.2134 -2336.5112 -2193.1343 -1453.4547
000050 da b4 16 c5 e8 0e 1a c5 b2 06 50 c5 94 37 00 c5
       -2411.3032 -2464.9316 -3328.4185 -2051.4736
000060 fb 6e db c4 4a ce 13 c5 bb 40 e5 c4 63 4d 2f c5
       -1755.4681 -2364.893 -1834.0228 -2804.8367
000070 54 19 1b c5 b9 29 48 c5 9a 31 f1 c4 8b c0 13 c5
       -2481.583 -3202.6077 -1929.55 -2364.034
000080 bc 78 28 c5 f0 9f 1c c5 76 a7 4e c5 42 8b d1 c4
       -2695.546 -2505.996 -3306.4663 -1676.3518
000090 b1 00 23 c5 e0 92 09 c5 97 0b 1a c5 d6 69 13 c5
       -2608.0432 -2201.1797 -2464.7244 -2358.6147
0000a0 c8 6f 19 c5 6c d5 d9 c4 3d a3 37 c5 5f 10 31 c5
       -2454.9863 -1742.6694 -2938.2024 -2833.0232
0000b0 0a 0e dc c4 1c 40 2a c5 60 5d 1d c5 03 ea e4 c4
       -1760.4387 -2724.0068 -2517.836 -1831.3129
0000c0 29 66 e5 c4 2a e0 fb c4 ac ad 20 c5 8f 96 11 c5
       -1835.1925 -2015.0051 -2570.8545 -2329.41
0000d0 4e b3 fe c4 ea b9 1b c5 fe ae 0d c5 0d bf f1 c4
       -2037.6033 -2491.6196 -2266.937 -1933.9703
0000e0 2c 9a 27 c5 42 43 18 c5 48 da 0d c5 70 24 03 c5
       -2681.6357 -2436.2036 -2269.6426 -2098.2773
0000f0 25 3b 15 c5 5e ed 12 c5 a7 5c 24 c5 a8 f0 18 c5
       -2387.6965 -2350.8354 -2629.7908 -2447.041

layer2.1.running_var f4 [64]
000000 83 10 e3 42 c8 05 89 42 6b f9 f2 42 71 29 b5 42
       113.53225 68.51129 121.487144 90.58094
000010 47 f4 ea 42 20 1b a7 42 83 b2 a1 42 b4 ac 9f 42
       117.477104 83.55298 80.848656 79.83731
000020 b9 3c fd 42 f5 3c e3 42 1c 58 df 42 84 5e b0 42
       126.6186 113.61906 111.67209 88.1846
000030 21 65 b2 42 0b c5 97 42 46 c6 d0 42 ad a1 9f 42
       89.19752 75.88485 104.38725 79.81577
000040 8d c5 fe 42 94 49 28 43 b0 a4 ce 42 6b 5b e8 42
       127.38584 168.28741 103.321655 116.17855
000050 28 f9 f8 42 17 9d 97 42 87 82 32 43 e4 35 a5 42
       124.48663 75.806816 178.50987 82.605255
000060 68 db c2 42 74 64 c2 42 6d 0d d0 42 b8 66 00 43
       97.42853 97.1962 104.02622 128.40125
000070 5a 7b b0 42 81 7f 47 43 10 d4 c8 42 e9 05 c1 42
       88.24092 199.49806 100.414185 96.51154
000080 39 80 d0 42 28 12 e6 42 24 48 14 43 fb dd 1a 43
       104.250435 115.03546 148.2818 154.86711
000090 04 5e 0e 43 26 08 dd 42 22 64 9e 42 5c 4f 39 43
       142.36725 110.515915 79.19557 185.31
0000a0 cd ac d5 42 8e 6c 02 43 1b 63 a0 42 76 12 23 43
       106.8375 130.42404 80.193565 163.07211
0000b0 2a eb b4 42 0a 44 ef 42 52 3c bc 42 7e 9b ea 42
       90.459305 119.63289 94.11781 117.303696
0000c0 74 97 0a 43 ef ad ef 42 1e 46 d3 42 22 c6 83 42
       138.59161 119.839714 105.63695 65.88698
0000d0 af 3f bc 42 3c 05 c3 42 39 44 89 42 a4 51 89 42
       94.12438 97.51022 68.63325 68.659454
0000e0 d9 4b 35 43 d4 2f 02 43 92 9b c6 42 e7 bc b5 42
       181.29628 130.18683 99.30385 90.86895
0000f0 59 98 76 42 dc 3f 01 43 48 04 d4 42 29 4f 87 42
       61.648777 129.24945 106.00836 67.65461

layer3.0.weight f4 [64, 64, 3, 3]
000000 3c 24 9b 3e 49 22 85 3e 72 b5 cd 3e f6 92 d6 3e
       0.30301082 0.2600272 0.40177494 0.41908997
000010 29 0f 49 3d e2 c8 b5 3e 84 dd cf 3e a9 23 30 be
       0.049086723 0.35504824 0.4059869 -0.17201103
000020 65 bf 03 3f 7b 07 92 bd 20 f2 89 be be 17 96 3e
       0.5146392 -0.07130333 -0.2694254 0.2931499
000030 28 b5 5c be ab 3c 14 bf ca e2 b3 3d fb 41 a6 3e
       -0.2155348 -0.5790507 0.08783491 0.32472214
000040 ac 08 1a be 17 5a 19 3f e7 98 a1 3d be d9 e8 3d
       -0.1504237 0.5990309 0.07890492 0.11369656
000050 fb 90 9d 3e 6f e6 ad bd cf ec 3b 3e 32 1e b7 3e
       0.30774674 -0.08491217 0.18352054 0.35765225
000060 b5 7a 75 be a2 1e 76 3e b2 16 2b 3f fb eb e7 3d
       -0.2397259 0.24035123 0.66831505 0.113243066
000070 e2 69 69 be 6a cc 8a bd 9a ee 51 3d f7 66 2f 3e
       -0.22794297 -0.0677727 0.05125294 0.17129122
000080 c5 c8 dd 3c df 66 aa bd cd 43 81 3e b8 56 d6 bd
       0.027073273 -0.08320402 0.2524704 -0.10465759
000090 5e 40 fa 3d be 70 f3 be f5 41 5b bd e8 a5 f3 3e
       0.12219308 -0.47546953 -0.0535297 0.47587514
0000a0 0d 58 7a 3d f2 32 e5 3c 06 3e bf be 72 ad 6d be
       0.061119128 0.027978394 -0.37352008 -0.23210695
0000b0 d6 c4 05 3e bb 43 89 bd 26 3d 93 3e 79 5d 28 3f
       0.13063368 -0.06702372 0.2875759 0.6576763
0000c0 79 d0 57 be 82 3b 60 be bb 32 6e 3c bc b3 22 bd
       -0.2107562 -0.218977 0.014538462 -0.03972219
0000d0 a2 60 4e 3e dd 31 66 3f 69 d0 d3 be a6 65 37 3e
       0.2015405 0.89919835 -0.41369942 0.1790987
0000e0 28 d2 48 be e7 ef a5 be a4 b1 c6 3d 85 85 9a be
       -0.19611418 -0.32409593 0.09701851 -0.30179992
0000f0 40 3a 43 bd 8a e4 b2 3e 2e eb b2 be 64 b3 be 3c
       -0.047662973 0.34939986 -0.34945053 0.0232789
000100 ec 2d 11 3e b3 7a b1 be 56 b3 d6 be db 91 a3 3e
       0.14177674 -0.34663925 -0.41933697 0.31947216
000110 00 8f d6 be 63 98 90 be af 23 64 3e ed 88 06 3e
       -0.41905975 -0.28241262 0.22279237 0.1313817
000120 65 47 f3 3d 7c c3 00 be ed e6 02 3e 4c 01 64 3d
       0.11878852 -0.12574571 0.12783404 0.0556653
000130 18 f7 c2 be b6 0b c0 3e 67 e7 e1 be 63 74 b5 be
       -0.38079143 0.37508935 -0.44121858 -0.3544036
000140 b7 f8 81 be 31 7a f6 3d 32 0a 89 3d c5 cf 16 be
       -0.25385067 0.12035025 0.06691398 -0.14727695
000150 09 02 4a be c2 e2 cb be f5 99 de be cb 1d c7 bc
       -0.19727339 -0.3982144 -0.43476835 -0.024306199
000160 11 c3 a2 be 2f 86 06 bf ed 13 9c bd 29 dd bb 3e
       -0.3178945 -0.525485 -0.07620988 0.3669217
000170 c1 8f 6e be e8 83 93 3c 96 2b ee 3d d0 e4 57 bf
       -0.23297025 0.018007234 0.11629407 -0.84333515
000180 be 34 56 bd 76 8c aa bd 83 05 c5 be 20 d5 b6 3d
       -0.052296393 -0.08327572 -0.38480768 0.08927369
000190 5a a3 3b 3e 64 93 2d be a8 f6 1f 3e 4c c6 5e 3d
       0.18324032 -0.16950756 0.15621436 0.05438833
0001a0 5c 14 84 3d 91 e8 b2 bc 53 fd 19 bd 05 9a 8c 3e
       0.06449196 -0.021839412 -0.037595104 0.27461258
0001b0 c4 58 35 bd 4f 1a 30 bb 1b 7d 8f 3e e3 be 41 be
       -0.044274107 -0.002687115 0.28025135 -0.18920474
0001c0 ec ee b3 3e 28 5d 0c 3f c2 3e 95 be 0e 77 45 3e
       0.3514322 0.54829645 -0.29149443 0.19283697
0001d0 d8 4f 3b 3e 68 7f 5d 3e 8f 9c a3 3d 38 af 49 be
       0.18292177 0.21630633 0.079888456 -0.19695747
0001e0 f4 72 33 bd 4f 56 bc be df 21 ef be 0f b8 2f be
       -0.0438108 -0.36784598 -0.4670553 -0.17160057
0001f0 d7 67 1d bf 49 59 12 bf 50 fd f5 be e0 b2 76 be
       -0.6148657 -0.5716749 -0.48044825 -0.24091673
000200 3f cf 4e 3e e5 a7 be 3d 31 18 05 3f 37 1e 03 3f
       0.20196246 0.09309367 0.5199004 0.5121798
000210 f6 5b 63 bd 44 27 09 bd 2f 63 c3 3e b4 7b 6b be
       -0.055507623 -0.033484712 0.3816161 -0.22996408
000220 ec 6e be bd 54 e6 a7 3e 5c 35 87 be 0a 8c ec bd
       -0.092985004 0.32792914 -0.26407897 -0.11550148
000230 78 aa bb be 3f 9c f7 be 9c 82 b9 3e 34 77 fb 3e
       -0.36653495 -0.48361394 0.3623246 0.49114382
000240 08 ad 9e be b5 b2 de 3e 66 94 41 3e 71 48 8c 3e
       -0.30991387 0.43495718 0.18904266 0.27399018
000250 8d fe 76 3e 50 66 65 3d f8 ec f0 3d 55 61 bb 3e
       0.24120541 0.056005776 0.11763948 0.36597696
000260 57 1c 18 bf 09 3c 14 3e bd 24 53 bd 49 43 3b 3e
       -0.59418243 0.14476027 -0.05154871 0.18287386
000270 0d 77 01 3e 51 9f be bd 0b 3b 23 3e 05 ae b5 bd
       0.1264307 -0.09307731 0.15940492 -0.08871082
000280 9c e0 53 3e 49 1e 1d 3f dc 27 75 3d 50 77 43 3c
       0.2069115 0.61374336 0.059852466 0.011930302
000290 bc cb e7 3e 44 9c 9b bd 6d 97 81 be 53 62 49 3e
       0.45272624 -0.07598165 -0.2531084 0.19666414
0002a0 2d f9 82 3e e6 96 ff bd ed f1 a7 3e 3a 7e 93 3c
       0.2558073 -0.124799535 0.32801762 0.018004525
0002b0 c0 a0 22 be db 8c f9 bc e3 bd 82 3e 86 89 1e be
       -0.15881634 -0.030462673 0.25535497 -0.15482149
0002c0 4b 3d 02 3f a4 c7 b9 3e 57 c5 ab 3d 9d 67 98 3e
       0.50874776 0.36285126 0.08387249 0.2976655
0002d0 58 9e b0 bd 28 b1 5d be ca d6 ba be 4c 4e 6f bd
       -0.08623952 -0.21649611 -0.36491996 -0.05842428
0002e0 e6 c2 06 3e 2e ea df be 1f d5 7a 3d e9 03 0f 3c
       0.13160285 -0.43733352 0.061238404 0.00872896
0002f0 09 74 84 bd a7 bb d4 be fa a0 ef 3e 50 8b 18 3d
       -0.064674444 -0.41549417 0.46802503 0.037242234
000300 e0 aa f4 be 43 b5 7b 3d 17 0e ca be 56 4c 35 be
       -0.47786617 0.06145216 -0.39463875 -0.17704901
000310 d0 d1 87 bf 04 40 a1 be e1 3e 00 bf 39 df 97 3e
       -1.0610905 -0.31494153 -0.50095946 0.29662493
000320 2d de aa be 6e 53 cf be 5c 69 85 be 27 91 9b be
       -0.33372632 -0.4049334 -0.26056945 -0.3038418
000330 09 56 ed bd d5 b7 81 3e eb 44 9d be 6e 58 18 be
       -0.115886755 0.25335565 -0.30716643 -0.14877483
000340 bd 05 b6 bd 75 33 50 bd 5f e9 b7 bc 31 ad 08 3f
       -0.08887813 -0.050830323 -0.022450147 0.5338927
000350 c9 f4 27 be ad 48 27 bf cf c0 1c 3d 9c ba 88 be
       -0.16401972 -0.6534527 0.038269814 -0.26704872
000360 fe ec 2c bf 9c d4 6e be 86 a9 ba be f7 aa 80 be
       -0.6754912 -0.23323292 -0.3645746 -0.25130436
000370 4d 18 aa bd 10 17 22 3f da b6 c5 bc fe ff c8 3e
       -0.08305416 0.6331644 -0.024135042 0.39257807
000380 e5 3d 9b 3e 61 39 43 bd 77 35 94 3c 1f e1 f7 3e
       0.3032066 -0.047662143 0.0180919 0.4841394
000390 12 d6 fa 3d 94 c3 8e be 00 62 07 3f a6 b5 ec bd
       0.12247862 -0.2788359 0.5288391 -0.11558084
0003a0 e5 87 a8 3e ff ee 1e 3f 34 d4 a1 3e 90 ac f3 3e
       0.3291618 0.6208343 0.3160721 0.47592592
0003b0 06 19 3f 3e 67 8d a1 3e 75 03 e5 3e 1a d7 a5 3e
       0.1866189 0.31553194 0.447292 0.32390672
0003c0 96 3a 96 be 7f 62 da 3d 95 88 fc be 0b 28 1b 3d
       -0.29341573 0.10663318 -0.49322954 0.037879985
0003d0 d4 8e 4f bd 46 99 eb bd d6 e2 3f be 2a d1 d8 3d
       -0.05067332 -0.11503844 -0.18738875 0.1058677
0003e0 d1 b5 11 bf 75 f2 7d 3e dd 8b 24 3e df c4 e6 be
       -0.56918055 0.24799521 0.16068979 -0.45072076
0003f0 2c 26 2b be 41 ba d3 bd e7 47 fd 3d 9e 12 a1 be
       -0.1671378 -0.103382595 0.1236723 -0.31459516

layer3.0.bias f4 [64]
000000 10 0d 17 42 1d 9c 0a 42 90 84 25 42 bf 95 f0 41
       37.762756 34.652454 41.379456 30.073118
000010 19 44 0a 42 a4 7c ee 41 56 71 c5 41 24 90 01 42
       34.5665 29.81086 24.68034 32.390762
000020 32 70 1c 42 ac 04 1d 42 c0 3e 09 42 b4 b4 15 42
       39.109566 39.254562 34.31128 37.426468
000030 6d 54 02 42 b2 46 1a 42 6b 29 fd 41 c5 7c 1e 42
       32.582447 38.56904 31.645224 39.621845
000040 df 18 0d 42 95 4b ce 41 bc 09 1e 42 0f a4 04 42
       35.27429 25.786905 39.509506 33.160213
000050 8b 16 d4 41 df 24 fd 41 6d 28 06 42 dd 3f 0b 42
       26.511007 31.643003 33.53948 34.812366
000060 90 8f 01 42 73 dd f2 41 82 9f ff 41 94 30 1b 42
       32.390198 30.35813 31.952885 38.79744
000070 a7 91 00 42 04 11 0e 42 42 6f 10 42 a8 94 06 42
       32.14224 35.516617 36.10865 33.645172
000080 54 d3 10 42 ec 71 21 42 16 58 23 42 06 09 f7 41
       36.206375 40.36125 40.83602 30.879406
000090 6e 24 12 42 ab 99 14 42 6f 64 00 42 79 6d 00 42
       36.535576 37.150066 32.09808 32.106907
0000a0 eb 7d fd 41 86 25 fa 41 b4 79 ca 41 07 bf 17 42
       31.686483 31.268322 25.309425 37.93655
0000b0 22 f8 fd 41 70 2f 02 42 47 1a 1a 42 f2 21 00 42
       31.746159 32.546326 38.52566 32.03315
0000c0 22 3b 17 42 69 cc 0e 42 5e 33 1c 42 cb f6 1d 42
       37.807747 35.69962 39.050163 39.49101
0000d0 51 7f 04 42 4f c4 04 42 52 f5 ea 41 64 b0 1a 42
       33.124332 33.191708 29.369785 38.672256
0000e0 f2 09 10 42 f1 99 1e 42 16 89 17 42 db d3 07 42
       36.009712 39.650333 37.883873 33.95689
0000f0 e1 98 d2 41 f1 cb 1e 42 d8 76 12 42 fd a3 16 42
       26.324648 39.69916 36.61606 37.660145

layer3.1.weight f4 [64]
000000 3f 83 8c 3f 76 24 76 3f f9 92 9f 3f d2 da 5a 3f
       1.0977553 0.96149385 1.2466727 0.85490143
000010 5b 90 61 3f 3f 56 51 3f 3a 88 48 3f fb ff 63 3f
       0.88110894 0.81772226 0.78332865 0.8906247
000020 a6 9b 8c 3f e2 46 94 3f ca 8d 82 3f 8c 49 90 3f
       1.0985 1.1584132 1.019952 1.1272445
000030 9c f5 80 3f 8e b5 91 3f 77 5c 65 3f ee a2 6c 3f
       1.0074954 1.1383531 0.89594215 0.9243611
000040 50 d9 73 3f 01 e5 55 3f 34 95 a0 3f 86 a9 7c 3f
       0.9525347 0.8355256 1.2545533 0.9869617
000050 0b 5f 60 3f 6d 13 5a 3f eb 81 7f 3f f7 ce 65 3f
       0.87645024 0.8518589 0.99807614 0.8976893
000060 83 fe 44 3f f0 be 89 3f a1 25 80 3f bf 12 81 3f
       0.76950854 1.0761395 1.0011483 1.0083846
000070 e5 98 80 3f 6c 1b 77 3f 69 b1 8b 3f e0 3d 67 3f
       1.004666 0.9652622 1.0913516 0.9032879
000080 50 3f 72 3f ce 58 8a 3f 84 40 93 3f 8a 48 4a 3f
       0.9462786 1.0808351 1.1504064 0.79016936
000090 29 b5 77 3f c7 c7 7a 3f 28 be 69 3f f2 e5 6c 3f
       0.96760803 0.97961086 0.9130578 0.9253837
0000a0 20 a2 61 3f 15 63 83 3f 5c 03 64 3f ad 00 81 3f
       0.8813801 1.0264612 0.89067626 1.0078331
0000b0 60 70 6d 3f 2b 38 70 3f e5 f8 9e 3f d5 1f 7b 3f
       0.92749596 0.93835706 1.2419707 0.98095447
0000c0 0b e6 8a 3f 92 d2 8c 3f 87 2a 89 3f 41 ab 89 3f
       1.0851454 1.1001761 1.0716103 1.0755388
0000d0 34 13 6c 3f 9e f6 6c 3f 3d ae 68 3f 5d d9 83 3f
       0.922168 0.9256381 0.90890867 1.0300709
0000e0 56 72 82 3f 07 51 88 3f 61 19 8a 3f 8b 4f 8c 3f
       1.0191143 1.0649728 1.0788995 1.0961775
0000f0 1c b8 71 3f 8c fc 60 3f d2 40 82 3f bd c6 53 3f
       0.94421554 0.87885356 1.0176032 0.82725126

layer3.1.bias f4 [64]
000000 e9 c7 04 bf f2 22 0f bf ef 51 b0 3e 5c af 3d bf
       -0.5186754 -0.559127 0.3443751 -0.740957
000010 b6 a9 28 bf ff aa 19 bf ca 8e 85 bf 3e 80 60 bf
       -0.6588396 -0.60026544 -1.0434201 -0.8769568
000020 44 04 d2 be 39 50 55 be b4 4c 4e be a8 9a b6 be
       -0.4101888 -0.20831384 -0.20146447 -0.35664868
000030 74 50 2c bf 4d 09 a3 be e9 ae 3e bf 9f 91 ca 3b
       -0.6731026 -0.31843033 -0.7448564 0.00618191
000040 1e 15 d6 be b9 ae 7a bf b0 23 85 be f3 6f 49 bf
       -0.41812986 -0.97922856 -0.2600379 -0.78686446
000050 57 d0 71 bf 23 dd 10 bf 60 6b 4d bf f5 14 00 bf
       -0.94458526 -0.5658743 -0.80241966 -0.5003198
000060 d3 d7 aa be d0 8f e4 be 5e ee 3f bf a2 4a dd bd
       -0.33367786 -0.4464097 -0.74973094 -0.10805251
000070 bf 4f 24 bf 1d 9a f7 be 5d ea 19 be 27 cf e7 be
       -0.6418418 -0.48359767 -0.15030809 -0.45275232
000080 15 ef 15 bf 25 19 fa be 81 1e 42 be e9 a9 68 bf
       -0.58567935 -0.4884731 -0.18956949 -0.9088426
000090 c7 e3 08 bf 88 31 f9 be bd 26 d3 be 77 6e 0d bf
       -0.5347256 -0.48670602 -0.41240492 -0.5524668
0000a0 23 8e 01 bf f8 2c f4 be 78 32 7d bf bf 4c a0 be
       -0.5060751 -0.47690558 -0.98905134 -0.31308553
0000b0 c4 88 37 bf d9 9d 17 bf 48 53 18 bf 94 fe 0b bf
       -0.7169306 -0.5922523 -0.5950208 -0.5468533
0000c0 bf 7a 4f bf 1b 34 57 bf 2d e3 17 bf 71 f5 aa be
       -0.8104667 -0.8406388 -0.5933102 -0.33390382
0000d0 1c 5d 40 bf 52 8a 6b bf 86 dc 12 bf d7 53 8f be
       -0.75142074 -0.92007935 -0.5736774 -0.27993652
0000e0 dc 12 0f bf 13 97 e2 be 79 2c a3 be e4 de 43 bf
       -0.5588815 -0.44255885 -0.31869867 -0.7651198
0000f0 d9 07 72 bf cf af ea bd 67 9c 87 bf 58 d0 2a be
       -0.94543225 -0.11459314 -1.0594605 -0.1668104

layer3.1.running_mean f4 [64]
000000 01 5c 2e 42 ed 54 bb 41 9b 04 42 42 37 e2 6a 42
       43.589848 23.416468 48.504498 58.720913
000010 e2 d9 f6 41 25 21 9e 41 57 41 24 41 ec b3 f3 41
       30.856388 19.766184 10.265952 30.462852
000020 71 2d 01 42 f8 5d 4a 42 53 76 ee 41 e6 3e e4 41
       32.294376 50.591766 29.807775 28.530712
000030 71 22 01 42 bd a5 1e 42 28 f5 58 42 c4 dc f2 41
       32.283634 39.661854 54.23941 30.357796
000040 be 50 0b 42 cb 22 af 41 8f 94 4c 42 62 73 33 42
       34.82885 21.891989 51.145077 44.86268
000050 bc 57 30 41 80 c2 f6 41 53 63 19 42 1e c6 07 42
       11.02142 30.84497 38.346996 33.943474
000060 1f 9d 04 42 95 7d 22 41 42 9a 85 41 bb c6 1a 42
       33.15344 10.15566 16.700321 38.694073
000070 7c f7 13 42 65 dd 02 42 28 95 c8 41 42 e1 5a bf
       36.991684 32.716206 25.07283 -0.85499966
000080 84 f4 f3 41 cf 01 5d 42 b4 6a 23 42 e5 1d a1 41
       30.494392 55.251766 40.854202 20.139597
000090 60 68 6a 41 c7 50 2d 42 ee 64 0f 42 01 08 b5 41
       14.650482 43.328884 35.848564 22.628908
0000a0 82 fb 1d 42 4b 8a ab 41 e6 de 5f 41 a0 37 18 42
       39.495613 21.442526 13.991919 38.05432
0000b0 b5 4d 58 42 62 c7 2d 42 5a 51 06 42 8a e0 b8 41
       54.075886 43.44471 33.579445 23.109638
0000c0 dd b4 28 42 14 39 41 42 00 d1 79 42 ea 2d 5d 42
       42.176624 48.30574 62.4541 55.294838
0000d0 c5 63 1a 42 09 ed ea 41 62 0a 27 42 9a 00 1a 42
       38.59743 29.36574 41.76014 38.500587
0000e0 eb c0 fa 41 10 0e 23 42 98 43 31 42 c0 d3 29 42
       31.344198 40.763733 44.31601 42.456787
0000f0 df 74 0b 41 f2 b3 11 42 ee 99 2a 42 05 ba 11 42
       8.716033 36.425728 42.650322 36.43166

layer3.1.running_var f4 [64]
000000 29 2d 59 42 33 a9 92 42 97 3b 82 42 47 1b da 42
       54.2941 73.33047 65.11639 109.053276
000010 9b 57 59 42 cb 62 03 43 95 f5 65 43 b4 d7 d2 42
       54.335552 131.38591 229.9593 105.421295
000020 f8 be 55 42 00 7e 9a 42 65 1e e8 42 94 21 84 42
       53.436493 77.24609 116.059364 66.06558
000030 20 19 91 42 4a 8e ac 42 74 71 b8 42 32 d2 6c 42
       72.54907 86.27791 92.22159 59.20527
000040 25 50 97 42 7d 79 60 43 4d 85 95 42 97 49 bb 42
       75.65653 224.47456 74.76035 93.64373
000050 d2 d4 43 43 ca ad c2 42 75 42 ac 42 00 4d 98 42
       195.83133 97.33943 86.1298 76.15039
000060 ff 5d c6 42 80 08 fa 42 8c b8 09 43 7c 6f 8a 42
       99.183586 125.0166 137.72089 69.21774
000070 55 a2 94 42 45 df 90 42 f0 98 93 42 0c 90 85 42
       74.317055 72.43607 73.798706 66.78134
000080 c3 cd 80 42 56 18 7f 42 25 08 69 42 45 5e ad 42
       64.40188 63.773766 58.257954 86.68412
000090 fe db 77 42 ae 08 7f 42 02 be 92 42 78 42 b7 42
       61.964836 63.758476 73.37111 91.62982
0000a0 20 9a b2 42 7f 51 a7 42 61 6a 73 43 a0 6c 48 42
       89.301025 83.65917 243.41554 50.10608
0000b0 5b 8b ca 42 44 0e c2 42 7c fe 77 42 e5 92 8e 42
       101.27218 97.02786 61.99852 71.2869
0000c0 4c 22 2d 42 10 2a 98 42 06 a8 9d 42 6e 48 68 42
       43.283493 76.08215 78.82817 58.070732
0000d0 10 64 90 42 c9 d3 c4 42 f3 f5 e5 42 9d e3 68 42
       72.195435 98.41364 114.98037 58.22228
0000e0 16 d8 bf 42 52 13 5d 42 79 10 7a 42 e7 8a 85 42
       95.92204 55.268867 62.516087 66.77129
0000f0 42 18 63 43 52 e5 64 42 b0 4d 70 42 1b ac 5b 42
       227.09476 57.223946 60.075867 54.91807
