miniImagenet/vanilla_models/miniImagenet_foreground_encoder_5way_3shot.pkl (torch_old, 457791 bytes, 24 tensors)

layer1.0.weight f4 [64, 3, 3, 3]
-0.18046191 -0.19053988 -0.31278884 -0.1381388 -0.18392588 -0.10739095 0.027697131 0.07306463
0.052949727 0.20385478 0.027462449 0.05074632 0.13682583 0.16764434 0.3409623 0.18516551
0.3418861 0.29627028 0.0039007007 -0.0369152 0.106025964 -0.17855461 -0.36910582 -0.104377426
-0.21111357 -0.04965121 -0.08743394 -0.08782338 0.10926361 0.08525181 -0.096334316 0.14206125
0.16899048 -0.19311067 0.14043748 0.10228619 -0.08161411 0.16556263 0.20612958 -0.09926055
0.25793123 0.18563242 -0.13063902 0.0854105 0.15141907 -0.17739865 0.1937621 0.31982177
-0.1802611 0.24331409 0.38439438 -0.2590757 0.06165571 0.25412044 -0.00070121523 -0.08979176
-0.098258466 0.0039890856 0.09369154 0.07295777 0.06959896 0.19648634 0.19051327 -0.090143226
-0.3676123 -0.3201716 -0.14676136 -0.2802515 -0.2082856 0.035841286 0.12221691 -0.024301874
0.17455544 -0.07084933 -0.108016916 0.10953036 0.03939595 0.08671664 0.27355507 0.4087753
0.1305031 -0.10714338 0.06553804 -0.14722033 -0.13357161 0.19386382 -0.11760799 -0.018360311
-0.047870386 -0.102656506 0.05714527 0.20045416 -0.17385235 0.0821215 0.326426 -0.30385786
-0.007492391 0.14249001 -0.21571223 0.1836392 0.28640527 -0.05321777 0.2604923 0.3647927
-0.08676905 0.19186409 0.15117219 -0.1830701 0.10177461 0.1997447 0.2051268 0.03736662
0.07489391 0.11958432 0.14404221 -0.016381485 0.033004597 -0.30459836 -0.20263909 -0.07941728
-0.2484556 -0.35135564 -0.3688339 -0.259132 -0.21613747 -0.2718972 0.03853785 -0.17149355
-0.072709724 0.18223818 -0.15937766 -0.04857313 0.2891507 0.16286138 0.12888221 0.08692396
0.045329854 -0.13068953 0.17190875 0.14163013 0.13976258 0.08884258 0.11389752 0.17357215
-0.08132818 -0.12744963 -0.2519514 -0.052246183 0.050992515 -0.027152728 -0.118914954 -0.048776817
0.15423012 0.13114136 0.101309694 -0.31080523 0.39950073 0.39750084 0.032861196 0.34023994
0.55537057 0.28012693 -0.21395537 0.009730542 0.061948143 -0.395012 -0.002703325 0.12966079
-0.21026057 -0.01840705 0.10590988 -0.16061385 0.05385509 0.33146533 -0.19915262 0.05911259
0.29047707 -0.12720929 0.03771005 0.25963092 -0.22416347 0.025830746 0.13438128 -0.3189404
0.11537774 0.26361784 -0.1118719 0.0056173294 0.23527487 0.16942176 0.16991386 -0.00016854097
-0.038432486 0.19401221 0.23666278 -0.16236879 0.04500008 0.11133085 0.089595884 0.20959571
-0.01982699 -0.09926814 0.24296676 0.18124336 -0.29017627 -0.07930868 0.052872986 -0.043153293
0.22852077 0.07452561 -0.18122141 0.15101719 0.12849975 -0.3046312 0.026905455 0.15641457
-0.06981248 -0.082978934 0.105746865 -0.18587059 -0.22014236 0.11580563 -0.1296626 -0.19289185
0.037889004 0.10361687 0.21841395 0.22992773 0.16736497 0.022835538 0.32804936 0.25136137
0.10275983 0.24316998 0.07266198 0.060109176 0.39193782 0.110893294 0.039743565 0.21183918
0.29743558 0.26237857 0.28762794 -0.15096307 0.14321136 -0.12787482 0.10625974 0.18485932
0.03417728 -0.29867163 0.07384615 -0.2810615 -0.12425209 0.10827883 -0.250502 0.12960011
00000000: 02cb 38be e31c 43be dc25 a0be 4274 0dbe
00000010: 1157 3cbe c9ef dbbd 18e5 e23c e9a2 953d
00000020: d0e1 583d 4fbf 503e eef8 e03c 60db 4f3d
00000030: 121c 0c3e f5aa 2b3e 9c92 ae3e 079c 3d3e
00000040: b20b af3e bdb0 973e e6a2 7f3b 6534 17bd
00000050: 2424 d93d 05d7 36be 70fb bcbe d5c3 d5bd
00000060: 282e 58be 115f 4bbd 9110 b3bd bfdc b3bd
00000070: 99c5 df3d 8098 ae3d ed4a c5bd 8178 113e
00000080: d70b 2d3e cebe 45be d8ce 0f3e 6c7b d13d
00000090: 4c25 a7bd 4089 293e a213 533e 1e49 cbbd
000000a0: 900f 843e 6d16 3e3e 3cc6 05be b3eb ae3d
000000b0: 9a0d 1b3e fea7 35be 9269 463e aebf a33e
000000c0: 5e96 38be 5427 793e 57cf c43e 92a5 84be
000000d0: b38a 7c3d 131c 823e c2d1 37ba bee4 b7bd
000000e0: bc3b c9bd e0b6 823b 5ae1 bf3d e26a 953d
000000f0: e689 8e3d b733 493e e915 433e 039d b8bd
00000100: ae37 bcbe 88ed a3be 9c48 16be 207d 8fbe
00000110: d248 55be 50ce 123d dc4c fa3d b914 c7bc
00000120: a9be 323e 7419 91bd f937 ddbd 7451 e03d
00000130: a65d 213d 7e98 b13d 690f 8c3e ff4a d13e
00000140: 9ba2 053e fd6d dbbd cf38 863d edc0 16be
00000150: ffc6 08be 3d84 463e 75dc f0bd 5d68 96bc
00000160: bd13 44bd 933d d2bd 2911 6a3d db43 4d3e
00000170: 5a06 32be 512f a83d 4f21 a73e 4293 9bbe
00000180: bb82 f5bb e7e8 113e abe3 5cbe ea0b 3c3e
00000190: b6a3 923e e0fa 59bd 3f5f 853e 1cc6 ba3e
000001a0: f9b3 b1bd 0578 443e e2cc 1a3e ba76 3bbe
000001b0: 356f d03d e089 4c3e c30c 523e be0d 193d
000001c0: fa61 993d a0e8 f43d cd7f 133e 7732 86bc
000001d0: d42f 073d 51f4 9bbe 9f80 4fbe 87a5 a2bd
000001e0: 256b 7ebe e3e4 b3be ccd7 bcbe f3ac 84be
000001f0: 2453 5dbe 1c36 8bbe ddd9 1d3d 019c 2fbe
00000200: d6e8 94bd a59c 3a3e e633 23be 9ef4 46bd
00000210: 900b 943e 22c5 263e b3f9 033e 3005 b23d
00000220: ccab 393d 7ad3 05be d908 303e 7d07 113e
00000230: ec1d 0f3e 19f3 b53d 1a43 e93d e6bc 313e
00000240: 648f a6bd 2882 02be c6ff 80be 1800 56bd
00000250: 87dd 503d 666f debc af89 f3bd 33ca 47bd
00000260: 80ee 1d3e ec49 063e 757b cf3d dd21 9fbe
00000270: 5c8b cc3e 3b85 cb3e 7699 063d ee33 ae3e
00000280: c42c 0e3f cc6c 8f3e 1e17 5bbe da6c 1f3c
00000290: 56bd 7d3d 033f cabe 442a 31bb ccc5 043e
000002a0: 8c4e 57be 62ca 96bc 47e7 d83d f577 24be
000002b0: 2897 5c3d d3b5 a93e aaee 4bbe 0b20 723d
000002c0: 69b9 943e 2743 02be da75 1a3d 58ee 843e
000002d0: 1c8b 65be 009b d33c 3f9b 093e 284c a3be
000002e0: 2a4b ec3d ebf8 863e 181d e5bd 9311 b83b
000002f0: e5eb 703e e67c 2d3e e6fd 2d3e 5fba 30b9
00000300: 626b 1dbd 23ab 463e ba57 723e 0144 26be
00000310: 0152 383d 6e01 e43d 0c7e b73d 42a0 563e
00000320: 366c a2bc 184d cbbd 47cc 783e dc97 393e
00000330: fc91 94be 976c a2bd 5891 583d 82c1 30bd
00000340: 5901 6a3e e2a0 983d 1b92 39be 40a4 1a3e
00000350: 7095 033e 9ff8 9bbe d468 dc3c 242b 203e
00000360: d8f9 8ebd dcf0 a9bd d091 d83d dc54 3ebe
00000370: 006d 61be 812b ed3d 46c6 04be 7185 45be
00000380: 8031 1b3d 1535 d43d e8a7 5f3e 2d72 6b3e
00000390: b961 2b3e 9811 bb3c 16f6 a73e 70b2 803e
000003a0: bf73 d23d 8d01 793e cecf 943d 0a35 763d
000003b0: 13ac c83e 061c e33d 26ca 223d 5fec 583e
000003c0: 7a49 983e 7c56 863e f843 933e 1096 1abe
000003d0: 00a6 123e 9ef1 02be b59e d93d c34b 3d3e
000003e0: 7afd 0b3d 7deb 98be a63c 973d 4be7 8fbe
000003f0: e177 febd 4bc1 dd3d cc41 80be e4b5 043e

layer1.0.bias f4 [64]
-21.9687 -20.543022 -21.49983 -21.338533 -20.35689 -21.011183 -21.878273 -20.357622
-18.50515 -21.391268 -22.286476 -19.310541 -18.599329 -20.38434 -14.994551 -20.493189
-21.956648 -21.710915 -21.487684 -21.0278 -20.273493 -19.897276 -21.57487 -19.76543
-19.020586 -20.2935 -20.231358 -19.111261 -16.668615 -20.728722 -19.405361 -21.162992
-22.065842 -21.87505 -21.893782 -20.527563 -18.813232 -21.010216 -20.819784 -19.832876
-18.534445 -18.196695 -20.395449 -20.226274 -20.05465 -20.267244 -20.244862 -19.689007
-19.61405 -21.96785 -19.50183 -19.776257 -21.872578 -19.123835 -22.442036 -19.321749
-21.925795 -21.93257 -22.111563 -21.634323 -21.46873 -20.172876 -20.935953 -20.828651
00000000: e6bf afc1 1c58 a4c1 a7ff abc1 51b5 aac1
00000010: e9da a2c1 e716 a8c1 b406 afc1 69dc a2c1
00000020: 8c0a 94c1 5121 abc1 b44a b2c1 fd7b 9ac1
00000030: 6dcb 94c1 2113 a3c1 aee9 6fc1 0df2 a3c1
00000040: 37a7 afc1 f4af adc1 c7e6 abc1 ef38 a8c1
00000050: 1d30 a2c1 9f2d 9fc1 5599 acc1 9a1f 9ec1
00000060: 292a 98c1 1759 a2c1 d2d9 a1c1 dde3 98c1
00000070: 5359 85c1 6cd4 a5c1 2e3e 9bc1 cf4d a9c1
00000080: d886 b0c1 1a00 afc1 7726 afc1 7338 a4c1
00000090: 8081 96c1 ec14 a8c1 eb8e a6c1 bba9 9ec1
000000a0: 8b46 94c1 d592 91c1 e129 a3c1 69cf a1c1
000000b0: ec6f a0c1 5123 a2c1 7af5 a1c1 1683 9dc1
000000c0: 93e9 9cc1 28be afc1 bf03 9cc1 c635 9ec1
000000d0: 0afb aec1 9dfd 98c1 4a89 b3c1 f192 9ac1
000000e0: 0768 afc1 e775 afc1 7be4 b0c1 1813 adc1
000000f0: f6bf abc1 0d62 a1c1 d57c a7c1 14a1 a6c1

layer1.1.weight f4 [64]
1.1098163 1.1901217 0.85752857 1.359636 0.50226486 1.2166078 1.4148425 1.0614406
0.6168798 1.0143453 1.7089368 1.0936408 0.4878951 1.055888 0.33510706 1.2375004
1.3148712 0.8469361 0.7771417 0.8853382 0.9957052 0.40633526 0.94527364 1.2121584
0.596557 0.7921802 0.6176111 0.7885974 0.27777132 1.0234075 1.0700414 0.77487886
1.5450933 1.9993858 1.0159863 0.4324027 1.078594 1.2132189 1.1726806 0.4386539
0.35385337 0.3691452 0.53631186 0.41237822 0.6792934 1.1082971 0.7131205 1.1805887
1.0478942 1.3366663 0.53903705 0.3122631 1.0089625 0.53894866 1.5883745 1.141355
1.25333 1.4102093 1.3558794 1.4285699 1.1311638 1.2273281 1.3805143 1.3510021
00000000: 760e 8e3f e855 983f fe86 5b3f 8d08 ae3f
00000010: 6e94 003f ceb9 9b3f 8f19 b53f 49dd 873f
00000020: d6eb 1d3f 11d6 813f 71be da3f 6cfc 8b3f
00000030: 63cd f93e 5727 873f 2793 ab3e 6a66 9e3f
00000040: b34d a83f ced0 583f c2f2 463f 86a5 623f
00000050: 89e6 7e3f 2d0b d03e 74fd 713f 0228 9b3f
00000060: f6b7 183f 52cc 4a3f c31b 1e3f 85e1 493f
00000070: 0b38 8e3e 04ff 823f 1ef7 883f 765e 463f
00000080: 9ec5 c53f e0eb ff3f d70b 823f e363 dd3e
00000090: 5e0f 8a3f c24a 9b3f 661a 963f 3e97 e03e
000000a0: 452c b53e 9a00 bd3e bc4b 093f 3d23 d33e
000000b0: 2ce6 2d3f aedc 8d3f 118f 363f 881d 973f
000000c0: 6621 863f e217 ab3f 55fe 093f f3e0 9f3e
000000d0: af25 813f 8af8 093f db4f cb3f ec17 923f
000000e0: 1e6d a03f bd81 b43f 758d ad3f 61db b63f
000000f0: fac9 903f 1619 9d3f b1b4 b03f a3ed ac3f

layer1.1.bias f4 [64]
0.6715006 -0.41163817 -0.016961446 -0.26308635 -0.5029201 -0.26808423 1.2682134 -0.11318171
-0.31961238 -0.3153537 1.1159748 -0.2837613 -0.4076264 -0.3256671 -0.59648216 -0.39946634
0.35070208 0.47893 0.5319089 0.4986202 -0.07179761 0.05513129 0.24520966 -0.33520612
-0.4231644 -0.38587013 -0.2748357 -0.36496615 -0.6060838 -0.018641185 -0.3429893 -0.16262339
1.0263662 1.5479934 0.4590485 -0.32756817 -0.3050101 0.34764165 -0.37295866 -0.5146372
-0.67052627 -0.37386474 -0.04184223 0.15305202 -0.24790375 -0.3959276 0.3052372 -0.23574279
-0.26505536 0.7322529 -0.27676487 -0.39744502 -0.0704103 -0.59980124 -0.19079766 -0.3050017
0.71358097 0.6251991 0.5576292 0.9538857 0.57963794 -0.39850685 -0.3368237 -0.30560622
00000000: 77e7 2b3f 3dc2 d2be bbf2 8abc 41b3 86be
00000010: 5fbf 00bf 5642 89be d154 a23f d0cb e7bd
00000020: 3ca4 a3be 0a76 a1be 43d8 8e3f 2949 91be
00000030: 68b4 d0be d7bd a6be 0eb3 18bf da86 ccbe
00000040: 398f b33e 5036 f53e 2f2b 083f 264b ff3e
00000050: a00a 93bd 59d1 613d 3e18 7b3e 23a0 abbe
00000060: 01a9 d8be c590 c5be 44b7 8cbe d8dc babe
00000070: 4f28 1bbf 66b5 98bc 4b9c afbe bf86 26be
00000080: f85f 833f a624 c63f 6808 eb3e 04b7 a7be
00000090: 492a 9cbe 16fe b13e 70f4 bebe 43bf 03bf
000000a0: 9ca7 2bbf 336b bfbe c262 2bbd abb9 1c3e
000000b0: 7bda 7dbe 06b7 cabe 0d48 9c3e 8f66 71be
000000c0: 56b5 87be ed74 3b3f 20b4 8dbe ea7d cbbe
000000d0: 4633 90bd 938c 19bf 7660 43be 2f29 9cbe
000000e0: 3ead 363f 0c0d 203f cac0 0e3f da31 743f
000000f0: 2763 143f 1709 ccbe 2874 acbe 6b78 9cbe

layer1.1.running_mean f4 [64]
-21.918123 -22.163467 -21.689184 -22.14089 -19.394434 -22.904495 -22.072231 -21.30653
-21.007425 -21.023088 -22.281523 -23.608347 -15.753716 -21.701166 -16.104244 -22.364412
-21.805246 -21.628828 -21.475466 -20.937311 -21.3753 -18.440876 -21.739538 -22.551113
-16.267506 -21.319778 -21.158014 -21.312592 -13.028793 -21.20969 -23.507132 -21.063997
-22.077703 -21.834494 -21.750778 -20.118174 -24.49557 -21.116688 -21.919474 -20.71109
-16.265654 -15.435047 -20.884947 -20.051353 -21.172544 -21.589203 -20.00127 -24.26391
-23.9231 -22.048306 -20.20359 -18.375534 -21.993177 -17.5771 -22.498865 -24.973848
-21.840303 -21.866617 -22.192911 -21.717184 -21.476303 -22.081179 -22.315649 -22.7601
00000000: 5158 afc1 c84e b1c1 7383 adc1 8b20 b1c1
00000010: cd27 9bc1 683c b7c1 ee93 b0c1 c673 aac1
00000020: 350f a8c1 492f a8c1 8f40 b2c1 e5dd bcc1
00000030: 390f 7cc1 fd9b adc1 7ed5 80c1 51ea b2c1
00000040: 2571 aec1 d707 adc1 c1cd abc1 9d7f a7c1
00000050: 9d00 abc1 ea86 93c1 93ea adc1 ae68 b4c1
00000060: da23 82c1 e88e aac1 9d43 a9c1 3080 aac1
00000070: f075 50c1 72ad a9c1 9b0e bcc1 1183 a8c1
00000080: 239f b0c1 0bad aec1 9801 aec1 05f2 a0c1
00000090: edf6 c3c1 faee a8c1 155b afc1 50b0 a5c1
000000a0: 0f20 82c1 f4f5 76c1 5f14 a7c1 2c69 a0c1
000000b0: 5f61 a9c1 b0b6 acc1 9a02 a0c1 7d1c c2c1
000000c0: 8262 bfc1 ee62 b0c1 f4a0 a1c1 1801 93c1
000000d0: 07f2 afc1 e79d 8cc1 adfd b3c1 71ca c7c1
000000e0: f1b8 aec1 d5ee aec1 158b b1c1 cbbc adc1
000000f0: 78cf abc1 41a6 b0c1 7386 b2c1 af14 b6c1

layer1.1.running_var f4 [64]
0.55145365 17.836376 1.3400966 4.951198 5.858014 22.006254 3.2001767 6.8416514
35.744915 1.0105109 0.9266827 113.254265 47.37973 13.655167 7.1739826 21.039381
2.4818568 0.46213415 1.8240505 0.5607833 10.037705 12.462521 0.6137935 48.302586
46.868664 6.910842 6.3324513 34.509586 77.14468 2.3933294 96.36731 1.1674575
0.8089124 2.6099014 2.4345264 1.3339227 193.0092 1.6790587 10.259429 5.416013
30.392748 45.06703 2.4386458 0.5524664 8.594026 10.992704 1.1977562 127.89326
121.18484 1.7411085 3.318952 11.654171 0.4365382 15.755496 0.35559034 191.19167
0.75606763 1.5753411 0.90201664 1.6202447 2.2813203 22.877161 13.040058 23.893524
00000000: 112c 0d3f e6b0 8e41 4988 ab3f 3770 9e40
00000010: da74 bb40 cf0c b041 b2cf 4c40 cfee da40
00000020: cbfa 0e42 6c58 813f 143b 6d3f 2f82 e242
00000030: d884 3d42 907b 5a41 4491 e540 a750 a841
00000040: bed6 1e40 d99c ec3e 7d7a e93f 7f8f 0f3f
00000050: 719a 2041 7c66 4741 9221 1d3f d935 4142
00000060: 8379 3b42 9e25 dd40 71a3 ca40 d109 0a42
00000070: 134a 9a42 4f2c 1940 10bc c042 3f6f 953f
00000080: e214 4f3f a008 2740 48cf 1b40 fbbd aa3f
00000090: 5b02 4143 65eb d63f 9f26 2441 fa4f ad40
000000a0: 5924 f341 a444 3442 c612 1c40 706e 0d3f
000000b0: 2181 0941 1ee2 2f41 1350 993f 59c9 ff42
000000c0: a35e f242 a5dc de3f b669 5440 7c77 3a41
000000d0: ef81 df3e 8316 7c41 f00f b63e 1131 3f43
000000e0: a68d 413f c7a4 c93f 90ea 663f 2e64 cf3f
000000f0: 2701 1240 6d04 b741 14a4 5041 f025 bf41

layer2.0.weight f4 [64, 64, 3, 3]
0.0061223805 0.010459517 0.13618474 -0.10184036 -0.02054733 0.10393674 -0.11976349 0.09070171
0.14874229 0.123339996 0.173174 -0.23104328 0.15368731 0.1810735 0.004932805 -0.006927299
0.07941863 0.19807471 -0.08776429 0.085466266 -0.02558029 0.035025336 0.16961482 0.020560334
0.19734223 0.19445291 0.013596966 -0.15037715 -0.032370694 -0.10582096 -0.31940678 -0.14467502
-0.00933475 -0.1946957 0.075800896 -0.30082566 0.06956003 0.18882222 0.23786207 -0.034219194
0.21085873 0.2557489 -0.033322692 0.008256061 0.032860532 -0.0038907786 -0.15886915 0.11105552
-0.00783887 0.02825011 -0.13116547 0.1121007 0.02420479 -0.19540884 -0.17525004 0.029684857
-0.03695027 -0.30544502 -0.12922086 -0.0018137128 -0.047396787 -0.21670914 0.02688665 -0.17342733
0.0042601563 -0.17560656 -0.085554436 0.12693833 -0.056708775 -0.014277808 0.12724625 0.0046955883
-0.051133364 0.05000856 0.28161764 -0.23361453 0.099615954 0.21458992 -0.09736825 -0.04869861
0.11428842 -0.25272733 -0.21707244 0.25483578 -0.28566605 -0.44235474 -0.10133848 -0.16429387
-0.34476772 -0.2117326 -0.4812725 -0.039030954 0.2212966 -0.36174813 -0.23114796 0.36732888
-0.21239384 -0.16271316 -0.035192497 -0.17408139 -0.021403635 0.2237701 -0.056223363 -0.011626084
0.030205928 -0.051519696 -0.11489804 0.03148033 -0.033317532 0.17089558 0.113334805 0.011243934
0.14145042 0.2042651 -0.08431804 0.042738505 0.059067134 0.10676466 -0.06532652 -0.27384505
-0.08703732 0.039031398 -0.0973256 -0.12308987 -0.063125014 -0.004401048 -0.09790539 0.11242439
0.16322336 -0.0631811 -0.017704312 0.0726953 -0.17305113 -0.14640495 0.0022187638 -0.11553266
0.11139761 0.055425514 -0.027370296 0.0392274 0.0063390364 -0.0065907324 -0.04752723 0.010295094
-0.44351712 -0.07452759 0.19261663 -0.36050436 -0.17140515 -0.008957101 -0.04024014 -0.375124
-0.19843702 -0.013706322 0.09819705 0.17050251 -0.19622357 -0.07250998 0.023063974 -0.33607975
-0.32659703 -0.18155189 -0.18478186 -0.022111148 -0.06048982 0.06010228 -0.05613692 -0.13929245
0.20593844 -0.14867921 -0.13546981 -0.07909852 0.09426259 0.33995098 -0.12138284 -0.022094829
0.10832772 -0.11483623 0.017472295 0.064807996 -0.2425795 -0.16686746 -0.042976882 -0.09803456
-0.17216615 -0.12946221 -0.13520658 -0.26414067 -0.20302132 -0.044679385 0.08472143 0.11366784
-0.12255389 0.07213249 0.052333333 -0.074827395 -0.041916598 0.006982084 -0.093716204 -0.08358009
-0.08449258 -0.113632046 -0.03992551 0.10278193 -0.04495023 0.18593599 -0.07024841 0.0124855
0.05238028 0.13065025 0.058180187 0.080431685 0.01973119 -0.01746068 -0.021490464 0.03616415
0.21198453 0.44110402 0.22268403 0.003427443 0.27162206 0.22037885 -0.014775833 0.0143580185
0.07397477 -0.18075654 -0.06430239 -0.11721013 -0.22878297 -0.2555494 -0.1285306 -0.08549282
-0.20604941 -0.05920688 -0.29956234 0.20819391 0.23570654 -0.3385695 -0.13757348 -0.032703545
-0.08878014 -0.20343421 -0.06208185 -0.13160649 -0.2071959 -0.084890276 -0.21345422 -0.24312574
-0.15841603 -0.20051648 -0.11450721 -0.1410833 -0.093849644 0.11141697 0.24652164 -0.29098022
00000000: 409e c83b 655e 2b3c 0374 0b3e ae91 d0bd
00000010: e052 a8bc c9dc d43d 9046 f5bd d1c1 b93d
00000020: e64f 183e ae99 fc3d 8654 313e 9c96 6cbe
00000030: 3560 1d3e 556b 393e 5ea3 a13b 65fe e2bb
00000040: 3ca6 a23d 19d4 4a3e c4bd b3bd f008 af3d
00000050: c28d d1bc ba76 0f3d 82af 2d3e 256e a83c
00000060: 1514 4a3e aa1e 473e cfc5 5e3c 78fc 19be
00000070: 2297 04bd a9b8 d8bd 4989 a3be b025 14be
00000080: c7f0 18bc 4f5e 47be 803d 9b3d d205 9abe
00000090: 7d75 8e3d 9d5a 413e 1d92 733e 6d29 0cbd
000000a0: 5aeb 573e 85f1 823e 607d 08bd 6e44 073c
000000b0: c498 063d 6ffc 7ebb 98ae 22be 1471 e33d
000000c0: 9b6e 00bc c66c e73c 3e50 06be 0d95 e53d
000000d0: 2049 c63c 4119 48be bf74 33be a82d f33c
000000e0: 2b59 17bd 4a63 9cbe 7952 04be 1aba edba
000000f0: 2223 42bd 00e9 5dbe 6441 dc3c ef96 31be
00000100: c898 8b3b 35d2 33be 2a37 afbd 1ffc 013e
00000110: 7647 68bd 78ed 69bc d74c 023e 73dd 993b
00000120: 3871 51bd c7d5 4c3d 3030 903e a638 6fbe
00000130: 7303 cc3d 76bd 5b3e 0169 c7bd 3278 47bd
00000140: 0c10 ea3d 7a65 81be 3d48 5ebe d679 823e
00000150: d242 92be 527c e2be 8d8a cfbd a73c 28be
00000160: 6585 b0be 6ed0 58be 5969 f6be ecde 1fbd
00000170: 939b 623e 0d37 b9be 0db2 6cbe 8812 bc3e
00000180: c57d 59be 479e 26be 0226 10bd 6442 32be
00000190: ad56 afbc fd23 653e 784a 66bd 557b 3ebc
000001a0: 6c72 f73c 5106 53bd aa4f ebbd 85f1 003d
000001b0: f777 08bd 40ff 2e3e 141c e83d 7a38 383c
000001c0: 61d8 103e df2a 513e f0ae acbd 920e 2f3d
000001d0: 61f0 713d 6ea7 da3d e9c9 85bd 6b35 8cbe
000001e0: 9f40 b2bd 63df 1f3d a552 c7bd 8b16 fcbd
000001f0: b047 81bd ab36 90bb 9f82 c8bd c23e e63d
00000200: 0624 273e 1865 81bd a208 91bc 46e1 943d
00000210: 5134 31be 2eeb 15be ae68 113b 639c ecbd
00000220: 6e24 e43d dd05 633d ac37 e0bc e9ac 203d
00000230: b1b7 cf3b 12f7 d7bb eaab 42bd c1ac 283c
00000240: ad14 e3be eca1 98bd 4b3d 453e 0794 b8be
00000250: d584 2fbe cec0 12bc d8d2 24bd 4110 c0be
00000260: 1333 4bbe 7b90 60bc 891b c93d 3698 2e3e
00000270: d5ee 48be 1d80 94bd a9f0 bc3c a512 acbe
00000280: ba37 a7be bde8 39be 7537 3dbe 7022 b5bc
00000290: 2cc4 77bd cf2d 763d d4ef 65bd aea2 0ebe
000002a0: 87e1 523e 5d3f 18be 99b8 0abe 68fe a1bd
000002b0: bf0c c13d 0e0e ae3e 9197 f8bd 3700 b5bc
000002c0: ecda dd3d 422f ebbd 0f22 8f3c 0eba 843d
000002d0: c366 78be 4edf 2abe 8708 30bd 58c6 c8bd
000002e0: 534c 30be be91 04be 9873 0abe 723d 87be
000002f0: d2e4 4fbe bb01 37bd 6e82 ad3d afca e83d
00000300: 89fd fabd 33ba 933d 7a5b 563d 1b3f 99bd
00000310: bdb0 2bbd f7c9 e43b 48ee bfbd 0a2c abbd
00000320: 720a adbd ebb7 e8bd ee88 23bd 557f d23d
00000330: bb1d 38bd 0166 3e3e 66de 8fbd fc8f 4c3c
00000340: b48c 563d 2ec9 053e 594e 6e3d 5eb9 a43d
00000350: 4ea3 a13c b309 8fbc c50c b0bc dc20 143d
00000360: 7912 593e 63d8 e13e 4807 643e f49e 603b
00000370: 0c12 8b3e feaa 613e 5616 72bc e53d 6b3c
00000380: 1680 973d 3e18 39be f9b0 83bd dd0b f0bd
00000390: 1546 6abe 5fd7 82be 879d 03be dc16 afbd
000003a0: 9efe 52be ea82 72bd 3c60 99be c930 553e
000003b0: 0e5d 713e fb58 adbe 10e0 0cbe 27f4 05bd
000003c0: 5dd2 b5bd 0f51 50be 8a49 7ebd dac3 06be
000003d0: 292b 54be f4da adbd be93 5abe f4f5 78be
000003e0: d037 22be 3154 4dbe c282 eabd 2478 10be
000003f0: 3e34 c0bd 952e e43d 2b70 7c3e 5cfb 94be

layer2.0.bias f4 [64]
18.278131 19.463959 15.193492 15.426581 17.574732 19.180607 19.903074 18.186476
17.733286 17.727236 18.022852 18.80308 19.588436 17.577322 20.963825 19.232893
15.677766 21.159328 20.544516 19.34479 19.13082 17.667803 17.976913 18.89168
15.546821 17.903063 12.635286 18.600584 17.521656 19.746029 18.602306 17.69315
18.318289 18.60463 15.775919 18.522429 19.837418 17.818443 20.06356 17.999369
17.745695 15.880488 18.820425 9.958347 22.38965 13.759762 15.400713 19.189922
17.213585 17.308435 19.418488 19.969225 14.813089 18.468803 19.00621 18.3077
16.990042 15.24554 19.353617 18.432453 19.072231 19.528036 18.612362 15.369666
00000000: 9d39 9241 30b6 9b41 8b18 7341 47d3 7641
00000010: 0d99 8c41 e271 9941 7f39 9f41 e77d 9141
00000020: c5dd 8d41 61d1 8d41 cd2e 9041 b56c 9641
00000030: 1eb5 9c41 5b9e 8c41 eab5 a741 f7dc 9941
00000040: 21d8 7a41 4e46 a941 2b5b a441 21c2 9a41
00000050: eb0b 9941 a957 8d41 b8d0 8f41 2922 9741
00000060: c7bf 7841 7939 8f41 222a 4a41 ffcd 9441
00000070: 5a2c 8c41 def7 9d41 86d1 9441 928b 8d41
00000080: db8b 9241 48d6 9441 2a6a 7c41 ef2d 9441
00000090: 08b3 9e41 2c8c 8e41 2c82 a041 b5fe 8f41
000000a0: 2ff7 8d41 7b16 7e41 3b90 9641 6455 1f41
000000b0: 011e b341 fc27 5c41 5269 7641 f684 9941
000000c0: 6cb5 8941 ad77 8a41 1059 9b41 f9c0 9f41
000000d0: 6a02 6d41 1cc0 9341 b80c 9841 2b76 9241
000000e0: 9beb 8741 bbed 7341 35d4 9a41 aa75 9341
000000f0: ee93 9841 6b39 9c41 1ee6 9441 27ea 7541

layer2.1.weight f4 [64]
1.0597967 1.3461105 0.8858235 0.46787867 0.71997476 1.1960576 0.83998346 0.6651768
0.7244993 1.0811037 1.3048905 1.3120916 1.0261264 1.0673959 1.5485485 1.0947108
0.66279 1.2736729 1.070034 1.0964274 1.1524839 1.0959907 0.72545046 1.4832394
0.57679534 1.3232466 0.39066923 0.8209938 1.14018 0.94775337 0.883689 1.1937296
1.2768937 1.315097 0.53686893 0.79185164 0.9814844 1.1807047 1.1409727 1.3431365
0.534588 0.96768224 1.204177 0.19645339 1.4552765 0.4107564 0.99048555 0.94976205
1.382449 1.1391773 1.0406015 1.4555689 0.84703094 1.2057891 0.6755612 0.75543195
0.6135029 0.41103435 1.1822702 1.2915359 1.2136774 1.0468283 0.7844067 0.5763107
00000000: 6ba7 873f 594d ac3f 54c5 623f cb8d ef3e
00000010: 4450 383f 6a18 993f 2809 573f 0749 2a3f
00000020: c978 393f 9b61 8a3f a706 a73f 9ef2 a73f
00000030: 1c58 833f 6ea0 883f d636 c63f 7c1f 8c3f
00000040: 9bac 293f b707 a33f e0f6 883f bc57 8c3f
00000050: 9884 933f 6c49 8c3f 1fb7 393f cada bd3f
00000060: dca8 133f 2560 a93f cc05 c83e a62c 523f
00000070: 6bf1 913f f79f 723f 7139 623f 22cc 983f
00000080: 4171 a33f 1955 a83f 3e70 093f cab6 4a3f
00000090: 9042 7b3f 5521 973f 650b 923f e6eb ab3f
000000a0: c2da 083f 06ba 773f 7922 9a3f 142b 493e
000000b0: 8046 ba3f aa4e d23e 7690 7d3f 9b23 733f
000000c0: 17f4 b03f 90d0 913f 6e32 853f 1550 ba3f
000000d0: 05d7 583f 4c57 9a3f 94f1 2c3f fd63 413f
000000e0: 870e 1d3f 1873 d23e a154 973f 0c51 a53f
000000f0: c859 9b3f 78fe 853f e1ce 483f 1989 133f

layer2.1.bias f4 [64]
-0.53396755 0.21666306 -0.25232172 -0.5256197 -0.4218193 -0.00093554665 -0.010420888 -0.4593954
-0.47526032 -0.34065908 0.11965028 0.14598094 0.24366735 0.06881206 0.15886703 -0.15146285
-0.3974549 -0.26334235 -0.04736959 0.008343511 -0.31831673 -0.24701034 -0.4420165 0.19373421
-0.4982597 -0.23368426 -0.7592554 -0.21616574 0.05921149 -0.2609784 -0.10638965 -0.1451624
-0.18940496 -0.104385145 -0.7033752 -0.4897713 -0.10944178 -0.36953783 0.124756075 -0.16665487
-0.5468047 -0.29600373 0.0050245435 -0.6795708 -0.32336867 -0.56055063 -0.2949274 0.056670714
-0.23412906 -0.09567567 0.049623366 0.003917638 -0.3991305 -0.26718935 -0.23247367 -0.07365561
-0.39202014 -0.5552766 -0.24159554 -0.27965856 -0.043800324 -0.09749997 -0.18743913 -0.5705928
00000000: 19b2 08bf ecdc 5d3e 5030 81be 038f 06bf
00000010: b3f8 d7be 793f 75ba 5fbc 2abc e035 ebbe
00000020: 5255 f3be de6a aebe 350b f53d 077c 153e
00000030: ef83 793e 56ed 8c3d 0aae 223e 1419 1bbe
00000040: 357f cbbe cfd4 86be 9d06 42bd 39b3 083c
00000050: 69fa a2be 47f0 7cbe fd4f e2be 4362 463e
00000060: e51b ffbe ed4a 6fbe 905e 42bf 8d5a 5dbe
00000070: bf87 723d f69e 85be d1e2 d9bd 74a5 14be
00000080: 60f3 41be e1c7 d5bd 6610 34bf 4ec3 fabe
00000090: 0323 e0bd 1034 bdbe 1d80 ff3d 93a7 2abe
000000a0: 65fb 0bbf cd8d 97be eda4 a43b 5af8 2dbf
000000b0: 9490 a5be 3f80 0fbf b900 97be 8d1f 683d
000000c0: 87bf 6fbe 9bf1 c3bd df41 4b3d 885f 803b
000000d0: d55a ccbe 0bcd 88be 940d 6ebe c1d8 96bd
000000e0: ddb6 c8be 9b26 0ebf d264 77be 682f 8fbe
000000f0: f867 33bd 10ae c7bd 0bf0 3fbe 5f12 12bf

layer2.1.running_mean f4 [64]
11.845064 12.871603 -5.9721823 16.361647 12.369481 10.181905 25.960217 18.37915
10.180544 5.0715785 6.351533 12.628254 10.917406 10.02066 14.138269 21.49305
17.266632 17.403313 27.331856 16.862753 7.349415 6.314187 12.78488 7.0513906
24.202797 2.1896143 19.598745 17.206524 7.78045 17.72511 22.963558 9.348507
12.723808 12.140857 8.124543 29.523462 14.895119 6.983694 15.282917 0.2795211
16.407833 -5.235541 13.333616 15.591539 20.015484 16.378952 0.504913 18.400005
-0.5561755 3.283042 9.555692 12.499853 -9.736919 18.873127 10.418955 23.733032
8.7015085 9.813711 7.848177 9.945625 8.606276 22.959644 12.545173 18.345602
00000000: 6285 3d41 16f2 4d41 1e1c bfc0 a7e4 8241
00000010: 65e9 4541 15e9 2241 86ae cf41 8008 9341
00000020: 82e3 2241 5f4a a240 c23f cb40 540d 4a41
00000030: b2ad 2e41 a054 2041 5a36 6241 c4f1 ab41
00000040: 1022 8a41 fc39 8b41 a4a7 da41 ebe6 8641
00000050: 682e eb40 d20d ca40 de8e 4c41 fea4 e140
00000060: 549f c141 a422 0c40 3bca 9c41 f6a6 8941
00000070: 72f9 f840 06cd 8d41 5eb5 b741 7c93 1541
00000080: b894 4b41 f340 4241 21fe 0141 0d30 ec41
00000090: 6852 6e41 6c7a df40 d486 7441 641d 8f3e
000000a0: 3e43 8341 8d89 a7c0 7e56 5541 f276 7941
000000b0: b61f a041 1808 8341 fa41 013f 3633 9341
000000c0: 8461 0ebf 5c1d 5240 1de4 1841 66ff 4741
000000d0: 6cca 1bc1 2afc 9641 0ab4 2641 40dd bd41
000000e0: 6139 0b41 f604 1d41 4424 fb40 4821 1f41
000000f0: 4eb3 0941 5aad b741 07b9 4841 cbc3 9241

layer2.1.running_var f4 [64]
101.53483 126.687004 469.00037 103.201164 65.62249 104.563286 31.861683 49.771408
70.12434 169.83984 190.33847 110.89821 46.65968 192.82964 71.26964 82.70303
74.945335 38.142868 35.14428 63.706898 75.2072 170.11888 36.456654 164.86642
87.85947 214.42328 50.403877 49.16432 238.5358 55.376682 57.857235 133.43616
119.84447 128.05347 41.71327 55.850647 56.90164 132.20569 48.38144 205.67747
36.725105 382.25778 109.17075 140.47289 10.105685 68.821754 226.74443 66.54873
336.06442 176.62354 63.776337 92.195694 441.94638 113.54635 20.232428 94.00582
50.488148 20.73763 85.440605 145.88176 102.52873 55.16188 63.069653 83.062935
00000000: d511 cb42 bf5f fd42 0c80 ea43 ff66 ce42
00000010: b73e 8342 6720 d142 bae4 fe41 ec15 4742
00000020: a93f 8c42 00d7 2943 a656 3e43 e2cb dd42
00000030: 83a3 3a42 63d4 4043 0e8a 8e42 f467 a542
00000040: 03e4 9542 4c92 1842 be93 0c42 ddd3 7e42
00000050: 166a 9642 6f1e 2a43 9dd3 1142 cedd 2443
00000060: 0cb8 af42 5c6c 5643 929d 4942 44a8 4442
00000070: 2a89 6e43 b981 5d42 cf6d 6742 a86f 0543
00000080: 5eb0 ef42 b00d 0043 63da 2642 1067 5f42
00000090: 489b 6342 a834 0443 9886 4142 6fad 4d43
000000a0: 82e6 1242 ff20 bf43 6d57 da42 0f79 0c43
000000b0: e3b0 2141 bda4 8942 93be 6243 f318 8542
000000c0: 3f08 a843 a09f 3043 f81a 7f42 3264 b842
000000d0: 23f9 dc43 bb17 e342 03dc a141 fb02 bc42
000000e0: ddf3 4942 abe6 a541 97e1 aa42 bbe1 1143
000000f0: b60e cd42 c4a5 5c42 5347 7c42 3920 a642

layer3.0.weight f4 [64, 64, 3, 3]
-0.16446532 -0.06373395 -0.09786431 -0.31737006 0.084136546 -0.08703863 -0.078992434 -0.10885251
-0.2258838 0.17654832 0.2114916 -0.083579 0.27151433 -0.07842096 -0.3485122 -0.022675183
0.0096139945 -0.13386315 0.097775966 0.10110828 -0.03685223 0.1784379 0.6185662 0.23978983
0.13101353 0.4969045 0.017613417 0.17444591 0.14658846 0.043574315 -0.03336066 0.1326934
0.0217355 -0.18728004 -0.07709802 0.003784803 -0.055973936 0.08072846 -0.046910882 0.047657803
0.051496353 0.029106406 0.112231955 -0.07257052 0.056477312 0.017886037 0.06974045 -0.034674853
0.05104116 0.36877584 -0.07396614 0.28753653 0.27318788 -0.031363867 0.087697476 0.06450165
0.034422744 -0.07777304 -0.071083516 -0.07630318 -0.01891009 -0.03403068 -0.040906288 -0.20766665
-0.05630048 -0.14504258 -0.081167065 0.15032302 0.071825095 -0.032188375 0.18174472 0.123755276
-0.085932754 -0.07334106 -0.021752441 -0.24460584 -0.04668851 -0.07481773 -0.09076971 0.18908514
-0.2224371 -0.7233304 -1.0142423 -0.5838881 -0.72191405 -0.9874585 -0.5477357 -0.41689408
-0.51794684 -0.6262857 -0.20374034 0.07766486 0.03977359 -0.28351167 -0.2139346 -0.17731579
-0.1651981 -0.12307547 -0.19018333 0.13671288 0.30782184 0.095725805 0.072196715 0.33866075
-0.06935553 -0.097896814 -0.11711116 0.04601421 0.032577332 -0.0857059 0.017701473 0.074155755
0.172712 -0.10352633 0.0505217 -0.100259475 -0.02818043 0.16114302 -0.06837369 0.045916054
0.07294338 -0.076031335 -0.033098087 -0.22424482 -0.2518289 -0.21247812 0.17541066 0.023760451
-0.16125047 0.20471449 0.3195669 0.07411889 -0.14495102 -0.045247428 0.089184046 -0.012885086
-0.107414104 0.06062292 0.007255681 0.02202191 -0.009156282 0.069821395 -0.0375763 -0.137399
-0.19777854 -0.051566143 -0.14998274 -0.215859 0.0972018 -0.10095055 -0.22504432 -0.13992144
-0.36855003 0.35827717 0.05549574 0.104663424 0.26176915 0.08111477 0.10270585 -0.052345585
-0.019090697 0.099807106 -0.284987 -0.31579328 0.033665378 -0.011221075 -0.2422257 0.026874468
0.11281704 -0.010113961 -0.17084153 -0.2604108 -0.26802662 -0.30542585 -0.14152768 -0.38572186
-0.43095973 -0.1613021 0.0063484865 -0.10251641 -0.15234628 0.2130594 0.05800198 -0.20476443
-0.062189985 -0.12750617 -0.27265185 0.013743342 -0.15101574 -0.06784932 0.20784299 0.40151438
0.11275274 0.3525655 0.24306476 0.25726235 0.20365255 0.1203796 -0.079161644 -0.047157437
-0.18763165 -0.100464165 0.00031727014 -0.25467744 -0.0749016 -0.04663183 -0.07618816 -0.23941149
-0.21422425 -0.2569473 0.10343106 0.40854502 -0.00435211 -0.33268398 0.12665474 0.0116635095
-0.14524387 -0.10676457 -0.22599925 -0.12055302 -0.08011814 -0.067496054 -0.35144517 -0.11147079
-0.18662158 -0.074524954 -0.0441052 -0.1356104 0.22389574 0.80869615 0.104771964 0.07198559
0.46926367 0.051671408 0.14140253 0.14250319 0.20051262 0.2149652 0.34213108 0.018583134
-0.050689325 0.041133422 -0.33326995 -0.09899341 0.047889166 0.15947473 -0.159568 -0.0063217487
0.0949211 -0.18212005 0.13527672 -0.049926855 -0.24499458 -0.017352052 -0.050178476 -0.15376034
00000000: 9969 28be f286 82bd 156d c8bd 547e a2be
00000010: c84f ac3d 4f41 b2bd c9c6 a1bd 11ee debd
00000020: 154e 67be 15c9 343e 4191 583e 772b abbd
00000030: ed03 8b3e 2b9b a0bd 3170 b2be 4ec1 b9bc
00000040: 0484 1d3c 6c13 09be c43e c83d dc11 cf3d
00000050: 5df2 16bd 6db8 363e 5b5a 1e3f 778b 753e
00000060: 6928 063e 446a fe3e 034a 903c f3a1 323e
00000070: 491b 163e fb7a 323d 30a5 08bd c7e0 073e
00000080: a60e b23c 57c6 3fbe 91e5 9dbd 750a 783b
00000090: ed44 65bd f654 a53d a025 40bd d434 433d
000000a0: d7ed 523d 8f70 ee3c ded9 e53d da9f 94bd
000000b0: c154 673d bd85 923c 15d4 8e3d 3807 0ebd
000000c0: 8910 513d 30d0 bc3e 8f7b 97bd fd37 933e
000000d0: 48df 8b3e 6677 00bd bc9a b33d 7119 843d
000000e0: ddfe 0c3d 7947 9fbd 3c94 91bd d744 9cbd
000000f0: 55e9 9abc c163 0bbd 5a8d 27bd 91a6 54be
00000100: 559b 66bd 0b86 14be eb3a a6bd 47ee 193e
00000110: 0919 933d f5d7 03bd 4a1b 3a3e 6873 fd3d
00000120: 83fd afbd d633 96bd 2d32 b2bc f479 7abe
00000130: 733c 3fbd 0a3a 99bd 78e5 b9bd 899f 413e
00000140: 8dc6 63be 2e2c 39bf b1d2 81bf b179 15bf
00000150: 5ccf 38bf 15ca 7cbf 6838 0cbf 2473 d5be
00000160: 2a98 04bf 4254 20bf 4fa1 50be c10e 9f3d
00000170: a2e9 223d 7128 91be ac11 5bbe 4592 35be
00000180: b129 29be fe0e fcbd 6bbf 42be 76fe 0b3e
00000190: d39a 9d3e e40b c43d dfdb 933d f164 ad3e
000001a0: 460a 8ebd 207e c8bd fad7 efbd 6579 3c3d
000001b0: cf6f 053d 9386 afbd ae02 913c f9de 973d
000001c0: 6adb 303e 9d05 d4bd d8ef 4e3d d754 cdbd
000001d0: a5da e6bc ad02 253e 8107 8cbd 7912 3c3d
000001e0: 5763 953d 51b6 9bbd dc91 07bd 6fa0 65be
000001f0: b8ef 80be dd93 59be da9e 333e 47a5 c23c
00000200: d81e 25be ada0 513e 469e a33e a5cb 973d
00000210: 0a6e 14be 5e55 39bd 20a6 b63d f81b 53bc
00000220: edfb dbbd bd4f 783d 10c1 ed3b 4b67 b43c
00000230: 3b04 16bc 85fe 8e3d 9be9 19bd 53b2 0cbe
00000240: 7586 4abe 0537 53bd 1395 19be 240a 5dbe
00000250: bd11 c73d 29bf cebd 0572 66be 9147 0fbe
00000260: 97b2 bcbe 1b70 b73e 804f 633d c759 d63d
00000270: 9b06 863e 801f a63d 7257 d23d 5368 56bd
00000280: 1864 9cbc ab67 cc3d d1e9 91be a8af a1be
00000290: b5e4 093d 9ad8 37bc 040a 78be d827 dc3c
000002a0: 9f0c e73d 07b5 25bc 15f1 2ebe 9054 85be
000002b0: c93a 89be c760 9cbe a2ec 10be 567d c5be
000002c0: c1a6 dcbe 612c 25be f706 d03b 20f4 d1bd
000002d0: aa00 1cbe 3e2c 5a3e 7c93 6d3d c4ad 51be
000002e0: edba 7ebd fa90 02be 0699 8bbe c12b 613c
000002f0: dfa3 1abe 96f4 8abd cbd4 543e 4b93 cd3e
00000300: e9ea e63d 7783 b43e f8e5 783e e4b7 833e
00000310: 4b8a 503e 9489 f63d 801f a2bd 2828 41bd
00000320: 8322 40be 28c0 cdbd 4757 a639 1565 82be
00000330: 0366 99bd 0501 3fbd 8a08 9cbd 4928 75be
00000340: 9a5d 5bbe 998e 83be aad3 d33d d02c d13e
00000350: 259c 8ebb 8e55 aabe c8b1 013e 4e18 3f3c
00000360: cfba 14be 62a7 dabd 596c 67be 80e4 f6bd
00000370: fb14 a4bd 5f3b 8abd 9ff0 b3be cc4a e4bd
00000380: ba19 3fbe 8aa0 98bd a7a7 34bd 74dd 0abe
00000390: ed44 653e b606 4f3f af92 d63d 2e6d 933d
000003a0: 5443 f03e 66a5 533d d3cb 103e 5bec 113e
000003b0: 2e53 4d3e d61f 5c3e ce2b af3e a83b 983c
000003c0: 9c9f 4fbd 857b 283d 5ca2 aabe 0fbd cabd
000003d0: 6e27 443d 584d 233e cb65 23be ac26 cfbb
000003e0: fe65 c23d ae7d 3abe fb85 0a3e 1a80 4cbd
000003f0: dcdf 7abe e425 8ebc f287 4dbd 5a73 1dbe

layer3.0.bias f4 [64]
10.946709 10.957995 9.651328 8.021322 10.081587 10.917354 11.055328 12.811665
11.519811 8.99692 13.235707 10.750435 9.233085 9.870152 11.589716 7.4285417
12.407473 11.238365 10.714483 6.9898205 13.86174 9.488429 11.168776 13.306852
12.152497 9.927268 10.797656 10.709428 10.753105 11.5382 13.118336 9.854759
10.408599 10.124731 11.053625 10.031443 8.4272375 11.267051 11.065558 10.26051
9.766275 10.053419 12.393103 11.961219 8.088398 10.8590145 13.202891 9.111239
10.970217 9.813209 12.521225 10.584415 9.356296 11.550689 10.13685 11.182382
12.25688 11.038995 9.947559 9.266875 10.257098 9.471322 10.838696 11.525447
00000000: b825 2f41 f353 2f41 d76b 1a41 5657 0041
00000010: 2e4e 2141 7bad 2e41 a0e2 3041 94fc 4c41
00000020: 2551 3841 62f3 0f41 75c5 5341 c801 2c41
00000030: b7ba 1341 25ec 1d41 7a6f 3941 9db6 ed40
00000040: 0285 4641 58d0 3341 866e 2b41 9cac df40
00000050: b0c9 5d41 9bd0 1741 4eb3 3241 dee8 5441
00000060: a170 4241 17d6 1e41 33c3 2c41 d159 2b41
00000070: b80c 2c41 789c 3841 b4e4 5141 18ad 1d41
00000080: 9f89 2641 e6fe 2141 a6db 3041 ca80 2041
00000090: f7d5 0641 d745 3441 870c 3141 0d2b 2441
000000a0: aa42 1c41 ceda 2041 264a 4641 2761 3f41
000000b0: 146a 0141 86be 2d41 0b3f 5341 a3c7 1141
000000c0: 0286 2f41 e702 1d41 f056 4841 c459 2941
000000d0: 63b3 1541 9fcf 3841 8a30 2241 09eb 3241
000000e0: 2e1c 4441 b99f 3041 3429 1f41 1f45 1441
000000f0: 131d 2441 898a 1741 4c6b 2d41 3b68 3841

layer3.1.weight f4 [64]
1.132831 1.2180293 0.9340136 0.88482887 0.8706423 1.144129 1.2671597 1.2957399
1.1796634 0.95337707 1.1725487 0.86531776 0.67764926 0.9973834 0.8003781 0.6231158
1.0963444 0.9906103 1.1495332 0.5811115 1.2965542 1.0402894 1.1976929 1.0957862
1.0624293 1.0242078 1.2896779 1.0374608 0.9072302 0.97967994 1.153397 1.1716163
1.0229113 0.74850714 1.0376098 0.73815197 1.0000846 1.3307948 1.1560346 1.1100819
0.733907 0.81080437 1.206763 1.2289493 0.5840064 0.9882722 1.2296107 0.725059
1.1624516 1.0018084 1.3952745 1.0037916 0.9403422 1.109254 0.7774063 1.0292563
0.98123014 1.4158683 0.8828868 0.75679237 1.2156368 0.7058687 0.9228295 1.2693201
00000000: 9b00 913f 62e8 9b3f 841b 6f3f 2584 623f
00000010: 6ae2 5e3f d272 923f 4a32 a23f ceda a53f
00000020: 36ff 963f 8510 743f 1316 963f 7785 5d3f
00000030: 6c7a 2d3f 8554 7f3f 94e5 4c3f 8484 1f3f
00000040: 0355 8c3f a398 7d3f e723 933f b9c3 143f
00000050: 7df5 a53f 3428 853f 004e 993f b942 8c3f
00000060: affd 873f 3e19 833f 2a14 a53f 84cb 843f
00000070: 3d40 683f 4ecc 7a3f 83a2 933f 86f7 953f
00000080: c2ee 823f 2a9e 3f3f 66d0 843f 87f7 3c3f
00000090: c602 803f 7c57 aa3f f1f8 933f 2a17 8e3f
000000a0: 54e1 3b3f e090 4f3f 3677 9a3f 364e 9d3f
000000b0: 7281 153f 68ff 7c3f e263 9d3f 779d 393f
000000c0: 37cb 943f 423b 803f 5b98 b23f 3e7c 803f
000000d0: 44ba 703f 09fc 8d3f 1904 473f acbe 833f
000000e0: e631 7b3f 2c3b b53f df04 623f 25bd 413f
000000f0: fd99 9b3f d0b3 343f 8e3e 6c3f 1579 a23f

layer3.1.bias f4 [64]
-0.21500507 -0.2318661 -0.30484942 -0.3092263 -0.22857548 -0.21521758 -0.34061468 -0.28298837
-0.32857436 -0.282085 -0.28762513 -0.2482228 -0.48024094 -0.2547931 -0.17708096 -0.31018794
-0.21814618 -0.21009229 -0.3839469 -0.19916287 -0.41917947 -0.31313884 -0.33478895 -0.35485747
-0.23501632 -0.39622667 -0.12735417 -0.28897253 -0.52787393 -0.3620023 -0.381482 -0.23228471
-0.17125219 -0.49744985 -0.1832409 -0.24684998 -0.09214258 -0.108582765 -0.2998616 -0.0770897
-0.5226687 -0.29986423 -0.3245278 -0.33005816 -0.6011981 -0.23169196 -0.39834434 -0.4000098
-0.31446633 -0.03756601 -0.061939772 -0.2635165 -0.27666503 -0.34058398 -0.3965352 -0.30851007
-0.45910934 -0.14521559 -0.36607614 -0.5346261 -0.25636473 -0.29388583 -0.47299042 -0.125336
00000000: 4a2a 5cbe 4f6e 6dbe 3915 9cbe e952 9ebe
00000010: b10f 6abe ff61 5cbe 0c65 aebe dae3 90be
00000020: e63a a8be 726d 90be 9a43 93be 1e2e 7ebe
00000030: 24e2 f5be 3e74 82be b654 35be f4d0 9ebe
00000040: b661 5fbe 6f22 57be b094 c4be 5af1 4bbe
00000050: b19e d6be bc53 a0be 7569 abbe e1af b5be
00000060: 1ea8 70be 39de cabe 2269 02be 35f4 93be
00000070: bf22 07bf 5e58 b9be 9c51 c3be 0bdc 6dbe
00000080: bc5c 2fbe bfb1 febe 81a3 3bbe 3ec6 7cbe
00000090: 40b5 bcbd a460 debd 7687 99be 34e1 9dbd
000000a0: 9ecd 05bf ce87 99be 8228 a6be 62fd a8be
000000b0: 1ee8 19bf a840 6dbe caf3 cbbe 16ce ccbe
000000c0: bb01 a1be d1de 19bd 8fb4 7dbd a2eb 86be
000000d0: 0aa7 8dbe 0661 aebe a906 cbbe 08f5 9dbe
000000e0: 6110 ebbe 65b3 14be 556e bbbe 42dd 08bf
000000f0: 3d42 83be 3478 96be cd2b f2be 1558 00be

layer3.1.running_mean f4 [64]
9.74278 1.4537821 5.11244 -4.1396265 4.627474 18.207747 -0.6114022 12.987502
11.082256 3.6803546 13.495986 8.343126 -1.1525397 11.763313 13.072148 2.7050917
9.669769 9.7648535 4.9794574 16.363945 10.578548 -0.18765007 4.29904 10.701241
14.816738 4.912999 4.292015 9.447501 9.917886 5.242064 13.02552 3.6023602
7.885688 9.186147 -1.5793253 9.503116 -1.8564404 9.640507 5.7383013 3.926368
8.075185 9.301828 7.379618 7.8297753 10.405465 8.796621 13.365928 5.802084
9.081972 12.442059 12.292246 10.631768 12.298548 9.824304 11.755837 11.025892
10.835204 5.705574 -2.2746556 14.914002 1.8302801 4.552115 9.437772 12.881512
00000000: 6de2 1b41 8815 ba3f 1c99 a340 d277 84c0
00000010: 4414 9440 77a9 9141 db84 1cbf cfcc 4f41
00000020: ec50 3141 ee8a 6b40 8fef 5741 727d 0541
00000030: 6c86 93bf 8836 3c41 8527 5141 3920 2d40
00000040: 60b7 1a41 d73c 1c41 b757 9f40 5ce9 8241
00000050: bc41 2941 5727 40be bc91 8940 4838 2b41
00000060: 5c11 6d41 4a37 9d40 3058 8940 f728 1741
00000070: a9af 1e41 fdbe a740 8868 5041 128d 6640
00000080: 8e57 fc40 75fa 1241 5527 cabf c30c 1841
00000090: d79f edbf 843f 1a41 2aa0 b740 9d49 7b40
000000a0: f533 0141 4ad4 1441 d525 ec40 858d fa40
000000b0: c97c 2641 f6be 0c41 d7da 5541 acaa b940
000000c0: c24f 1141 ac12 4741 0aad 4441 b91b 2a41
000000d0: dac6 4441 5930 1d41 e917 3c41 0e6a 3041
000000e0: ff5c 2d41 1094 b640 f593 11c0 c19f 6e41
000000f0: 9e46 ea3f edaa 9140 1d01 1741 ac1a 4e41

layer3.1.running_var f4 [64]
56.27383 69.02773 53.75278 176.42784 45.350605 50.97437 88.381195 28.28403
38.807526 93.43321 22.176044 27.804705 43.600376 83.96129 32.775814 111.07946
30.657314 33.647324 58.995735 224.6349 24.069681 116.50923 60.344654 19.602726
31.347445 44.738373 86.35526 47.62182 42.463596 42.88715 19.301065 138.03897
36.6471 41.53821 46.82972 53.960354 194.95293 68.875885 27.765093 101.00967
38.66301 38.525936 42.02714 45.521023 40.436348 39.390514 25.231249 31.679716
96.27871 78.81482 35.783474 80.38217 82.391594 28.721674 37.532303 41.14626
20.213629 73.56154 54.600628 61.78769 101.23471 40.17883 21.392769 58.220306
00000000: 6718 6142 330e 8a42 d902 5742 876d 3043
00000010: 0567 3542 c1e5 4b42 2cc3 b042 b245 e241
00000020: e83a 1b42 cedd ba42 8a68 b141 0970 de41
00000030: c966 2e42 2eec a742 6f1a 0342 af28 de42
00000040: 2e42 f541 dc96 0642 a2fb 6b42 89a2 6043
00000050: b58e c041 ba04 e942 ed60 7142 62d2 9c41
00000060: 91c7 fa41 18f4 3242 e5b5 ac42 be7c 3e42
00000070: b9da 2942 718c 2b42 9568 9a41 fa09 0a43
00000080: a196 1242 2127 2642 a251 3b42 67d7 5742
00000090: f3f3 4243 74c0 8942 e91e de41 f304 ca42
000000a0: eca6 1a42 8f1a 1a42 cb1b 2842 8715 3642
000000b0: d2be 2142 e38f 1d42 99d9 c941 0f70 fd41
000000c0: b38e c042 30a1 9d42 4722 0f42 acc3 a042
000000d0: 7fc8 a442 fdc5 e541 1421 1642 c595 2442
000000e0: 83b5 a141 821f 9342 0b67 5a42 9826 7742
000000f0: 2c78 ca42 1fb7 2042 6424 ab41 98e1 6842

layer4.0.weight f4 [64, 64, 3, 3]
0.20405574 -0.079032816 -0.04431405 0.03986895 -0.15988372 -0.07262085 0.003537684 -0.04848327
-0.22268276 0.13025348 0.06345612 0.114635736 0.20653431 -0.032726105 -0.048081752 0.01782878
0.02802361 -0.1582156 0.19549254 -0.08977402 0.114396416 0.15912805 -0.038013358 0.038947612
-0.08222917 -0.0088410955 -0.08944261 0.10476179 0.061574727 -0.034400392 0.052283175 -0.037662454
-0.117751315 0.21104613 -0.09134462 -0.04123583 0.023206275 -0.15868811 -0.32063603 0.3243117
0.15164986 -0.011755396 0.49004334 0.423611 0.36813214 0.07495498 -0.14170086 -0.1078508
0.050943848 -0.11536721 -0.17904103 -0.06890279 -0.07684968 -0.109772585 0.20365955 0.13178854
0.033077203 0.1274664 -0.023843441 -0.22815883 0.19051968 0.033874262 -0.07785764 0.08873534
-0.09367679 0.16571052 0.18637167 0.0605373 -0.022609483 0.07777182 0.0256787 0.104897715
0.108719915 0.10895207 0.23908627 0.081520535 0.1785702 0.17947127 0.039615825 0.14020409
0.022424078 0.12558183 -0.040337887 -0.11932798 0.16377492 0.017629297 -0.0015522754 -0.04451293
-0.17696927 -0.052037694 -0.29795867 -0.16229533 -0.0144962 -0.16985431 -0.25640947 -0.026757587
0.06383502 -0.19075555 -0.045479815 -0.20079085 -0.5222416 -0.52913046 -0.15432952 -0.5761871
-0.47993132 -0.25986096 -0.5140366 -0.27746588 -0.13258794 -0.2513226 -0.31443718 -0.080836385
-0.044151492 -0.20521331 -0.04322787 0.15349427 -0.097372785 0.15021317 0.03880217 -0.06487949
0.053039905 0.053344168 -0.008181514 -0.012480544 -0.080013186 0.03621337 -0.049859792 -0.4500439
-0.36638892 -0.055952534 -0.49312553 -0.25828442 -0.0801935 -0.17840746 0.035146397 -0.22013402
-0.12552467 -0.2297714 -0.1927991 -0.029770523 -0.10381383 -0.13932168 -0.1913076 -0.004811738
0.1107802 0.090458795 0.1293541 0.006743659 -0.13167262 0.09193061 -0.073762864 -0.15704533
0.06747394 -0.1970743 -0.16275012 -0.043160293 0.07259468 -0.099112995 -0.10600235 0.09322814
-0.07441335 -0.24656108 -0.028902167 -0.13593403 0.0020011573 0.14202212 -0.010883699 0.22180432
0.18297875 0.24833359 0.26164055 -0.19645955 -0.41394302 -0.36982614 -0.07535553 -0.1495743
-0.1395677 -0.0001337297 -0.15220892 -0.123540066 -0.17198169 -0.091507375 0.09304292 -0.08878614
-0.07164875 0.071247354 -0.15974475 -0.07214088 -0.086558424 0.08876502 0.03761346 0.022337873
0.03371868 -0.1879101 -0.08972208 -0.09195906 -0.15806663 -0.12048837 0.2349282 0.07927677
-0.10285266 0.11657053 0.05351686 -0.17236635 0.08176827 0.076663576 -0.32472467 -0.3432616
-0.4210282 -0.24912265 -0.3525809 -0.24596098 -0.3130827 -0.3207611 -0.34593326 -0.2145425
-0.15755457 -0.35670716 -0.50405234 -0.12854825 -0.25584704 -0.4659544 0.12804674 -0.24488112
-0.5619834 -0.1292634 -0.2754651 -0.37563005 -0.0147315925 -0.1745184 -0.03208157 0.07237061
-0.046396658 0.056940753 -0.36698675 -0.12300234 -0.106267184 -0.2793058 -0.16574925 -0.08847482
-0.29360646 -0.09514346 -0.17961828 0.22028652 0.16681516 0.20188838 0.15946269 0.16160925
-0.11598707 -0.016986186 0.04401237 -0.036749244 -0.2673283 -0.55137515 -0.43378347 -0.18789114
00000000: fdf3 503e f5db a1bd a682 35bd a04d 233d
00000010: 8fb8 23be 3dba 94bd 7dd8 673b 6596 46bd
00000020: f306 64be 2b61 053e 48f5 813d 24c6 ea3d
00000030: bb7d 533e cf0b 06bd 5ff1 44bd a90d 923c
00000040: c591 e53c 4503 22be 322f 483e 71db b7bd
00000050: ab48 ea3d 77f2 223e e5b3 1bbd 8887 1f3d
00000060: c467 a8bd 3eda 10bc b02d b7bd 598d d63d
00000070: c835 7c3d 6de7 0cbd e226 563d f243 1abd
00000080: 9a27 f1bd 7a1c 583e e312 bbbd e7e6 28bd
00000090: 161b be3c 237f 22be 682a a4be 2f0c a63e
000000a0: 1a4a 1b3e b499 40bc f6e6 fa3e 8ae3 d83e
000000b0: d17b bc3e ff81 993d 081a 11be e1e0 dcbd
000000c0: 7faa 503d a545 ecbd 8856 37be e81c 8dbd
000000d0: 5d63 9dbd 73d0 e0bd 218c 503e 93f3 063e
000000e0: f67b 073d 8d86 023e 5253 c3bc 78a2 69be
000000f0: 9717 433e bdbf 0a3d d473 9fbd e0ba b53d
00000100: 9ed9 bfbd 05b0 293e 37d8 3e3e f6f5 773d
00000110: 8637 b9bc d546 9f3d 235c d23c 9dd4 d63d
00000120: 8ca8 de3d 4322 df3d 08d3 743e 3df4 a63d
00000130: 1bdb 363e 51c7 373e 3444 223d a991 0f3e
00000140: b3b2 b73c 8698 003e 5739 25bd 3a62 f4bd
00000150: 9db4 273e 516b 903c b875 cbba 3153 36bd
00000160: 6f37 35be 7a25 55bd 0a8e 98be bf30 26be
00000170: 7881 6dbc 4aee 2dbe 1a48 83be ba32 dbbc
00000180: efbb 823d 6c55 43be 0b49 3abd 1e9c 4dbe
00000190: a0b1 05bf 1875 07bf 8f08 1ebe ff80 13bf
000001a0: 8fb9 f5be 7f0c 85be e797 03bf 0210 8ebe
000001b0: 22c5 07be 5bad 80be e9fd a0be 8c8d a5bd
000001c0: 32d8 34bd 7023 52be b50f 31bd 9a2d 1d3e
000001d0: 626b c7bd 7bd1 193e 06ef 1e3d 8adf 84bd
000001e0: 5f40 593d 6a7f 5a3d c20b 06bc 327b 4cbc
000001f0: f4dd a3bd 7854 143d c839 4cbd 276c e6be
00000200: 5497 bbbe 7c2e 65bd f37a fcbe db3d 84be
00000210: 7d3c a4bd 72b0 36be abf5 0f3d d06a 61be
00000220: 8a89 00be 3249 6bbe 216d 45be 50e1 f3bc
00000230: 589c d4bd 58aa 0ebe 24e6 43be c9ab 9dbb
00000240: bbe0 e23d 7642 b93d 6775 043e e9f9 dc3b
00000250: 30d5 06be 1e46 bc3d fc10 97bd 7ed0 20be
00000260: c72f 8a3d d8cd 49be f8a7 26be d9c8 30bd
00000270: 85ac 943d c1fb cabd c317 d9bd 65ee be3d
00000280: 0766 98bd 827a 7cbe 3dc4 ecbc 4a32 0bbe
00000290: d925 033b 3f6e 113e 8b51 32bc ac20 633e
000002a0: c85e 3b3e 294b 7e3e c0f5 853e b12c 49be
000002b0: 57f0 d3be da59 bdbe 0054 9abd 012a 19be
000002c0: d6ea 0ebe cb39 0cb9 a8dc 1bbe 9302 fdbd
000002d0: f81b 30be 3868 bbbd 498d be3d 82d5 b5bd
000002e0: 94bc 92bd 22ea 913d 2194 23be 99be 93bd
000002f0: 8b45 b1bd 6fca b53d 9210 1a3d eafd b63c
00000300: 991c 0a3d 816b 40be 36c0 b7bd 0855 bcbd
00000310: 38dc 21be 9bc2 f6bd 0591 703e dc5b a23d
00000320: 6aa4 d2bd 88bc ee3d 7f34 5b3d ce80 30be
00000330: 1f76 a73d cb01 9d3d 5042 a6be fcbf afbe
00000340: 0291 d7be 021a 7fbe 7c85 b4be 32dd 7bbe
00000350: 604c a0be cd3a a4be 2a1e b1be 07b1 5bbe
00000360: fc55 21be 52a2 b6be 9309 01bf 27a2 03be
00000370: 62fe 82be 9391 eebe af1e 033e 1ec2 7abe
00000380: 25de 0fbf a05d 04be c309 8dbe 9552 c0be
00000390: c75c 71bc f4b4 32be f767 03bd 0b37 943d
000003a0: 6c0a 3ebd b53a 693d b0e5 bbbe a7e8 fbbd
000003b0: 9ca2 d9bd 2b01 8fbe 2cba 29be 4932 b5bd
000003c0: 9653 96be 93da c2bd dbed 37be ca92 613e
000003d0: 98d1 2a3e d4bb 4e3e 304a 233e e57c 253e
000003e0: a18a edbd 9d26 8bbc 5146 343d 6086 16bd
000003f0: 41df 88be ec26 0dbf de18 debe 8966 40be

layer4.0.bias f4 [64]
9.880508 13.510925 11.566405 10.741865 13.882412 11.986843 12.059931 11.361523
12.317785 10.563692 11.967137 11.01462 10.773286 9.950984 11.80201 11.175899
12.489173 11.223402 12.734067 12.2012 12.677127 11.337935 13.65954 13.238764
12.615121 11.277691 12.368052 12.148717 13.4996605 13.706215 11.803654 12.9344
11.728708 13.47094 13.650093 12.572646 10.46961 11.377186 11.647884 11.169472
13.019035 12.465549 12.151713 12.2542925 11.536848 10.863963 11.010114 11.198033
13.0744915 10.78892 10.229762 12.015587 12.701591 12.504471 12.837918 13.885449
12.232416 12.629913 11.30899 12.195342 11.478551 12.944088 13.45605 11.985335
00000000: 9016 1e41 c02c 5841 ff0f 3941 aede 2b41
00000010: 5c1e 5e41 1cca 3f41 7af5 4041 ccc8 3541
00000020: a615 4541 e204 2941 6579 3f41 e23b 3041
00000030: 615f 2c41 3b37 1f41 08d5 3c41 7bd0 3241
00000040: a7d3 4741 0e93 3341 bdbe 4b41 1d38 4341
00000050: 83d5 4a41 2f68 3541 7a8d 5a41 fad1 5341
00000060: 89d7 4941 6c71 3441 8ae3 4541 2561 4241
00000070: 9cfe 5741 a84c 5b41 c4db 3c41 4df3 4e41
00000080: caa8 3b41 f888 5741 c866 5a41 8f29 4941
00000090: 8683 2741 f408 3641 bc5d 3a41 28b6 3241
000000a0: f84d 5041 e472 4741 6b6d 4241 9511 4441
000000b0: ee96 3841 cbd2 2d41 6d29 3041 252b 3341
000000c0: 1e31 5141 6b9f 2c41 1bad 2341 d83f 4041
000000d0: b739 4b41 5012 4841 1d68 4d41 cd2a 5e41
000000e0: fab7 4341 2014 4a41 9ff1 3441 1f20 4341
000000f0: 25a8 3741 fc1a 4f41 fb4b 5741 efc3 3f41

layer4.1.weight f4 [64]
0.9480493 1.1435359 0.89905053 0.93383694 1.2937913 1.0862833 1.0483122 0.9745817
1.129197 0.85742694 0.99670595 0.9976995 1.0590601 0.9290105 1.0352279 0.80832785
0.9853767 0.9173224 1.0840571 1.0986617 1.0239247 0.94276536 1.187297 1.0784156
1.0722477 1.0672928 1.0833012 1.0654681 1.1532015 1.2613217 0.9306479 1.1682142
1.19544 1.1318628 1.020385 1.2134285 0.8003919 1.1696647 1.0495031 0.9943738
1.1423297 1.0010701 1.0965198 0.835617 1.2210749 0.99854064 1.1017573 0.7635299
1.2295958 0.8486288 1.0437663 1.0512769 1.1870317 1.0682656 0.8902842 1.3403654
1.2972066 1.3046999 0.8778174 0.99722326 1.0457175 1.27063 1.0523213 1.0867659
00000000: 5cb3 723f 625f 923f 2d28 663f f00f 6f3f
00000010: f49a a53f 550b 8b3f 182f 863f 307e 793f
00000020: 8789 903f 5580 5b3f 1f28 7f3f 3c69 7f3f
00000030: 488f 873f a2d3 6d3f 5982 843f 93ee 4e3f
00000040: a641 7c3f a4d5 6a3f 62c2 8a3f f2a0 8c3f
00000050: f70f 833f 1259 713f 59f9 973f 8609 8a3f
00000060: 6a3f 893f 0d9d 883f 9da9 8a3f 4261 883f
00000070: 1b9c 933f fd72 a13f f13e 6e3f 0b88 953f
00000080: 2e04 993f e1e0 903f fa9b 823f a051 9b3f
00000090: 7ce6 4c3f 93b7 953f 1e56 863f 488f 7e3f
000000a0: dc37 923f 1123 803f c35a 8c3f ffea 553f
000000b0: 2f4c 9c3f 5ca0 7f3f 6206 8d3f b276 433f
000000c0: 6563 9d3f bd3f 593f 229a 853f 3e90 863f
000000d0: a8f0 973f edbc 883f aae9 633f 1891 ab3f
000000e0: de0a a63f 6800 a73f a4b8 603f 064a 7f3f
000000f0: 12da 853f 01a4 a23f 77b2 863f 251b 8b3f
