miniImagenet/SalNet_InterClass/miniImagenet_foreground_encoder_5way_5shot.pkl (torch_old, 457791 bytes, 24 tensors)

layer1.0.weight f4 [64, 3, 3, 3]
000000 d1 80 8f bd b2 76 20 3d 0e c5 28 3e 23 5c d4 bd
       -0.07006992 0.039175697 0.1648142 -0.10369136
000010 51 aa f4 bd 1d 0b 1b 3e 44 46 58 bd 1e 29 ea 3d
       -0.11946548 0.15140958 -0.052801386 0.11433624
000020 ed a7 3e 3e ab 2b 06 be 28 de 5c be 9d e1 c5 3c
       0.18618746 -0.13102596 -0.21569121 0.024155432
000030 54 69 9f be ca 82 e9 bd 8b dd 16 3e bf bd 89 be
       -0.31135046 -0.11401899 0.1473295 -0.26902577
000040 bc f5 56 bd a0 fb 34 bd 58 ab 54 3d e1 14 34 3d
       -0.052480444 -0.04418528 0.05192122 0.043965224
000050 28 0c 61 3d a5 7a 6a bd 38 ed 0d 3e 32 61 38 3e
       0.054943234 -0.05724587 0.13860023 0.18005827
000060 4f 04 a1 bd 6a b8 1c 3e 9e ea 51 3e 25 e2 97 3d
       -0.0786215 0.15304723 0.20499656 0.074161805
000070 92 e7 88 3c e0 f1 78 bd 0f 20 44 3d 32 74 b1 3d
       0.016711984 -0.060777545 0.047882136 0.086647406
000080 cc 74 c9 bc 2b 33 07 be 68 75 86 3c 99 bf d0 3d
       -0.024591826 -0.13203113 0.016413406 0.10192794
000090 0e 71 22 3e bf ef 54 3d fe 47 63 3d 3e fc 54 bc
       0.1586344 0.051986452 0.05548858 -0.012999592
0000a0 42 4d 0b 3e 22 a7 da 3d 10 43 2f be 12 b2 42 3d
       0.1360369 0.10676409 -0.17115426 0.047533102
0000b0 8b a6 2d 3e 54 86 01 3e 59 30 97 3e 79 1a 48 3e
       0.16958062 0.12648898 0.29529074 0.19541349
0000c0 62 6b df 3c f4 fa af 3e 20 d0 55 3e 09 57 8f be
       0.027272884 0.3437115 0.20880175 -0.2799609
0000d0 cc 2c 7b 3c d9 a8 8f 3d 1e 16 8f bd e8 76 8c 3d
       0.015330505 0.07014627 -0.069866404 0.06858617
0000e0 7b d6 e6 3c fe 5c 10 bd 19 51 56 3e 73 44 c5 bc
       0.028178444 -0.035244934 0.20929374 -0.02408049
0000f0 1e cf 0c be 6a 9b 94 3d fd 9b c5 bd 72 12 0d be
       -0.13750884 0.072562054 -0.09648893 -0.13776568
000100 af 2d e0 3d 3b ac 85 3b 06 85 35 3e 9b 53 31 3e
       0.109462135 0.0040793694 0.17726526 0.17317049
000110 65 78 94 bd 41 70 43 bd df 1b 23 3e 90 c2 3f be
       -0.07249526 -0.047714476 0.159286 -0.18726563
000120 ed 53 1c bd 11 3d 50 3e 15 56 87 3d dc 2c 8d 3d
       -0.038165975 0.20335795 0.06608216 0.06893322
000130 05 da 8e 3e c4 eb d2 bc 19 0d 81 3d 47 13 24 3e
       0.2790071 -0.025747187 0.06301326 0.16022979
000140 d7 61 76 be 4c fe 0b 3d 98 ff 3c bc f6 fa 6b bc
       -0.2406076 0.034178063 -0.011535548 -0.0144030955
000150 18 29 b3 3d 95 dd 4d bc fa 23 34 3e 2f 6e 06 3e
       0.087480724 -0.012565036 0.17591849 0.13127969
000160 44 fc 1a 3e 14 d5 b9 3d 08 7b 38 3c a6 65 3e 3e
       0.15135294 0.090738446 0.011259802 0.18593463
000170 17 57 0c 3e 48 8f 8c 3e f5 7a b1 3e 0e 6a 2a 3e
       0.13705097 0.27453065 0.3466412 0.16642019
000180 2c e1 c6 3d e1 17 9c 3e 46 65 2f 3e 37 5e eb 3d
       0.09710917 0.30486968 0.17128477 0.114925794
000190 dc 64 9a 3e 34 06 7e 3e 24 ca 63 3e 03 28 c8 3e
       0.30155075 0.24807054 0.2224508 0.39093027
0001a0 1a fa ba 3e 63 ba fd 3d 20 98 e2 3e d1 23 65 3e
       0.36518937 0.12389066 0.44256687 0.22376944
0001b0 7e 62 9b bd e4 d2 01 be f1 2f 45 3e 26 56 5a 3d
       -0.07587145 -0.12678105 0.1925657 0.053304814
0001c0 f6 74 28 be bf 06 87 3c 80 6b 46 3d cd f5 62 bd
       -0.16450867 0.016482709 0.048442364 -0.055410195
0001d0 a3 33 9a 3d e8 04 6a 3d b8 9a 6b be cf 8a 41 3e
       0.0752938 0.057133585 -0.2300824 0.18900608
0001e0 39 60 c5 3d 9c 19 2a be bf 68 03 3d 87 79 20 3e
       0.09637494 -0.16611332 0.032082316 0.15671359
0001f0 29 07 c1 bd 30 58 8d 3d c3 c7 2e 3d 93 62 4f be
       -0.09425194 0.06901586 0.042670976 -0.20252447
000200 7e c6 24 be a0 7d d0 3d 4f cf 28 be 64 00 1b be
       -0.16091344 0.10180211 -0.16485332 -0.15136868
000210 c6 03 ce 3e 18 9c 5d 3b ca cd 0d 3d d4 d9 e6 bd
       0.40237254 0.0033814963 0.034620084 -0.11272016
000220 61 8e b0 3c f4 de ec bc 1d 2a 82 3d 48 e6 81 bb
       0.021552267 -0.028914906 0.06355689 -0.0039642192
000230 25 f6 92 3d f2 bf 0c 3c 13 01 2b 3e 34 a0 f8 3c
       0.071758546 0.008590685 0.16699629 0.030349828
000240 e3 f8 c4 3d 1f 82 32 3e 14 76 2b 3e e6 a5 ac 3e
       0.09617784 0.1743245 0.16744262 0.3372032
000250 bf 70 93 3e dc 5e 92 3e fb fb 40 3e 29 a9 3b 3e
       0.28796956 0.28587997 0.18846123 0.18326248
000260 39 0a 66 3e 79 bf 6e 3e 7a 1f c6 3e 81 ec 59 3e
       0.22464837 0.23315229 0.3869589 0.21281625
000270 57 d2 b4 3e 99 ff dc 3e c5 54 ca 3e 8c 57 67 3e
       0.35316727 0.43163756 0.395178 0.2259199
000280 db 07 0b 3f d3 7f 50 3e 7d f5 33 3e 48 24 b1 3d
       0.5430886 0.20361261 0.17574115 0.08649498
000290 5b 68 53 be db 75 6f 3d a7 19 e7 3c 09 f5 15 be
       -0.20645277 0.058462005 0.028210474 -0.14644255
0002a0 d5 3c d9 bc b7 b2 b1 3d ca 4f 7c bc bf 00 50 3d
       -0.026518265 0.08676665 -0.015399883 0.05078196
0002b0 f4 1d c4 3d eb 5b e7 bd 9c 2b 20 3e 1c 57 29 3e
       0.095760256 -0.11296829 0.15641636 0.16537136
0002c0 29 09 f2 bd c0 90 0a be 65 cb 3d 3e 54 e4 14 3d
       -0.118181534 -0.1353178 0.1853462 0.036350563
0002d0 48 9c af 3e f0 41 3c 3e 9d 61 55 bd 64 ba 37 3e
       0.3429892 0.18384528 -0.052095044 0.17942196
0002e0 48 d4 32 3e 54 0c 1f bd 4e c9 d4 3c db 3a 8c 3e
       0.17463791 -0.038830116 0.025974896 0.27388653
0002f0 13 c6 a0 bd 92 ee a9 bd 54 24 91 3d d0 43 ff 3c
       -0.0785028 -0.08297457 0.07087007 0.031160265
000300 77 58 12 3e 1e ae 5d 3e 2d 5d 03 3e fb 67 62 3d
       0.14291559 0.21648452 0.12828512 0.055274945
000310 4c 22 54 3e 45 fc 9e 3d 0a 50 2b 3e cb 0b 37 3e
       0.20716208 0.0776296 0.16729751 0.17875592
000320 21 ff 97 3e 84 aa 41 3e 90 d0 9f 3e dc eb 77 3e
       0.29686835 0.18912703 0.31213808 0.24211067
000330 c4 a7 8a 3d 2e f1 42 3e 67 44 99 3d 2b aa a3 3e
       0.0677028 0.19037315 0.0748375 0.31965765
000340 be 58 ec 3e d1 8d 9a 3e ed a8 87 3e cf 30 bf 3e
       0.46161455 0.30186322 0.26496068 0.37341926
000350 e6 62 d2 3e e4 a1 82 3d 63 98 9f 3e 97 19 f2 3d
       0.4109108 0.063785344 0.3117095 0.11821287
000360 47 15 8b bd 67 cf 70 ba 48 c7 9a bd 60 3f 80 3e
       -0.06791168 -0.0009186179 -0.07557541 0.2504835
000370 d2 5f 6e 3e 7a 06 2c 3e 21 32 0b bd 58 49 42 3c
       0.2327874 0.16799346 -0.033983354 0.011858307
000380 f9 d8 eb 3b 7d 39 27 be 34 fc 13 be c1 c8 8e bd
       0.007197496 -0.16330524 -0.14451677 -0.069718845
000390 b2 c3 8e bd 3b 4b 63 bc c6 b8 90 bd 56 fc 5e be
       -0.0697092 -0.013872917 -0.07066493 -0.21775946
0003a0 84 42 38 be 7f fc 85 be 7e 2e c1 3d d1 ac 8b 3d
       -0.17994124 -0.26169202 0.09432696 0.068200715
0003b0 21 49 e9 3d fe 24 59 3d 57 ab 3f 3e 1b f2 2d 3e
       0.11390901 0.053013794 0.18717705 0.16986887
0003c0 7d f8 04 3c 44 d9 e9 bd 5f 6c 25 3d 88 cb 7a 3c
       0.008115885 -0.11418393 0.040386554 0.015307315
0003d0 af 74 81 3d 95 47 4f bc bc 4f 98 3d a9 d2 33 3c
       0.06321084 -0.012651344 0.07437083 0.010975518
0003e0 53 54 86 bd 83 e5 18 bd 8f c8 f8 bd fa b5 0c bd
       -0.06559052 -0.037328254 -0.121476285 -0.034353234
0003f0 16 ba 01 3e 50 42 00 3e 13 5d 15 bb f2 ae 36 3e
       0.12668642 0.12525296 -0.0022791072 0.17840174

layer1.0.bias f4 [64]
000000 7a f5 5a c1 f0 c0 53 c1 a3 47 55 c1 db c9 46 c1
       -13.684931 -13.234604 -13.329989 -12.424281
000010 e9 6d 61 c1 c0 37 3d c1 7e 55 4c c1 43 97 46 c1
       -14.089334 -11.826111 -12.770872 -12.411929
000020 27 99 57 c1 56 16 4a c1 af e9 47 c1 b3 a8 60 c1
       -13.474891 -12.630453 -12.494552 -14.041186
000030 1e 11 58 c1 77 f6 59 c1 99 fe 53 c1 60 5a 60 c1
       -13.504179 -13.622672 -13.249658 -14.022064
000040 97 52 60 c1 9e a6 62 c1 13 12 60 c1 c9 3a 4d c1
       -14.020164 -14.165678 -14.004413 -12.826852
000050 11 54 56 c1 75 34 5c c1 b0 6b 43 c1 15 32 64 c1
       -13.395524 -13.762807 -12.213791 -14.262227
000060 c4 2d 5c c1 8f 96 5b c1 60 33 47 c1 56 4b 4c c1
       -13.761173 -13.724257 -12.450043 -12.768393
000070 42 80 56 c1 b5 f0 5c c1 eb 77 5c c1 21 71 59 c1
       -13.406313 -13.808766 -13.779277 -13.590119
000080 30 5d 43 c1 1a 11 5f c1 55 89 65 c1 e8 0e 5c c1
       -12.210251 -13.941675 -14.346028 -13.753639
000090 e4 91 41 c1 15 74 63 c1 43 af 4b c1 18 aa 5c c1
       -12.098118 -14.21584 -12.7302885 -13.791527
0000a0 7a aa 61 c1 43 56 48 c1 06 c3 5a c1 52 60 56 c1
       -14.10412 -12.52106 -13.672613 -13.398516
0000b0 c7 e0 52 c1 e0 17 40 c1 2e 3c 47 c1 15 98 45 c1
       -13.179877 -12.005829 -12.452192 -12.349629
0000c0 a3 e5 5d c1 12 a8 52 c1 e6 83 55 c1 04 1a 5e c1
       -13.868564 -13.166033 -13.344702 -13.881351
0000d0 c5 8f 57 c1 f9 2e 51 c1 6a bd 51 c1 61 67 49 c1
       -13.4726 -13.073968 -13.108744 -12.587739
0000e0 1b 9b 61 c1 bf 2d 4a c1 e6 ad 51 c1 84 e3 60 c1
       -14.100368 -12.6361685 -13.104956 -14.055546
0000f0 92 96 56 c1 08 8e 58 c1 da 41 5c c1 48 1f 48 c1
       -13.41176 -13.534676 -13.766077 -12.507637

layer1.1.weight f4 [64]
000000 35 ee 8d 3f f2 ae 93 3f cb 9d 96 3f 88 06 86 3f
       1.108832 1.1537764 1.1766905 1.0470743
000010 d3 b8 95 3f 80 23 7b 3f 8b 62 79 3f d1 de 82 3f
       1.1697029 0.98101044 0.9741599 1.0224248
000020 af a9 5d 3f 03 97 87 3f 04 37 09 3f 27 b1 92 3f
       0.8658704 1.059296 0.5359957 1.1460313
000030 e8 44 98 3f 06 29 57 3f 8d 7b 8e 3f 3a c4 7f 3f
       1.1896029 0.8404697 1.1131455 0.9990879
000040 64 c9 99 3f bd 0f 7f 3f d1 07 87 3f dd 27 18 3f
       1.2014585 0.9963339 1.054926 0.59435827
000050 d7 da 91 3f 8b 90 a0 3f 17 5c ed 3e cb de 3c 3f
       1.139491 1.2544111 0.4635932 0.73777455
000060 91 80 5d 3f 38 35 88 3f d8 fd 03 3f f9 8c 32 3f
       0.865243 1.0641241 0.5155921 0.6974636
000070 26 c2 f2 3e cd 11 53 3f 04 ee 80 3f b1 96 63 3f
       0.47413749 0.82449037 1.0072637 0.8890181
000080 e0 ac 8a 3f 5e 8e 98 3f c5 fc 94 3f 53 f1 7d 3f
       1.0834007 1.1918447 1.1639639 0.99196357
000090 6b 4f 8a 3f db 1c 83 3f 20 cc 84 3f 30 62 b5 3f
       1.0805486 1.0243181 1.0374794 1.417059
0000a0 f8 13 a5 3f 59 de 06 3f 35 10 49 3f 95 34 9f 3f
       1.2896719 0.52683026 0.78540355 1.2437922
0000b0 5e 29 1c 3f a4 d1 c6 3e 63 80 84 3f 1c e3 8d 3f
       0.6100062 0.38831818 1.035168 1.1084933
0000c0 65 a6 51 3f fc 73 34 3f 95 75 9a 3f c0 37 60 3f
       0.8189452 0.7048948 1.2067133 0.8758507
0000d0 d8 1a 9c 3f 6b 7f 95 3f 11 14 8d 3f bf 01 8b 3f
       1.2195692 1.167951 1.1021749 1.0859908
0000e0 06 ea 9c 3f a5 81 4e 3f d7 eb 97 3f a4 e9 89 3f
       1.2258918 0.8066657 1.1868848 1.0774426
0000f0 1d 84 73 3f 50 88 99 3f bb b3 96 3f 59 51 0c 3f
       0.95123464 1.1994724 1.1773599 0.54811627

layer1.1.bias f4 [64]
000000 33 05 70 3f 01 37 b1 be 90 45 dc be 23 42 98 be
       0.93757933 -0.34612277 -0.43021822 -0.29737958
000010 df cb 4d 3f fc 44 a4 be 19 a3 cc be cc 2b 7f be
       0.8038921 -0.3208388 -0.39968184 -0.24919051
000020 80 74 63 3e e3 ba b5 be 69 ed 49 be e7 ce 78 3e
       0.2221241 -0.35494146 -0.19719471 0.24297677
000030 1a d5 28 be 00 c8 38 3f 4a 7f 80 be 0e 83 18 3f
       -0.16487542 0.72180176 -0.25097114 0.59574974
000040 01 c7 85 3f d6 60 a9 bd ae 94 b7 3e a9 a3 6e be
       1.0451356 -0.08270423 0.3585562 -0.23304619
000050 5e 45 a2 be 66 48 8e 3f d6 63 dc be b1 cc 85 bd
       -0.31693548 1.1115844 -0.4304492 -0.065331824
000060 89 25 dd 3e c8 4f 95 3f 79 38 a4 be 06 4f 9c be
       0.431927 1.1664972 -0.32074335 -0.3052904
000070 d5 16 cd be 19 e7 96 3f f8 2a 79 3f fa 3b c3 3d
       -0.40056482 1.1789275 0.9733119 0.09532924
000080 37 88 86 be 17 93 dd bd 4e a4 e1 3e cd d5 6b 3f
       -0.262758 -0.10819071 0.44070667 0.9212311
000090 e6 9c a2 be a0 8b 5e 3f 03 31 58 be 69 83 c2 3d
       -0.3176033 0.869318 -0.21112446 0.09497721
0000a0 6d f3 cc 3e 1a 63 b9 be 84 e9 89 3d e4 72 c2 3e
       0.4002947 -0.3620842 0.06733993 0.3797828
0000b0 19 10 09 be 9a 98 0b bf c6 5a 8d be 15 d6 af be
       -0.13385047 -0.54529727 -0.27608317 -0.3434302
0000c0 5a 57 05 3f 80 0f 5c 3e 5b 3e 9d bd 66 47 df 3d
       0.5208641 0.21490288 -0.07677909 0.1090229
0000d0 07 63 be be e2 d6 c7 be 25 c1 7a be f7 f4 64 be
       -0.37184927 -0.3903113 -0.24487741 -0.22359072
0000e0 e6 1c db 3e 25 4c 98 be ea 0d 95 be 1e 36 6f 3f
       0.42795485 -0.29745594 -0.29112178 0.9344195
0000f0 12 9c c5 be d4 21 a0 3f 4c c2 31 3f 29 c4 cc be
       -0.38595635 1.2510324 0.694371 -0.39993408

layer1.1.running_mean f4 [64]
000000 32 20 5a c1 90 ae 81 c1 50 4e 6a c1 b4 b5 a6 c1
       -13.63286 -16.210236 -14.644119 -20.838722
000010 45 2b 61 c1 ac c3 a8 c1 43 00 74 c1 8d 23 ac c1
       -14.073064 -21.095543 -15.250064 -21.517359
000020 4e 46 52 c1 c0 a3 a5 c1 5b 88 15 c1 2e 23 60 c1
       -13.142164 -20.704956 -9.34579 -14.008589
000030 e1 fd 4e c1 c5 16 5a c1 8b 36 80 c1 ac 91 60 c1
       -12.936982 -13.630559 -16.026632 -14.035564
000040 53 ee 58 c1 f9 0e 63 c1 95 4a 5c c1 8d 6a 62 c1
       -13.558185 -14.191155 -13.7682085 -14.151013
000050 8f a1 85 c1 ae a4 5e c1 a3 2f db c0 df ec 61 c1
       -16.703886 -13.915205 -6.849565 -14.12033
000060 bd 13 5b c1 ad b2 5b c1 7e 6c 0d c1 ef bc 7d c1
       -13.692319 -13.731122 -8.838987 -15.858626
000070 92 57 48 c1 a1 a9 5d c1 00 f2 5e c1 0c 56 5c c1
       -12.521379 -13.853913 -13.934082 -13.771008
000080 ad 47 a4 c1 44 28 65 c1 72 ca 65 c1 31 45 5c c1
       -20.534998 -14.32233 -14.361925 -13.766892
000090 88 4a b1 c1 85 5d 63 c1 df b1 76 c1 1d 58 6a c1
       -22.161392 -14.210332 -15.418426 -14.646512
0000a0 a4 27 62 c1 92 fc 0e c1 c1 6e 58 c1 a2 3b 59 c1
       -14.134678 -8.936663 -13.52704 -13.577059
0000b0 fe ce 29 c1 0a a1 21 c1 e3 04 a5 c1 2e fe ae c1
       -10.613035 -10.101816 -20.627386 -21.874111
0000c0 f8 f0 5f c1 4c c1 48 c1 65 75 76 c1 d1 c6 59 c1
       -13.99633 -12.547192 -15.403661 -13.611039
0000d0 84 b3 75 c1 64 c0 7d c1 e7 a9 60 c1 78 ba 6a c1
       -15.356327 -15.85947 -14.04148 -14.670525
0000e0 a8 07 63 c1 58 46 66 c1 ad 90 7e c1 4e ac 62 c1
       -14.189369 -14.392174 -15.910321 -14.167067
0000f0 30 eb 7b c1 8c 2e 59 c1 77 b1 60 c1 0e 4f 12 c1
       -15.744919 -13.573864 -14.043326 -9.1443

layer1.1.running_var f4 [64]
000000 04 55 0e 40 45 75 d1 41 9c 1a b6 40 05 3b 47 43
       2.223939 26.18226 5.690748 199.23055
000010 e2 bb 1a 3f be 14 77 43 f6 58 96 41 5c 2d 68 43
       0.60442936 247.08102 18.793438 232.17719
000020 a8 fb 1d 40 b2 0c 3f 43 62 3a 01 42 a7 70 92 3f
       2.4684849 191.04959 32.307014 1.1440629
000030 b6 25 84 3f 6c 54 b0 3f 1a c8 c4 41 2c e7 9e 3e
       1.0324008 1.3775764 24.597706 0.31035745
000040 58 0b 4b 40 f7 fd 7b 3e 0e e5 4b 40 01 c3 bd 40
       3.1725674 0.24608599 3.1858554 5.930054
000050 5c 46 03 42 79 e6 87 40 58 a7 a8 42 48 74 a8 3f
       32.81871 4.246884 84.32684 1.3160486
000060 04 0b 64 3f bb 3b ef 3e 29 7c 13 42 c0 d6 01 42
       0.8907931 0.46725258 36.87125 32.459717
000070 f7 ac 4d 40 f5 45 dd 3f bf 53 f5 3f 62 b1 e3 3e
       3.213682 1.7286974 1.9166182 0.4447127
000080 4d 84 42 43 79 c4 5b 3f 8a 25 05 3f 53 22 05 40
       194.5168 0.8584667 0.52010405 2.08022
000090 40 61 90 43 6e 61 ef 3f fc ec a6 41 3c 1e 23 41
       288.75977 1.8701608 20.865715 10.194881
0000a0 ec 39 f4 3e 94 b4 12 42 8b 52 81 3e a7 61 25 41
       0.4770044 36.676346 0.25258288 10.336341
0000b0 8e 40 96 41 e2 c8 39 41 b3 f9 37 43 b9 a4 81 43
       18.78152 11.611544 183.97539 259.2869
0000c0 99 a9 2e 40 f5 fb 46 41 83 94 55 41 fe 7c 0e 40
       2.7291014 12.436513 13.348758 2.226379
0000d0 4a fa 50 41 7e 2c bc 41 7d ad a4 40 c2 83 b7 41
       13.061106 23.521725 5.146178 22.939335
0000e0 41 1f 47 40 22 49 29 41 ac ba bd 41 75 57 c5 3f
       3.1112826 10.580355 23.716148 1.5417315
0000f0 63 7a 84 41 59 63 02 40 37 43 80 40 7d 85 18 42
       16.55976 2.0373137 4.008205 38.13036

layer2.0.weight f4 [64, 64, 3, 3]
000000 01 3b 35 3d d2 8e fe bd c2 30 25 be a8 10 d1 bd
       0.044245724 -0.124295846 -0.16131881 -0.10208255
000010 d2 c3 23 be 79 fb 89 bd 2a f4 f4 bb 73 0a fb bd
       -0.15992668 -0.06737418 -0.0074753957 -0.122578524
000020 1f 1e 32 bc 5e fc 45 be b9 19 69 be 97 bb 81 be
       -0.010871439 -0.19334552 -0.22763719 -0.25338432
000030 0d c0 3b be 10 5c 99 be 2d 11 78 be 9b a9 12 be
       -0.1833498 -0.2995305 -0.24225302 -0.14322512
000040 d6 99 9d be b7 eb fd bd 6f 83 a9 bd 40 fe c4 be
       -0.3078143 -0.12398475 -0.08277022 -0.38475227
000050 a8 f9 20 be 3e 22 f6 bb 43 35 8f be 7d 0d f5 bd
       -0.15720236 -0.007511406 -0.27970323 -0.11965463
000060 44 bb 25 3d 48 1a 7c be 98 b7 4c be 0e 90 62 be
       0.040461794 -0.246194 -0.1999191 -0.22125265
000070 d9 50 54 be 5c f5 80 be 7a fd 55 be 8f e3 99 be
       -0.20733966 -0.25187194 -0.20897475 -0.30056426
000080 ca 59 53 be 7d 3d 0a be 1a 4a 47 be 1a 01 9f bd
       -0.2063972 -0.13500018 -0.19461861 -0.07763882
000090 23 ce e5 3d e6 70 66 bd 72 95 ca 3c 53 12 f9 3d
       0.11220958 -0.056260012 0.024729464 0.12161698
0000a0 92 6e 27 bd 18 10 f0 3c 83 5d 50 3e 3d 5b 8c 3c
       -0.040876932 0.02930455 0.20348172 0.01713335
0000b0 ac 5b 4a 3d b6 b0 5a be 1f b2 49 be 27 7e 1f be
       0.04940383 -0.21356472 -0.19696854 -0.15575467
0000c0 73 f2 73 be 19 64 91 be ca 23 71 bb be 0b 85 bc
       -0.23822956 -0.2839668 -0.0036795014 -0.01624095
0000d0 a5 f0 24 be ca d3 3f be c9 f9 f0 bd c8 16 1f be
       -0.16107424 -0.18733135 -0.11766393 -0.15536034
0000e0 00 19 27 be fc 31 99 bd db 14 ab bd 15 ce c5 bd
       -0.1631813 -0.07480237 -0.08353587 -0.09658448
0000f0 76 79 8e 3d 4e 9e 94 be 71 d9 ae be 55 11 8a be
       0.069567606 -0.29027027 -0.3415027 -0.26966348
000100 75 b2 b2 be a0 31 ae be 96 0b 64 be c6 ca ac be
       -0.34901777 -0.34022236 -0.22270045 -0.33748454
000110 97 b7 96 be 6e 3e 1b be 66 82 86 be 6f af 14 be
       -0.29436943 -0.15160534 -0.2627136 -0.14520048
000120 0b b1 45 bb b7 35 15 bd 5b d4 55 be ad 39 ea bb
       -0.003016534 -0.03642818 -0.20881788 -0.007147989
000130 33 83 fa bc 1d 03 67 3c d8 05 0e bd 90 b7 ec bc
       -0.030580139 0.014099863 -0.03467354 -0.028896123
000140 5e de ff 3b dd 43 02 be 53 e9 41 be e7 d8 ce bd
       0.0078084907 -0.127212 -0.18936662 -0.100999646
000150 3f 4b b3 bd 25 90 41 be 15 c2 34 bd e5 a0 fe 3c
       -0.087545864 -0.18902643 -0.044130404 0.03108258
000160 d9 e9 a8 bd 9e 84 34 bc cc e8 98 3d fa 93 18 be
       -0.08247728 -0.0110179465 0.074662775 -0.14900199
000170 f8 9d fe bd 18 6a cc bc fb b9 17 be b8 bc 40 3d
       -0.12432474 -0.024952933 -0.1481704 0.047054976
000180 aa fb 20 3b 51 84 3b 3d 67 d4 42 3d 00 1f b0 bd
       0.0024564066 0.045780484 0.047565844 -0.08599663
000190 e4 fe 6c bd 03 e3 be bc 01 01 16 be d1 85 33 be
       -0.05786027 -0.023301607 -0.1464882 -0.17531516
0001a0 df f0 0b be 93 79 d7 bd 78 30 d3 bd cf 8f 08 3c
       -0.13666104 -0.10521235 -0.10311979 0.008335068
0001b0 ba 79 40 3e 38 32 81 3e e9 65 99 3e 5d 91 56 3e
       0.18796435 0.25233626 0.29960564 0.20953889
0001c0 4b 15 48 3e f7 4f b5 3e ce 96 ac 3d ae 78 76 3e
       0.19539373 0.3541257 0.08427201 0.24069473
0001d0 95 bc bc 3e 75 bf 46 be 95 12 29 be 91 0a 9a be
       0.36862627 -0.19408973 -0.16510995 -0.30086187
0001e0 9a c9 82 bd 84 3d 53 3c f2 d4 4c bd 42 ea 94 bd
       -0.06386109 0.012893084 -0.050007768 -0.07271244
0001f0 de 18 ca bc b8 08 76 bc c1 84 c2 be 3c 76 ef be
       -0.02467006 -0.015016727 -0.37991908 -0.46769893
000200 22 a2 c9 be 7d d1 8b be 53 75 b8 be f1 f8 af be
       -0.3938151 -0.27308264 -0.3602701 -0.34369615
000210 c5 bb ed bd 51 e5 b5 be 36 8b f8 bd dd 2a 33 3e
       -0.1160808 -0.35526517 -0.121359274 0.1749682
000220 77 86 a8 3d 72 91 3c 3e 6b d3 1b bd 14 c9 36 bc
       0.08228772 0.18414858 -0.03804342 -0.011156339
000230 24 ae d7 bc c9 74 89 3d a8 80 10 be 9d 6c 63 3d
       -0.026328154 0.06711728 -0.14111578 0.055523504
000240 5e a7 dc bc 2f 62 96 bb 61 75 39 be f0 72 48 bd
       -0.026935276 -0.004589341 -0.18111183 -0.048937738
000250 b4 42 c4 3d c8 d3 49 bc 37 97 0d 3d c1 fc 52 3e
       0.09583035 -0.012318559 0.034568038 0.2060423
000260 86 db 0f be 19 95 65 3e 06 f5 09 3e 3a 55 c1 3d
       -0.14048585 0.22420157 0.13472375 0.09440084
000270 40 77 82 3d 4c 36 5c 3c c2 1b 44 bd 24 cf 32 3d
       0.063704014 0.01344068 -0.047878034 0.043654576
000280 49 dd 83 bd a6 12 80 bd 53 c0 1c 3d ea 6c 21 3d
       -0.06438691 -0.06253557 0.038269352 0.03941051
000290 9d d1 89 bd d7 f0 e3 bd 98 e2 58 bd 11 6e 03 be
       -0.06729434 -0.11129921 -0.05295047 -0.12834956
0002a0 e0 49 4a be 59 55 55 bd 2a ec 11 be 11 56 27 3d
       -0.19754744 -0.052083347 -0.14250246 0.040853564
0002b0 32 04 75 3c 6b a7 09 3d 8b 42 04 bc a8 ac cd 3c
       0.0149546135 0.033606928 -0.008072506 0.025106743
0002c0 ca e4 d4 3c 14 fd 40 bd d8 4f 56 bd 11 94 3d bc
       0.025988001 -0.047116354 -0.05232224 -0.011570946
0002d0 a2 5d 70 be b5 c7 c8 be 54 eb 9e be 7b 6a 7a be
       -0.23473218 -0.39214864 -0.31038916 -0.24454682
0002e0 33 33 92 be f8 a5 5c be 3b 41 d2 bb 84 dc ad be
       -0.28554687 -0.21547687 -0.0064164675 -0.33957303
0002f0 1c 24 4b be 0c ef 41 be 36 dd 3a 3c 1e fd 5a bd
       -0.19837993 -0.18938845 0.01140528 -0.053464048
000300 98 2d 79 bd 82 10 eb 3d e2 1a 3f bd 8e 7c 0c 3e
       -0.060834497 0.11477758 -0.046656497 0.13719389
000310 0a 86 17 3e 11 b7 b1 bd d2 dc 19 3d da 03 a0 3b
       0.14797226 -0.08677495 0.037564106 0.0048832716
000320 df bf 31 bd 86 92 20 bd 1e 4c ef bc 60 87 a8 bd
       -0.043395873 -0.039202236 -0.0292111 -0.08228946
000330 6c 49 a6 3d 5f a4 c8 bc 2f 9c 27 bd 65 13 2e be
       0.08119473 -0.02449244 -0.040920433 -0.16999586
000340 49 8f 46 be 6d da fb bd ef b3 0a be 78 4b c2 bd
       -0.19390596 -0.12297521 -0.13545202 -0.09487051
000350 0a 41 04 be 69 4d b4 bd 6b 01 b7 bc ae 91 71 be
       -0.12915435 -0.08803827 -0.022339543 -0.23590729
000360 69 8c 55 3d 53 b7 eb bd 2b 28 0a bd f0 67 90 3d
       0.05213586 -0.11509576 -0.033729713 0.070510745
000370 53 91 f0 3d 44 f3 b6 3c bc b6 6a 3e 8a a3 99 3d
       0.117464684 0.022332795 0.2292127 0.07501896
000380 d2 43 da ba da 29 d4 bc b7 ee 3a bd 62 61 e4 3d
       -0.0016652292 -0.025898863 -0.045637812 0.11151387
000390 9d c9 c4 3c 15 15 05 3e 89 60 03 3e d6 15 a2 3b
       0.024021918 0.12996323 0.12829794 0.0049464507
0003a0 0f a8 bf 3d 1b b7 b7 3d 9f 8e 3c 3d 32 f8 63 bc
       0.093582265 0.089704715 0.04603445 -0.013914155
0003b0 29 e0 f3 bc 90 ca 96 3d 60 31 d3 bd 5f 5d cb bd
       -0.029769974 0.073628545 -0.10312152 -0.099299185
0003c0 d5 49 da 3d 87 d8 81 3c e6 91 a2 bd a2 5d 50 3e
       0.106586136 0.015850319 -0.07937984 0.20348218
0003d0 0c 70 05 3e 07 c7 ec 3d 18 7c 14 3e f9 ca 1e 3e
       0.13031024 0.11561399 0.14500463 0.15507115
0003e0 af 50 82 3a eb 93 85 3d ae 26 c1 3c a9 6b d6 bd
       0.0009942258 0.06522354 0.023578014 -0.10469753
0003f0 88 86 16 bd 38 65 48 bc d6 3d cd 3c dd b1 1d bd
       -0.036749393 -0.012231164 0.0250539 -0.0384997

layer2.0.bias f4 [64]
000000 ee 1c 1b 41 a7 1d 2b 41 a8 e9 24 41 dc 0f 29 41
       9.694563 10.694739 10.307045 10.566372
000010 59 67 30 41 01 54 22 41 b1 68 27 41 41 52 33 41
       11.025231 10.145509 10.463059 11.2075815
000020 57 0b 1c 41 85 e5 29 41 cb 17 31 41 0e dc 2f 41
       9.7527685 10.618535 11.068309 10.991224
000030 90 dd 20 41 7e 00 2c 41 65 99 24 41 68 74 23 41
       10.054092 10.75012 10.28745 10.2159195
000040 61 67 26 41 3e 6c 2d 41 82 3b 35 41 a8 ff 39 41
       10.400239 10.838926 11.327028 11.624916
000050 9b 58 21 41 aa 36 20 41 9c 69 fe 40 d4 97 0a 41
       10.084132 10.013346 7.950392 8.662067
000060 9d 42 2d 41 39 60 2b 41 08 a7 15 41 55 77 36 41
       10.828763 10.710992 9.353279 11.404134
000070 ce 07 2a 41 f4 35 30 41 10 7f 01 41 90 35 1e 41
       10.626905 11.013172 8.093521 9.888077
000080 1b 64 2f 41 6f 90 3c 41 48 be 26 41 e9 32 33 41
       10.96194 11.785262 10.421455 11.199929
000090 53 6b 27 41 a7 b3 21 41 e3 b3 41 41 5a 76 0f 41
       10.463702 10.10636 12.106418 8.966394
0000a0 0f 37 1e 41 2a 6c 18 41 69 9a 28 41 0b 35 16 41
       9.888442 9.526407 10.537698 9.38795
0000b0 94 a0 26 41 ce c1 03 41 67 c0 2e 41 be dc 2b 41
       10.414204 8.234816 10.921973 10.741392
0000c0 ae 5b 24 41 55 ba 23 41 ac 11 0e 41 dc 96 1f 41
       10.272383 10.232991 8.879314 9.974331
0000d0 5c 00 2b 41 1c 75 2f 41 e5 3c 34 41 70 3b 29 41
       10.687588 10.966091 11.264867 10.577011
0000e0 19 2d 27 41 9c 76 1f 41 ae 66 33 41 46 e5 1d 41
       10.44851 9.966457 11.212568 9.868475
0000f0 e8 90 26 41 99 6c 29 41 30 e6 20 41 6a 66 20 41
       10.4103775 10.589013 10.056198 10.025003

layer2.1.weight f4 [64]
000000 29 89 19 3f 31 da 62 3f 52 2b 73 3f 67 1f 94 3f
       0.59974915 0.88614184 0.94987977 1.1572083
000010 22 06 b0 3f 8c 20 3e 3f 16 bf a3 3f 61 10 9c 3f
       1.3751872 0.7426841 1.279269 1.2192498
000020 2f 44 27 3f 37 27 49 3f 7c 79 56 3f 5a ab a2 3f
       0.65338415 0.7857546 0.8377912 1.2708542
000030 2e c5 dd 3f f3 95 a0 3f c1 a1 9a 3f fc e5 95 3f
       1.73258 1.2545761 1.2080613 1.1710811
000040 98 2e 57 3f 9d 3a 5b 3f 1f 59 5d 3f 29 13 88 3f
       0.8405547 0.8563631 0.86464113 1.0630847
000050 ab e7 ac 3f 47 33 4b 3f 6a f5 11 3f 4b 70 df 3e
       1.35082 0.7937512 0.570151 0.4364036
000060 16 96 43 3f b2 49 84 3f 3b 37 0a 3f 02 b0 55 3f
       0.7640089 1.033499 0.53990525 0.8347169
000070 1f 43 81 3f 2a 8a 83 3f 3c 41 05 3f a3 fe 8c 3f
       1.0098609 1.0276539 0.52052665 1.1015209
000080 f9 51 69 3f 06 ef 88 3f 6c d9 8a 3f cd 2f ab 3f
       0.91140705 1.0697944 1.0847602 1.3373963
000090 89 8c 7a 3f 9e 0a 40 3f 88 f8 85 3f 48 2d 12 3f
       0.9787069 0.750162 1.0466471 0.57100344
0000a0 9b a5 28 3f ff 79 37 3f 7e c7 93 3f 3d c1 36 3f
       0.65877694 0.71670526 1.1545255 0.7138861
0000b0 50 ba b3 3f e6 4a 0d 3f a6 c4 97 3f 70 05 49 3f
       1.4041233 0.5519241 1.1856887 0.7852392
0000c0 54 de bd 3f 31 fa d5 3f 52 89 ee 3e 89 8a 96 3f
       1.4833474 1.6716977 0.46589142 1.1761028
0000d0 b0 77 37 3f 24 01 a4 3f 24 69 94 3f c3 d8 b1 3f
       0.71667004 1.2812848 1.1594586 1.3894275
0000e0 62 d1 86 3f 49 b1 28 3f 72 97 8d 3f d8 3a 3e 3f
       1.0532649 0.65895516 1.1061842 0.7430854
0000f0 85 7d a0 3f 58 7e 96 3f ae 36 9c 3f e7 3b 90 3f
       1.2538306 1.1757307 1.2204187 1.1268281

layer2.1.bias f4 [64]
000000 80 27 cf be 34 d6 e2 3d 5e f8 84 be a3 bf 89 bd
       -0.40459824 0.11076012 -0.2597074 -0.06726005
000010 00 76 07 be 68 48 34 be a8 7a e9 3d 5e c9 1d 3e
       -0.13228607 -0.17605746 0.11400348 0.15408847
000020 be 16 e5 be aa 1f f8 be fd 8a 03 bd 34 e9 92 bb
       -0.44743913 -0.48461658 -0.03211497 -0.0044833664
000030 c5 7a aa 3e 7f 72 d5 bd 01 72 94 3d 33 0d 08 be
       0.3329679 -0.10422229 0.07248307 -0.13286285
000040 e5 5d b7 be a3 90 b9 3c 89 8a ad be bd bb 4d bc
       -0.35813823 0.022651976 -0.33894756 -0.012556967
000050 fd 62 5a 3d a4 5e 6f be 77 f9 02 bf 57 84 ff be
       0.05331706 -0.23375946 -0.51161903 -0.49905655
000060 7c 39 fa be 84 38 a7 3d b0 cc 26 bf bb d5 e1 be
       -0.48871982 0.081650764 -0.6515608 -0.44108376
000070 09 2c 59 be 47 0d 1c be 81 b5 15 bf a9 c4 84 be
       -0.21208204 -0.1523944 -0.5848008 -0.2593129
000080 11 40 2d be d5 1e a6 be e8 17 ab 3d 4b 4f cd 3d
       -0.1691897 -0.32445398 0.08354169 0.100248896
000090 26 e3 99 3d e2 34 1d be e5 6d b6 be 69 8e 0e bf
       0.07514028 -0.15352204 -0.35630718 -0.5568605
0000a0 a2 e1 ef be 09 db b7 be a9 9e 98 be 3c ba 3c be
       -0.46851832 -0.35909298 -0.29808548 -0.18430418
0000b0 c9 84 24 be 9d 46 00 bf e8 66 20 3e 5f aa 45 3e
       -0.16066279 -0.5010775 0.15664256 0.19303273
0000c0 b5 2f 0c 3d 38 2e 45 bd 01 51 01 bf 77 f4 23 3d
       0.034225184 -0.04813978 -0.5051423 0.04002806
0000d0 a3 9d 9e be 5d bb 94 bd 00 38 67 3e e7 5c 0d bd
       -0.30979642 -0.07262299 0.22579956 -0.034512427
0000e0 37 aa 63 3d a2 9f fc be af e3 e5 bd 71 76 56 be
       0.05558225 -0.4934054 -0.11225068 -0.2094362
0000f0 ce 2c 6e be f5 8f 85 be 49 ea 5e 3d 1c 54 82 bd
       -0.23259279 -0.26086393 0.05442265 -0.06363699

layer2.1.running_mean f4 [64]
000000 8f b8 87 c0 b2 a3 03 41 93 b3 fb 3f f0 64 54 bd
       -4.241279 8.227465 1.9664177 -0.051854074
000010 51 91 1c 41 7a eb 44 41 62 d4 9e 40 c4 3a c4 40
       9.785478 12.307489 4.9634256 6.1321735
000020 12 60 50 41 5c 67 81 41 b8 29 28 41 7c 37 2f 41
       13.023455 16.175468 10.510185 10.951046
000030 c6 2f 23 c1 36 ff e9 40 08 f5 37 40 cd fc 9e 3f
       -10.199163 7.3124037 2.8743305 1.2420899
000040 a0 29 2e 3f 84 43 1a 41 65 a4 4f 41 0c 2c 1b 41
       0.68032265 9.641483 12.977635 9.698254
000050 3c 2d 0c c0 c6 a0 c4 3f 54 c8 98 41 f4 aa 54 c0
       -2.190261 1.5361564 19.097816 -3.3229342
000060 53 ab 37 41 57 67 85 41 b8 48 01 41 e4 97 94 40
       11.479327 16.675459 8.080254 4.6435413
000070 a1 e6 d3 40 64 7c 2d 41 3c 3a 83 41 ff c2 49 40
       6.621903 10.842869 16.403435 3.1525266
000080 90 b8 19 41 ec d1 92 40 80 6f 95 40 2e b5 ed 40
       9.607559 4.588125 4.669861 7.4283667
000090 8c 9b a0 40 9a 2c 36 41 5a da 17 41 ce d2 cb 40
       5.0189877 11.385889 9.4908085 6.369483
0000a0 6c c7 3b 41 08 46 0f 41 ac 4e 14 c1 b1 34 85 41
       11.736187 8.954597 -9.269207 16.650728
0000b0 74 d1 6c 40 49 b0 86 40 36 ef 97 40 7d 88 35 41
       3.700284 4.209019 4.7479506 11.345822
0000c0 54 9f 49 40 e4 0b 7b c0 78 95 b8 3e 45 86 ad 40
       3.1503496 -3.9226007 0.36051536 5.4226403
0000d0 c2 ff 2f 41 03 9d 82 40 64 40 14 41 de 11 94 40
       10.999941 4.0816665 9.26572 4.627181
0000e0 a8 1c e9 40 50 56 06 41 bd 04 43 41 4e b1 3f c0
       7.284748 8.396072 12.188657 -2.9951968
0000f0 51 85 9d 41 98 42 89 41 64 00 88 40 78 cf 8e bd
       19.690096 17.157516 4.2500477 -0.06973165

layer2.1.running_var f4 [64]
000000 36 09 6b 42 7a e3 c4 41 01 62 32 42 bb 84 27 42
       58.758995 24.611073 44.595707 41.87962
000010 2d 73 24 42 c9 48 e5 42 8b 10 81 42 82 56 bf 41
       41.112476 114.64216 64.53231 23.91724
000020 cd 71 cb 41 8d c4 98 41 59 4c b8 41 6d 42 73 42
       25.430567 19.095972 23.03728 60.81487
000030 61 a2 0d 43 69 89 64 42 89 0c 6d 42 ce 8a 4f 42
       141.6343 57.13419 59.26224 51.88555
000040 df 3c ce 41 c3 23 89 41 65 67 82 41 a0 dc 1f 41
       25.779722 17.142462 16.300486 9.991364
000050 a5 51 d6 42 c9 49 03 42 6b 36 02 43 11 75 93 42
       107.15946 32.822056 130.21257 73.728645
000060 f1 2c 9e 41 85 1c 0a 42 81 4f 04 42 4c 06 0c 41
       19.771944 34.52785 33.07764 8.751537
000070 a7 1c fe 41 3d 03 0d 42 18 7d 3c 42 e1 3d ba 42
       31.76399 35.253162 47.12216 93.12086
000080 91 a9 b3 41 01 86 75 41 51 c6 6c 42 ee 36 e4 41
       22.457796 15.345216 59.19367 28.526821
000090 be 1d 9c 42 5d 1d 4c 42 9b 06 fc 40 10 b6 d5 41
       78.05809 51.028675 7.8758063 26.713898
0000a0 0e 1d ad 41 f8 b5 1b 43 00 e0 d7 41 95 b9 98 42
       21.639187 155.71082 26.984375 76.362465
0000b0 43 61 f3 42 40 32 98 42 c9 94 01 42 21 57 30 42
       121.689964 76.098145 32.395298 44.085087
0000c0 f4 5a a3 42 9c 8f 03 43 6b 7a 64 42 b3 62 95 42
       81.67764 131.56097 57.11955 74.69277
0000d0 bc 8c 03 42 7a 95 1d 42 b8 18 e4 41 e9 2e 6c 42
       32.887436 39.395973 28.51207 59.04581
0000e0 02 5c 16 42 7c 01 bc 41 0d 4e 82 41 a0 6f 1c 42
       37.58985 23.500725 16.28811 39.10901
0000f0 a2 45 14 43 f3 70 bd 42 e3 56 bf 42 86 60 d1 42
       148.272 94.720604 95.6697 104.68852

layer3.0.weight f4 [64, 64, 3, 3]
000000 0a eb a0 3d be 3d 38 3e d4 c1 d7 3a b8 28 a5 3d
       0.0785733 0.17992303 0.0016460964 0.08064407
000010 d2 fd f9 3d 3d 30 0a be 7a 23 1b be 55 69 07 be
       0.122066155 -0.13494964 -0.15150252 -0.13223775
000020 cf 13 49 be d2 8d 78 bd bf 22 2d be 86 bc ca bd
       -0.19636463 -0.060682125 -0.16907786 -0.09899239
000030 8a 31 86 be 4a b2 ec bd f0 e5 5f bd 4e c8 02 be
       -0.2620967 -0.115574434 -0.054662645 -0.12771723
000040 1f 4d f2 bd d6 dd 84 bd 12 92 e7 bc fb e4 af 3e
       -0.11831116 -0.06487624 -0.028267894 0.34354386
000050 83 c5 e5 3e 81 4d 0d be d4 94 8d 3e 2e f7 8a 3e
       0.44877252 -0.13799097 0.2765261 0.27141708
000060 f4 6e 11 be d0 93 02 bd ef 5c 71 3d 69 be 01 3e
       -0.14202482 -0.031879246 0.05892652 0.12670292
000070 61 19 9c bc f8 02 8c 3e 4e 50 16 3e cd fd a1 bd
       -0.01905507 0.27346015 0.14679071 -0.07909737
000080 d6 97 5a 3d 69 c4 08 3e 57 68 34 3d a3 a0 32 3d
       0.05336746 0.13356175 0.04404482 0.043610226
000090 fe 82 e8 bd 27 6c 2f bd 99 59 15 3d cf 92 a5 bc
       -0.1135311 -0.04282775 0.0364624 -0.020211605
0000a0 79 df 94 3d 56 d0 86 bd 5d b1 bf bd d3 af e9 bd
       0.072691865 -0.06582706 -0.09360001 -0.11410489
0000b0 5f 0d 30 be a5 10 87 bb cf a3 75 bd 84 ca 2b be
       -0.171926 -0.004121857 -0.059970673 -0.16776472
0000c0 7d 47 03 3d 97 9c dd bd 2e 5e ee bd b4 41 a6 bd
       0.0320506 -0.10820883 -0.11639057 -0.081180006
0000d0 aa 16 44 be 48 b6 2d be 55 cd 44 3d be e0 21 be
       -0.1914927 -0.16964066 0.048047382 -0.15808389
0000e0 e4 20 de bd 04 cb cb b9 29 cb 78 bd bb a9 52 be
       -0.10846117 -0.00038870436 -0.060740624 -0.2057256
0000f0 d4 42 d2 3d 94 58 13 bb dd f3 ac bd 94 b8 81 3e
       0.10266653 -0.0022483217 -0.08444951 0.25336134
000100 de 90 c6 3d c8 38 91 3d 0b b7 3e 3d ff 08 0c 3d
       0.096956 0.07090908 0.046561282 0.034188267
000110 50 33 2c 3e 48 ad 08 bd ab 47 ac 3d b2 56 b9 3d
       0.16816449 -0.03336838 0.08412107 0.09049739
000120 2a fc f6 3c 9e 88 af bd 36 65 a7 bd 26 f8 76 be
       0.030149538 -0.085709795 -0.08173601 -0.24118099
000130 d6 0c 6c be 08 8c 22 be d5 62 45 bd b2 99 dc bb
       -0.23051772 -0.1587373 -0.048189957 -0.006732189
000140 a9 9d 2b 3d 45 58 74 3d ae 9f 87 3e 34 a4 18 3d
       0.041898403 0.059654493 0.26489013 0.03726597
000150 88 88 52 3e 8e 61 ff 3e dd 40 e3 3d bb e1 d4 3d
       0.20559895 0.49879116 0.11096356 0.10394617
000160 a8 0d bf 3d 1d 02 c9 bd 5f b3 0d 3d f0 50 a3 bd
       0.093287766 -0.09814856 0.03459489 -0.07974422
000170 2c f8 51 3d 2d 68 68 3c e9 df f1 bd a2 d0 d7 bc
       0.051262066 0.014184994 -0.118102856 -0.026344601
000180 78 14 07 be 55 aa a6 bd dd 35 c3 bd 0a e9 b6 3d
       -0.13191402 -0.08137957 -0.09531758 0.089311674
000190 b7 ae 10 3c 1f 45 54 3d be 4c c3 3b 24 bd 0f be
       0.008830718 0.05182373 0.005960076 -0.14036995
0001a0 26 0c 02 be 96 f8 e7 bd f2 94 48 be 84 80 24 bd
       -0.12699947 -0.11326711 -0.19588068 -0.040161625
0001b0 f6 5b 9a bd ff 4d b8 bd 2d 32 82 3c 6e fc 71 be
       -0.075370714 -0.089992516 0.015893066 -0.2363145
0001c0 75 3f c4 bd b7 2c d6 3d ca e0 49 be 52 c6 a0 bd
       -0.09582416 0.104577474 -0.19714656 -0.078503266
0001d0 2b 61 56 bd f1 a7 03 be f5 63 99 be de 63 0a be
       -0.05233876 -0.12857033 -0.29959074 -0.13514659
0001e0 7f d8 83 bc a5 5a 04 be 2a 63 ea bd 26 04 86 bd
       -0.016094444 -0.12925203 -0.11444695 -0.0654376
0001f0 2b 3a 9b bc c9 9e 62 be 40 aa 93 be 28 98 00 bc
       -0.018948635 -0.22130884 -0.28840828 -0.007848777
000200 50 e8 90 3d e4 99 2b be 18 87 0a 3e fd 71 4a 3c
       0.0707556 -0.16757923 0.13528097 0.0123562785
000210 0b ba 1f 3e c1 8f 4f 3e 08 e0 47 3d 40 f3 fa bd
       0.15598314 0.20269682 0.048797637 -0.122534275
000220 bd 0c cf bd 11 07 46 3c 88 a8 c4 be 63 56 4a be
       -0.101098515 0.012086646 -0.3840983 -0.19759516
000230 aa 4d 04 be 98 f0 8c be 5b c3 6a bd 64 b7 32 be
       -0.12920251 -0.27527308 -0.05731521 -0.1745277
000240 be e0 e6 3d 53 c7 80 3e 3b 74 52 3e 7b 69 5f 3e
       0.11273335 0.25152072 0.20552151 0.21817581
000250 83 84 07 3f d1 f6 a3 3e 04 23 d2 bc 25 06 5c 3e
       0.5293657 0.32024243 -0.025651462 0.21486719
000260 a0 61 1c 3d 98 19 a7 bb f4 47 c6 bd a7 f1 a9 bc
       0.03817904 -0.0050994866 -0.09681693 -0.020745112
000270 8d f9 34 be 07 bf 2d be 55 b5 c2 bc 75 be 49 3d
       -0.17673321 -0.16967402 -0.023768106 0.0492539
000280 89 0d ca bd fc cb 9b 3d 2c aa e6 3d 9a 7f e2 3d
       -0.09865863 0.07607266 0.112629265 0.11059494
000290 21 65 34 bd c1 43 89 bd 82 f1 e9 bd d3 c2 0d bd
       -0.044041757 -0.06702376 -0.11423017 -0.034609627
0002a0 b4 e4 bc bd 2c 1b bd bd a9 b9 4c bd b6 93 53 3d
       -0.09223309 -0.09233698 -0.049981747 0.05165454
0002b0 e2 c5 b9 be 19 82 bb 3d ef 60 95 3d 9c eb c3 be
       -0.36283785 0.091556735 0.07293879 -0.38265693
0002c0 49 05 96 3d 98 8a b3 3e 83 ee 56 3e b1 2f 0e 3f
       0.07325227 0.35066676 0.20989423 0.5554152
0002d0 f1 87 44 3c 65 85 27 3e cc 42 11 ba 65 b6 ff 3d
       0.011995302 0.1635948 -0.00055412645 0.12485961
0002e0 83 78 5e 3e e9 a8 79 bc c3 11 a2 3d 45 b4 16 3d
       0.21725659 -0.015238025 0.07913544 0.036793012
0002f0 61 8f c9 bd f7 89 e5 bc 1c 44 5b be 1e d1 10 be
       -0.098418005 -0.028019888 -0.214127 -0.14142272
000300 09 3e 87 bd dd 3d 66 be 08 8e 93 bd 23 1e 80 3d
       -0.06603629 -0.22484536 -0.07204825 0.06255748
000310 ca b2 2c bc 96 9d 21 3e c9 f7 6d bd 97 5e 61 bb
       -0.0105406735 0.1578277 -0.058097634 -0.0034388655
000320 f2 40 65 bc f6 96 8c bd 8f 11 56 3e 50 68 ed 3c
       -0.013992535 -0.06864731 0.20905136 0.028980404
000330 b2 40 63 be d9 0a 10 3e c4 89 2e bc b7 4e b1 3d
       -0.22192648 0.14066638 -0.010652963 0.08657592
000340 c6 bf 5c be 0e c5 19 be 3d 82 fc 3b 92 ef 67 bd
       -0.21557531 -0.15016577 0.0077059553 -0.056624956
000350 4b 89 87 3d a2 bd 76 be 55 e2 14 3d 2c 4d ce 3c
       0.066179834 -0.24095777 0.03634866 0.025183283
000360 4c 02 97 3d 31 36 95 3e 2e 82 98 3e a4 43 13 3e
       0.07373485 0.29142907 0.2978682 0.14381272
000370 35 63 7e 3e 47 a3 57 3e 04 32 5d bd af d3 a8 3d
       0.24842532 0.21058379 -0.054002777 0.082435004
000380 81 0c 21 3d 02 57 36 3d db 67 05 3d 42 4e fe bd
       0.039318565 0.04451657 0.032569747 -0.1241727
000390 6f 81 a7 bc 7d 80 93 3c b5 b3 81 bd 15 c6 e7 3c
       -0.020447461 0.018005604 -0.063331045 0.028292695
0003a0 f2 1c 47 3d a4 9f 22 be 21 ea 2a 3e 7d cb ec bd
       0.04861159 -0.1588121 0.16690876 -0.1156225
0003b0 dd c9 25 be ea 23 9c 3d af ce 2a be c9 eb 35 be
       -0.16190286 0.076240376 -0.16680406 -0.17765726
0003c0 ed 35 e6 bd cf cc c4 3d fc 5c 72 3d 26 d4 e9 3d
       -0.11240754 0.09609377 0.059170708 0.11417417
0003d0 af 9a 18 3c ac 10 7d bd b6 7c ba bc 98 2b 23 be
       0.009314223 -0.061783478 -0.022764545 -0.15934598
0003e0 9b 7e 21 3d 1d c5 f8 bc 6a 69 02 bd 73 f3 f7 3d
       0.03942738 -0.030367428 -0.031838812 0.12106981
0003f0 34 50 bd bc e6 54 e3 bc ce c3 08 3e 81 28 18 bc
       -0.023109533 -0.027750444 0.13355944 -0.009287001

layer3.0.bias f4 [64]
000000 a0 4f e8 40 9e ab ee 40 ac eb d7 40 c8 9e e5 40
       7.25972 7.4584494 6.7475185 7.1756325
000010 ee dd d4 40 f5 fc ce 40 d3 4b cb 40 d1 c3 da 40
       6.652091 6.4683785 6.353006 6.8364034
000020 5a c3 e0 40 5e 3f c8 40 dd 2d f4 40 9e cf eb 40
       7.0238466 6.2577353 7.6305985 7.369094
000030 54 73 e1 40 94 3f f0 40 a1 45 d6 40 2c 4a e0 40
       7.045328 7.507761 6.6959996 7.009054
000040 04 26 d5 40 6d 8c d9 40 8b 0c ad 40 f3 ae f9 40
       6.6608906 6.798392 5.407781 7.802606
000050 66 c2 ee 40 8c 3d d3 40 53 60 d2 40 61 ea d9 40
       7.4612303 6.601263 6.5742583 6.8098607
000060 79 44 f1 40 b3 29 ce 40 f8 54 d5 40 cb ae c0 40
       7.5396085 6.44259 6.666622 6.021337
000070 36 3a ca 40 d8 23 d6 40 b2 d0 c1 40 5c b8 ea 40
       6.319606 6.6918755 6.0567255 7.335005
000080 db b2 db 40 15 05 eb 40 c4 2c 00 41 2c 24 dd 40
       6.865583 7.3443704 8.010929 6.9106655
000090 e0 41 01 41 11 cb dd 40 f9 00 d6 40 04 2b f4 40
       8.078583 6.9310384 6.6876187 7.630251
0000a0 62 79 e6 40 d5 3d dc 40 bb f5 df 40 f7 0a d8 40
       7.202317 6.882548 6.9987464 6.7513385
0000b0 66 c4 f5 40 28 d5 ec 40 73 1a b9 40 fe 78 c7 40
       7.6802244 7.40102 5.7844787 6.2335196
0000c0 be c5 00 41 e1 d6 db 40 3b 56 ed 40 2a 46 b1 40
       8.048277 6.8699803 7.416776 5.539815
0000d0 2a 16 03 41 55 62 c0 40 08 02 e5 40 d1 e5 e6 40
       8.192911 6.0120034 7.156498 7.2155538
0000e0 f3 76 bb 40 05 66 de 40 5d ff ff 40 ec f5 e2 40
       5.85827 6.9499536 7.9999223 7.0925198
0000f0 9a 04 dc 40 15 e1 f3 40 43 e7 eb 40 a9 85 da 40
       6.8755617 7.621226 7.37198 6.828816

layer3.1.weight f4 [64]
000000 11 48 5d 3f 2f 49 5c 3f 6c 57 95 3f 68 1d 95 3f
       0.8643809 0.8604917 1.1667304 1.1649599
000010 15 7b 53 3f 54 14 5a 3f 64 4b 94 3f d1 87 88 3f
       0.82609683 0.8518727 1.1585507 1.0666448
000020 d9 c3 9f 3f a7 7d a6 3f 0e 1c 65 3f 7e f1 58 3f
       1.2481643 1.3007096 0.89495933 0.8474349
000030 1e c3 96 3f a0 eb 6c 3f a4 d9 97 3f b4 a8 64 3f
       1.1778295 0.92547035 1.1863294 0.8931992
000040 25 7e 98 3f 38 3b 8c 3f 09 d6 4e 3f bf 33 87 3f
       1.1913496 1.0955572 0.8079534 1.0562667
000050 b8 a0 9d 3f 69 a7 8d 3f fa 57 97 3f f6 91 9d 3f
       1.2314672 1.1066715 1.1823723 1.2310169
000060 18 41 94 3f 47 3e 94 3f 83 0a 62 3f e8 04 20 3f
       1.1582365 1.1581506 0.8829729 0.62507486
000070 d7 61 60 3f a3 52 4f 3f 70 e0 93 3f 28 ed 77 3f
       0.8764929 0.8098547 1.1552868 0.96846247
000080 bf 31 52 3f cd e5 8f 3f fb 55 9c 3f b1 20 61 3f
       0.82107157 1.1242005 1.2213739 0.8794051
000090 4d d5 8f 3f 9d 88 8e 3f 9b 8d 82 3f e9 a3 75 3f
       1.1236969 1.1135441 1.0199465 0.9595323
0000a0 f4 16 94 3f 1f 2d 3e 3f 73 bc 99 3f 8a 9c 90 3f
       1.1569505 0.742876 1.2010635 1.1297772
0000b0 4c d2 8d 3f e2 d5 a8 3f 45 91 5c 3f 1f f6 52 3f
       1.1079803 1.3190272 0.86159164 0.824068
0000c0 e9 95 8b 3f 8d a1 a1 3f 06 69 84 3f ee 8e 8e 3f
       1.0905124 1.2627426 1.0344551 1.1137369
0000d0 f9 9b 72 3f 85 24 90 3f 97 b5 9e 3f d4 21 81 3f
       0.94769245 1.1261145 1.2399167 1.0088449
0000e0 f6 25 3f 3f e4 b2 53 3f d6 c8 5d 3f 2a 60 46 3f
       0.746673 0.8269484 0.86634576 0.77490485
0000f0 e8 79 7c 3f 2a f6 7a 3f a5 c2 8c 3f 23 2a 8b 3f
       0.98623514 0.98031867 1.0996901 1.0872234

layer3.1.bias f4 [64]
000000 ad 15 8a be 3d 96 fb be 7a 56 93 ba e1 5d 32 be
       -0.26969662 -0.4913806 -0.0011240982 -0.17418624
000010 a7 04 bf be 40 8d 81 be da 82 71 be 94 81 13 be
       -0.37308237 -0.25303078 -0.23585072 -0.14404899
000020 0e 2b e1 bd b0 88 28 be aa 24 8b be 2e 50 98 be
       -0.1099454 -0.16458392 -0.2717641 -0.29748672
000030 e0 24 b1 bd fe b0 8c be 4d e8 3b bd a3 52 38 be
       -0.086496115 -0.27478784 -0.045875836 -0.18000273
000040 5c eb a8 bd ba ec 45 be b2 d9 81 be cb 00 a5 be
       -0.08248016 -0.19328585 -0.253614 -0.32227167
000050 a4 08 3f be 86 9e a5 bd 64 a9 c0 bd fe bc e4 bd
       -0.1865564 -0.080868766 -0.09407309 -0.1116886
000060 8f 51 99 be 88 77 69 be 8a 85 7b be 3b b6 b7 be
       -0.29945037 -0.22799504 -0.2456266 -0.35881218
000070 00 09 71 be a9 aa 67 be 18 6f 6c be bb ec c6 be
       -0.2353859 -0.22623695 -0.23089254 -0.38852486
000080 85 23 46 be c5 d0 8e be 6d 61 73 be 80 0c 48 be
       -0.19349487 -0.27893654 -0.23767634 -0.19536018
000090 a2 cf f7 bd 88 8f 80 3a 6b a6 f0 bd 09 38 07 be
       -0.1210015 0.0009808401 -0.11750492 -0.1320497
0000a0 31 1d 8b be ca 27 b4 be c0 11 11 be ee bb d1 bd
       -0.2717071 -0.35186607 -0.14166927 -0.10240923
0000b0 79 27 3e 3c 10 e3 3b be 15 52 10 be 03 b2 b0 be
       0.011606091 -0.18348336 -0.14093812 -0.34510812
0000c0 7f f6 af bd 08 46 23 be ca 1e 51 be 29 54 13 be
       -0.08591937 -0.15944684 -0.20421901 -0.14387573
0000d0 74 2f c6 be 7b f4 ad bd db e5 e3 bc ff 91 fd bd
       -0.3870808 -0.084938966 -0.027819565 -0.12381362
0000e0 60 fb 00 bf 28 c6 1e be df 27 52 be de ef a7 be
       -0.5038357 -0.15505278 -0.20523022 -0.32800192
0000f0 d7 88 86 be 20 c9 db be 35 0b 06 3e 80 82 8e bd
       -0.26276276 -0.42926884 0.13090213 -0.06958485

layer3.1.running_mean f4 [64]
000000 25 54 84 40 35 a5 10 41 b2 73 f6 c0 ad d8 82 40
       4.1352715 9.040334 -7.701623 4.0889497
000010 21 25 ac 3f 38 e4 fb 3f 0a 56 dd 40 fc 24 82 40
       1.3448831 1.9679022 6.916753 4.0670147
000020 2b 1b 3f 40 8e ff 1c 3e dc 08 22 40 93 af f5 40
       2.9860332 0.15331861 2.5317907 7.6776824
000030 02 8f 6a 41 ac 65 10 41 62 2d 0d 41 65 1a 63 40
       14.659914 9.024822 8.82358 3.548486
000040 b2 9c 2a 41 8b e5 bd bf 5d 00 c4 40 9d 01 67 40
       10.663256 -1.4835676 6.1250443 3.6094735
000050 2c 69 13 41 0d d9 8b 40 29 c4 17 c0 ce 37 01 bf
       9.213177 4.3702455 -2.3713477 -0.50475776
000060 37 18 cb 40 bd 77 06 41 06 8d c0 bf af bd 89 40
       6.346706 8.404233 -1.5043037 4.3044047
000070 fd 96 0c c1 64 37 2f 40 30 92 f6 bf 45 38 4b 40
       -8.786862 2.7377558 -1.9263363 3.1753094
000080 c5 c1 f2 40 d0 8f bf 40 70 ba f8 40 34 82 6c 40
       7.5861535 5.986305 7.7727585 3.695447
000090 3b 32 db 40 00 f8 0b 40 2c c4 c5 40 dc 49 7a 40
       6.8498816 2.1870117 6.180197 3.910758
0000a0 96 ef c4 40 73 f5 ef 3e 39 0f 50 40 66 30 7e c0
       6.1542463 0.4686695 3.250929 -3.971704
0000b0 28 9d a6 3f 62 e1 89 3f 4f b6 42 41 15 15 29 41
       1.301671 1.0771906 12.169509 10.567647
0000c0 b4 dd 16 41 39 05 ec bd 46 aa e2 40 01 e5 f2 c0
       9.429127 -0.11524434 7.0832853 -7.5904546
0000d0 90 c1 fa 40 b2 1b 1e 40 f5 d5 67 40 d2 c9 52 c0
       7.836128 2.4704404 3.622434 -3.2935681
0000e0 b4 76 13 41 84 bc df 40 59 24 eb 40 7a af 38 40
       9.21648 6.991762 7.348187 2.8857102
0000f0 b1 66 9f bf 98 66 b4 40 fa ec b2 40 56 ca 4b 40
       -1.2453214 5.6375237 5.591428 3.1842246

layer3.1.running_var f4 [64]
000000 f5 b2 58 41 a1 ad 9b 41 fd 4c 44 42 ec c4 0f 42
       13.543691 19.45978 49.075184 35.942307
000010 0d 3b dd 41 b4 91 40 42 55 ad 84 42 1e 6b 30 42
       27.653833 48.14229 66.33854 44.104607
000020 44 b1 47 42 d7 ca 60 42 26 82 79 41 1f e9 cd 41
       49.92311 56.198086 15.5942745 25.738829
000030 1d b4 aa 42 1f d9 aa 41 75 90 be 42 f5 0d d6 41
       85.35178 21.356016 95.28214 26.756815
000040 e5 db 7f 42 e9 4d d7 41 cd 21 ba 42 2b 96 7f 41
       63.96474 26.913042 93.06602 15.974162
000050 7b fc 79 42 8f dd 97 42 35 2c 6f 42 97 33 39 42
       62.496563 75.93273 59.79317 46.30038
000060 ca aa ce 41 f1 46 c5 42 bd 76 2b 42 29 ea fa 41
       25.833393 98.63856 42.865955 31.364336
000070 11 73 33 42 7b 56 03 42 c8 99 ab 42 b6 11 d4 41
       44.86237 32.834454 85.800354 26.508648
000080 61 ed f5 41 4e e6 00 42 67 d0 cf 41 6b 04 e3 41
       30.740908 32.224907 25.976759 28.377157
000090 8a 9b 77 41 ad 2d 01 42 df 06 07 42 8d d7 b2 41
       15.475473 32.294605 33.75671 22.35525
0000a0 ca d0 d0 41 0f f8 18 42 e6 b7 61 42 a0 2a 41 42
       26.101948 38.242245 56.42959 48.291626
0000b0 3d a7 ad 41 49 7f 22 42 65 98 89 42 a0 88 d5 41
       21.70666 40.624302 68.797646 26.691711
0000c0 41 39 92 41 1c 55 8e 42 8f ff e4 41 b0 2d d5 42
       18.277956 71.16623 28.624784 106.58923
0000d0 bd 06 1b 41 86 7d b1 42 d4 9c 26 42 96 e4 10 42
       9.689145 88.74516 41.653152 36.22323
0000e0 01 a3 fb 41 3b 83 15 42 e9 0f 31 41 7b 64 e1 41
       31.454592 37.378155 11.066384 28.174063
0000f0 5b 49 dd 41 6f 41 be 41 4e 2a d4 41 d2 2c 4c 42
       27.660818 23.78195 26.520657 51.04377
