miniImagenet/SalNet_IntraClass/miniImagenet_mixture_network_5way_1shot.pkl (torch_old, 598382 bytes, 24 tensors)

layer1.0.weight f4 [64, 64, 3, 3]
00000000: fb0d 91be 96dd ccbc 8c73 9ebe 7c3c 91be
00000010: 12fd dd3d 5dd0 39bd eacc b7be 38dd 89be
00000020: 8035 07bf 92d5 a7be 2754 373e 8ea6 553e
00000030: 32d6 35be 9d1c de3e dac8 b63e 519d b13d
00000040: 254f 0a3f 4325 a83e 53bf 8f3e 4d95 c93e
00000050: 3d82 c13e 5a38 e13e 1d88 553f 8ada 0f3f
00000060: 06fb 903e 10c2 0f3f 75ad cc3e 6064 a13e
00000070: b0db 903e 7e32 2a3e 0059 cfbe 765a 96be
00000080: a034 a8be 726a 9bbe 9d2c 03bf b402 96be
00000090: 94a4 68be ec4a 28be 33e5 bfbd 7eed 35be
000000a0: 2a38 813c 0de3 cbbd 52c1 0cbb 15a3 8a3e
000000b0: 3b3a 0c3e 6405 07bf 116d 5fbe 1dca 23be
000000c0: 5006 a9be c9ea a73d 0e6e 1b3c b75b 583e
000000d0: f0bd e83e 38df e53e c9ce ad3d 5a38 f53d
000000e0: b698 3c3e 62ef 4e3e b36c 993a e260 8c3e
000000f0: ed47 193d 66af 2bbe bd63 b63d a136 6ebe
00000100: 830f 51bf 19c0 b7be c7b2 4fbe e2f7 44bf
00000110: 05c3 78be 7ed3 07be fa64 9bbe 7289 223d
00000120: 10f3 c4bd de54 633d 89ca b83e 2f02 91be
00000130: cc1b 70be f827 a73e 2a8c ec3c 55bd 3d3d
00000140: e033 d03e 4c13 39be d3cb 89be 62fa 1fbe
00000150: f8b9 9b3a a5e6 93be a50f 1abe eb46 e63e
00000160: ae94 f13d 0654 da3d 422b 47bd f016 eabd
00000170: b603 c23c f6ec 80be b0b1 85be 98de 39be
00000180: 92f0 0dbe c058 76be 6316 9bbd 3b0e 9fbe
00000190: 4dd3 3c3d 56e4 2c3e febd 8bbe 11e7 713e
000001a0: ff80 af3e 82b3 c7bd e86d a43e a269 9d3e
000001b0: 36d1 89be cd76 6abe a882 c5bd 5c49 a1bd
000001c0: 78d4 7eba 2bc4 9ebc bd63 4e3e 0b4d bf3c
000001d0: 2f34 953c a76e f33d f230 2a3f 7cb1 f23e
000001e0: 3f8a c93e 7f30 4a3f 481b 0b3f 7dcd c33e
000001f0: f54c 063f cc35 323d 934e 94be 65e0 1abe
00000200: 3711 ffbc db93 eebe 8ee6 0abf f3b3 cdbe
00000210: 74e0 febe d746 2fbf c6c0 20bf 3652 93bd
00000220: 9bab e03e 1315 203e 33fd d63d b041 ac3e
00000230: 5324 c63e 6965 02bd d259 23bd eee0 6dbe
00000240: f29f 373e 3b51 983d f716 a8bd 4ddf c0be
00000250: a3b9 b6be 248e 67be e29d 03bf 2592 e8be
00000260: 4773 a4be 2340 713d 6119 8e3e d1a7 ab3e
00000270: 4f35 903c c929 553e 0946 fc3d 119c b13d
00000280: c97f 273e 9c2b d43d b13e 09bf 8058 0ebf
00000290: 4007 19bf dc87 4dbe 3cae 85bd 89b1 eebd
000002a0: 419d 7cbe 2c72 b13b 0474 a63b 4633 833c
000002b0: e1b7 2d3e 6ad4 99be 5f34 a73e 4301 b23e
000002c0: 785f e8bb cc27 0abe c4f1 a5be b78b 03bf
000002d0: 7241 fb3e 62f3 9e3e 18ae 293f 1c2b bd3e
000002e0: 8a3b 9d3c e299 8d3e d5e6 953e 1c62 eebd
000002f0: b4a3 333e d7d2 893d 564c e0bc 9c86 ccbd
00000300: 38f5 5d3d e04a 3abe 14b0 45be bc74 3c3e
00000310: 683a 513e 207e 34be 2481 36be dc96 bdbd
00000320: cafc 54bb cd5b 6abd 11af 7e3e c048 4ebd
00000330: 788b bf3e d088 bc3e 3335 d83e 569b 7abe
00000340: de7b 84be 7cf3 5cbe 0fa3 613e f774 3e3e
00000350: cebb ccbd 337f 833e 77b8 803e d065 d63d
00000360: add9 c33d 2241 8b3e aa1b ec3d fe86 f83d
00000370: b85f a23e 319a 893e ae2a 1e3e af42 c43d
00000380: 6d66 88bc 718d 05bf 2952 55bf e439 52bf
00000390: c32f f7be ca79 33bf 76d8 ebbe 86e7 10be
000003a0: 9ff5 b4bd 96e6 e73d 9467 c4bd eae6 923e
000003b0: b387 05bd 5f04 b1bc 2cbf eb3e 2908 933d
000003c0: c7df d93d e2b5 c23e a606 15bd 316f 813d
000003d0: 6350 b63d 9d8e 33be e63c 0d3e b2e3 47be
000003e0: 8042 90be 009d 8fbc dc01 bfbe 4b9f 3fbf
000003f0: a879 1cbe 8db8 86bc b019 343d 8b24 6bbe
-0.2833098 -0.025008004 -0.3094753 -0.28366458 0.10839285 -0.045364726 -0.35898525 -0.2692659
-0.5281601 -0.3278013 0.17903195 0.20864317 -0.1775749 0.43381205 0.35700113 0.08672584
0.54027015 0.32840928 0.28075656 0.3937172 0.37794676 0.43988305 0.8341082 0.5619284
0.28316516 0.5615549 0.39976087 0.31521893 0.28292608 0.16620824 -0.4049759 -0.2936589
-0.3285265 -0.3035465 -0.5123995 -0.29298937 -0.22719032 -0.1643483 -0.09369888 -0.17766377
0.015773851 -0.09955416 -0.0021477533 0.27077547 0.13694088 -0.527426 -0.2181895 -0.15995069
-0.3301263 0.081990786 0.009486688 0.21128736 0.4545741 0.44896865 0.08486707 0.11973639
0.1841763 0.20208505 0.0011705369 0.27417666 0.03742211 -0.16766128 0.08905742 -0.23263027
-0.81664294 -0.35888746 -0.20283042 -0.7694074 -0.24293144 -0.13264272 -0.30350477 0.03968186
-0.09616673 0.055500858 0.36092022 -0.28321978 -0.23448104 0.3264768 0.02887543 0.04632314
0.40664577 -0.18073767 -0.26913318 -0.15622857 0.0011880985 -0.28886905 -0.1504503 0.4497598
0.117959365 0.106605574 -0.04862524 -0.11430156 0.02368341 -0.25180787 -0.26112127 -0.18151319
-0.13861302 -0.24057293 -0.07572629 -0.31065544 0.04609995 0.16883978 -0.2729339 0.23623301
0.34278104 -0.09751035 0.32115102 0.30744654 -0.26917428 -0.22896881 -0.09644061 -0.0787532
-0.00097209914 -0.01938065 0.20155235 0.023352167 0.01821336 0.1188634 0.66480935 0.47401035
0.39363286 0.7898025 0.543385 0.38242713 0.5246118 0.043508336 -0.28966197 -0.15124662
-0.031136138 -0.4659718 -0.5425805 -0.40176353 -0.4978062 -0.6846747 -0.6279415 -0.07193415
0.43880925 0.15633039 0.10497513 0.33643866 0.38699588 -0.031834994 -0.03988058 -0.23230335
0.17932108 0.074373685 -0.08207505 -0.37670365 -0.35688505 -0.22612816 -0.51412785 -0.45424
-0.321192 0.058899056 0.27753738 0.3352647 0.017603545 0.20816721 0.12318046 0.086723454
0.1635734 0.1035988 -0.53611284 -0.5560379 -0.5977669 -0.20071357 -0.06527373 -0.11654956
-0.24669363 0.0054152217 0.005079748 0.01601566 0.16964675 -0.30044872 0.32657143 0.34766588
-0.007091459 -0.13491744 -0.32411015 -0.5138506 0.49073368 0.3104506 0.6628127 0.36946952
0.01919343 0.27656466 0.29277673 -0.11639807 0.17542917 0.06729668 -0.02738015 -0.09986612
0.054188937 -0.18192625 -0.1930545 0.18403906 0.20432436 -0.17626238 -0.178227 -0.0925729
-0.0032499307 -0.057216454 0.2487147 -0.05036235 0.37411094 0.3682313 0.42228088 -0.24473318
-0.25875753 -0.21577257 0.22034858 0.18599306 -0.099967584 0.25682983 0.25140736 0.10468638
0.09563003 0.2719813 0.11528714 0.12135123 0.31713653 0.2687545 0.15445969 0.095830314
-0.016650403 -0.5216895 -0.8332849 -0.82119584 -0.48278627 -0.7010771 -0.46063584 -0.14150819
-0.08835911 0.11323278 -0.095900685 0.28691798 -0.032600116 -0.02160853 0.4604429 0.07179291
0.10638385 0.3802939 -0.036383294 0.06320036 0.08902051 -0.17534871 0.13792762 -0.19520453
-0.28175735 -0.017530918 -0.37306106 -0.74852437 -0.15280783 -0.016445423 0.04396981 -0.22963159

layer1.0.bias f4 [64]
00000000: 1697 9841 34cb 9a41 2a74 9741 da01 b841
00000010: 7e2d a741 86ab 9941 6a29 aa41 25c1 c641
00000020: b1d2 b141 bbac 8841 a3da c341 842b b941
00000030: e8c8 9b41 9a6d a641 5312 9141 aa6f 9941
00000040: 39a0 4b41 8b0d bd41 575c 9b41 b796 8941
00000050: 3c03 cf41 b10d ae41 1fcf c241 f655 6141
00000060: 9f5e 8241 6264 a241 634b b041 260d a341
00000070: 56b7 a141 9541 a841 60fe 9441 b5a8 9841
00000080: 0e9b 8f41 34e8 8341 8587 8241 613e ae41
00000090: b956 9041 eb99 9f41 99eb b041 baf2 ac41
000000a0: 9fd8 ab41 9203 a741 5c2a 8441 8222 9d41
000000b0: 9177 8641 d8bc b041 2695 bc41 2995 a941
000000c0: bfbe a141 b24d 9a41 6828 9b41 fb1a 8e41
000000d0: 8938 9341 ed6e 8c41 43fd a841 77e7 b041
000000e0: 6452 a141 dec8 b641 3e9e 9841 d11b ac41
000000f0: fb57 ac41 2a9d a941 f667 b341 8388 9a41
19.073772 19.34922 18.93172 23.000904 20.897213 19.208752 21.270222 24.844309
22.227877 17.084341 24.481756 23.146248 19.473099 20.803516 18.133947 19.179523
12.726617 23.631613 19.420088 17.198591 25.87658 21.756685 24.351133 14.083487
16.296202 20.299015 22.03681 20.38142 20.21452 21.032022 18.624207 19.082376
17.95071 16.48838 16.316172 21.780458 18.042345 19.950155 22.115038 21.618519
21.480772 20.876743 16.520683 19.64185 16.808382 22.092209 23.572826 21.197832
20.218138 19.287937 19.39473 17.763174 18.402605 17.554163 21.123663 22.11302
20.16523 22.84808 19.077267 21.513582 21.54296 21.20174 22.425762 19.316656

layer1.1.weight f4 [64]
00000000: f084 7b3f 680e 7d3f 22e2 783f 09e6 a13f
00000010: 91ba 903f 66d3 7c3f c353 8c3f 6fe1 883f
00000020: b6d1 8d3f 4059 313f 03a7 9e3f 411c 923f
00000030: 978d 973f d6ee 783f 1f29 6a3f 135e 733f
00000040: 4176 e43e 71b5 a63f 9ae0 683f 1e44 513f
00000050: 6dbe aa3f b220 8e3f 696c a33f c202 233f
00000060: 3c97 3b3f efa2 743f f83e 7f3f c480 933f
00000070: b997 9b3f 2bf9 9a3f 8d0e 803f 3611 683f
00000080: 97ba 863f 3b91 3b3f 173c 313f afcd 783f
00000090: 6a68 903f df34 8c3f b76b 873f c192 8f3f
000000a0: c31d 873f 2b5a 9f3f 4ea2 6b3f b233 6e3f
000000b0: 3c6c 593f d51a 7a3f 81af 973f 622b 7a3f
000000c0: 383c 883f a9aa 6a3f d9b5 643f 5dc5 743f
000000d0: c6bd 5d3f 0675 4f3f b61d 8d3f 9998 943f
000000e0: 7cd5 993f 1992 8e3f 83af 7d3f 9f23 743f
000000f0: c486 973f e648 8f3f ad8f 943f 693b 8b3f
0.9824972 0.9885011 0.9722005 1.2648326 1.1306936 0.9876007 1.0963062 1.0693797
1.1079624 0.6927681 1.2394718 1.1414872 1.1840085 0.97239435 0.91468996 0.9506542
0.4462147 1.3024122 0.90967715 0.81744564 1.3339363 1.1103728 1.2767459 0.63676083
0.7327764 0.95561117 0.9970546 1.1523671 1.2155677 1.210729 1.000444 0.9065126
1.0525693 0.7326848 0.69232315 0.9718885 1.1281865 1.0953635 1.0579747 1.1216661
1.0555958 1.2449392 0.9204453 0.9304763 0.8493078 0.9769719 1.1850435 0.97722447
1.0643377 0.91666657 0.8933998 0.9561365 0.86617696 0.8103794 1.1024692 1.1609069
1.2018275 1.1138335 0.99095935 0.95366853 1.1838002 1.1194122 1.1606346 1.0877506

layer1.1.bias f4 [64]
00000000: ce8f 12bf 0b75 9bbe 6087 0fbf 410e 39bf
00000010: 6b49 e9be 45b6 bdbe 7d98 50bf cd70 64bf
00000020: 0729 31bf 2b94 0fbf 84ed 0dbf 9f21 42bf
00000030: 7f1c eabe 3e2e 59bf 68b7 e2be 86ce 0cbf
00000040: 0108 d9be 999f acbe 081a eabe 8d4d c4be
00000050: c38f 8ebe 716d b8be 2342 04bf 862b 0dbf
00000060: 27e6 1bbf 1b43 f9be 1b95 0ebf 81a1 13bf
00000070: dfa7 dd3d 4a66 b4be 68ab b5be f0c3 43bf
00000080: 6718 1cbf 3bc5 48bf 2514 36bf b543 fabe
00000090: e156 cfbe d56d 9bbe 9a2c 25bf 4a87 35bf
000000a0: c091 01bf 0f6c dcbe f80f 99be 60b1 3cbf
000000b0: db74 e3be c6c7 a5be fe0f 30bf 48e4 16bf
000000c0: be37 19bf b1dc 0dbf d98d 40bf e585 0cbf
000000d0: 8506 23bf e8ce 1abf 3ba9 f5be ab93 fabe
000000e0: 0df6 f6be 4b5d 3dbf b3b7 fcbe 9e7a e2be
000000f0: 920f 03bf f953 22bf f4aa 19bf ecf2 9dbe
-0.5725068 -0.30362734 -0.5606594 -0.72287375 -0.45563826 -0.37053123 -0.8148268 -0.8923462
-0.6920323 -0.5608546 -0.55440545 -0.7583255 -0.45724866 -0.84836185 -0.44280553 -0.5500263
-0.4238892 -0.33715513 -0.45722985 -0.38340417 -0.27844056 -0.36020997 -0.51663417 -0.55144536
-0.6089806 -0.4868401 -0.55696267 -0.5766831 0.108230345 -0.3523429 -0.35482335 -0.7647085
-0.60974735 -0.7842595 -0.7112449 -0.4887978 -0.4049597 -0.30357233 -0.6452118 -0.7090956
-0.5061302 -0.43051192 -0.29894996 -0.7370815 -0.4442509 -0.32378978 -0.687744 -0.5894208
-0.5985068 -0.55414873 -0.7521644 -0.54891807 -0.63681823 -0.60471964 -0.47980675 -0.48940787
-0.48234597 -0.7397048 -0.493589 -0.44234174 -0.51195633 -0.6340938 -0.6002648 -0.30849397

layer1.1.running_mean f4 [64]
00000000: 754a 8d3e 8710 e1c0 b047 96c0 b8c0 8c41
00000010: d945 40c1 a4b3 8ebf 8e61 0cbf 1b02 8841
00000020: 331a 7341 6338 5a41 e184 d141 f900 9441
00000030: 9d11 f13f 298e 0e40 a194 61c0 3cfb e840
00000040: d437 3b41 79fe f241 c7b6 e7bf f34d da40
00000050: 1c4a 6741 2dbb 1440 5780 4141 8dfe 9a3f
00000060: 7d77 98c0 7f51 39bf 942e 8d41 87fa f1be
00000070: 08fe 5340 18fa 0bc1 15be bebf 9eaf ca40
00000080: 999d 9241 bf6d 8341 6f01 b940 4f68 5740
00000090: e236 23c1 7ed0 a240 7aa5 4f41 ce11 293f
000000a0: bc39 a641 ef13 0f3f f70b d13d 0710 af40
000000b0: 6f11 2dc0 bbef 1e41 2f76 3e40 4e77 ba40
000000c0: b535 9640 f08d 91c0 85b1 ed40 a4ce 6dc0
000000d0: 57ee 8540 40d9 c141 569b 6ac0 2335 d940
000000e0: ef7d 3241 a1dd cf40 99c6 20c0 2460 1340
000000f0: f5d7 9441 a855 1142 c5a1 1441 b14b 8f40
0.2759587 -7.0332675 -4.696251 17.5941 -12.017053 -1.1148572 -0.54836357 17.001028
15.193896 13.638766 26.189882 18.500475 1.88335 2.2274268 -3.5246966 7.2806683
11.70113 30.374254 -1.8102654 6.8220153 14.455593 2.3239243 12.093833 1.2108933
-4.764586 -0.7238998 17.647743 -0.4726145 3.3123798 -8.748558 -1.4901758 6.3339376
18.326952 16.428587 5.781425 3.3657415 -10.200899 5.0879507 12.9779 0.6604279
20.77819 0.5588979 0.1020736 5.4707065 -2.704189 9.933528 2.9759634 5.8270636
4.694056 -4.5485764 7.42792 -3.7157373 4.185344 24.23108 -3.665731 6.7877364
11.1557455 6.4958043 -2.5121214 2.302743 18.605448 36.33365 9.2894945 4.4779897

layer1.1.running_var f4 [64]
00000000: ff54 2043 05be 0843 3715 f342 6586 9042
00000010: 68fb ed42 6f44 d142 d419 f942 ec42 8142
00000020: 41ac b542 c846 b142 9c9b ba42 c782 fe42
00000030: d623 0043 3575 a142 6258 ec42 2345 e942
00000040: 3c24 2443 3447 1143 0560 d842 4503 db42
00000050: a62a c042 9f0c ad42 38db 9c42 638e 0d43
00000060: 75ea f942 7a1d f842 9932 8342 2a90 fe42
00000070: 9e9b 3943 44e7 0343 778d 4243 167a d442
00000080: 4a87 d142 1bcb 8342 86b7 ff42 07f9 c342
00000090: 95fb 0d43 4464 ed42 473a c742 683d c342
000000a0: e484 bd42 1ca7 f542 cc47 1e43 3930 de42
000000b0: 08ea f942 937d 9642 10bf a242 c20e 9942
000000c0: cb14 ca42 19ef cf42 900f a642 d4ce 3143
000000d0: 8e66 cf42 bd9d ac42 6f65 3a43 c70e cb42
000000e0: a366 0743 f3d3 b942 243b aa42 361e c842
000000f0: d3d5 a342 a8f7 0043 f39e ba42 cc97 0043
160.33202 136.74226 121.541435 72.26249 118.99103 104.63366 124.550446 64.63071
90.83643 88.638245 93.303925 127.255424 128.13998 80.72892 118.17262 116.63503
164.14154 145.27814 108.18754 109.506386 96.0833 86.52465 78.42816 141.5562
124.957924 124.05757 65.59882 127.28157 185.60788 131.90338 194.5526 106.23845
104.76424 65.89669 127.858444 97.98638 141.98274 118.69583 99.61382 97.619934
94.75955 122.826385 158.28046 111.094185 124.95709 75.24526 81.37317 76.528824
101.04061 103.96699 83.030396 177.80792 103.7003 86.30808 186.39622 101.52886
135.40092 92.91396 85.11551 100.059006 81.917625 128.9674 93.31045 128.59296

layer2.0.weight f4 [64, 64, 3, 3]
00000000: a5e2 5bbe cec2 35be f60f 12be 6fb5 e1bd
00000010: 32f6 d3bc 5eb3 c13d 8aa1 94bd 519b a93b
00000020: cbc6 d13d a0ec 143f a0d0 4d3f 519c 8f3e
00000030: 24cd f23d 97db 2c3f b9b7 223d 4db0 a4be
00000040: c7aa ab3d 0c52 d7be 0c8c 1e3e 740f 783e
00000050: 3945 b93c 47ec f33d 4c2f b93e 59cf 8d3e
00000060: 10d6 86be cdf0 483c 30a8 bc3d f1c6 7ebe
00000070: c7ff 02bf a319 3abf 89f9 a8be ebee fbbe
00000080: 5d73 26bf 0a98 21be 7d0b 06be 0e9d 9ebe
00000090: e543 e6be 07f5 d6bd 500c 84bd eb03 08bf
000000a0: 95fd 71bd 5db7 2b3d 505b abbe 1cac 3dbd
000000b0: 2d01 50bd f06d 953e cc46 f73e e4dc cb3e
000000c0: 2a6b 053e 7d3e 073f 9efc 563e 49e1 1bbd
000000d0: af02 49bc 5493 353d c4a3 17bf 1d35 a8be
000000e0: a022 bcbe 2e8e 89bd d87b 5fbd e959 80be
000000f0: 3bed 753e 9e1e be3e df44 233e 957f a4be
00000100: adce afbe c5e3 6dbe 96f1 44be 6b18 d6bd
00000110: c82f a7bd 51d2 c9be 0e24 84be 5b3e c9bd
00000120: c2e3 7ebe 59b5 0ebf 33c9 03bf 49a3 57be
00000130: 9e7c adbe cd7e 49be 60cf f93b 92f1 923d
00000140: 3790 9e3d c7ed edbe 62fe 22be a330 b2bd
00000150: a137 52be cca8 f03d 2fa1 803e 63ee 923d
00000160: 57b4 773e 9f0a 543e fbc4 79bf 5a06 20bf
00000170: a610 62bf 5db0 32bf f3a7 e9be 50c3 22bf
00000180: eeb5 a0be 6b4e 3dbd 94b0 a1be 9a16 18be
00000190: 29b1 9ebe 8ef0 8dbe eafa 53bd e403 00be
000001a0: b591 91be ea99 c8be 8384 a6be 2709 70be
000001b0: b776 3bbe 778f 7ebd e31d d7bd 2b7a 34be
000001c0: 5361 22bd 2649 afbd a3a4 29bf 48a0 f6be
000001d0: 4a5d 99be 57eb 89be 99dc 8bbd 67cf 943c
000001e0: 59ae c8be c37b 1cbe a1ba 883c 4242 05bf
000001f0: a0e3 afbe bb2d 72be 5088 4abe 9707 63be
00000200: 3023 45be c1cb ecbe 8d3b 16bf 0668 2bbf
00000210: f133 99be 652e f7be 5dd9 0bbf 81de 753e
00000220: a294 893e 80fe 1c3e c726 343c f5d4 bc3b
00000230: ad35 033e 8f60 1c3e c721 613d 1815 383e
00000240: 006f 193e 45ea 003e d131 083e f08e 71be
00000250: 45af 7abe 47b0 69be 758c 82be 2c1b 87be
00000260: f005 aabe 1b40 ecbe dae5 0ebf ca8f e3be
00000270: 9c4f f8bd ce85 91be 6543 1dbe af62 253e
00000280: 698a 873e 348f d53e abf6 adbe 67f2 83be
00000290: b7eb eebe 38e6 1cbe ed9b 19be 4e3b 19bf
000002a0: ed94 553e 2b30 253e 27c8 5cbe 2285 023c
000002b0: d090 bc3d dee5 c33c c37f be3d d09c 903e
000002c0: 9ae1 453e 27f6 7d3e 578e 743e 9fc9 343d
000002d0: 34f1 c63e 4049 9e3e 74f2 863e eaa0 ac3e
000002e0: 1a9b bf3e 2630 5c3e 92f7 c93e de35 1a3f
000002f0: 69fd cc3e 9043 b33d b0cf 0d3e 30a0 7f3d
00000300: a0ce 91be 842c 3abe 1ca7 90be 1b98 ddbe
00000310: f8c7 c8be 2618 3fbf 56e3 24be 021e ae3d
00000320: 25be 753d cf05 e5bd 8694 3f3e 1020 5a3e
00000330: aaf4 503e c1e3 753e 0036 a83e 69ea 9ebc
00000340: 8b4d cb3e c53c 3c3e 2601 1f3d 4884 203f
00000350: b958 ba3e f59d 48be 50af a03e dd53 a63d
00000360: 0963 94bc b917 8d3e 1a32 b8bd 51cc 763d
00000370: eeb9 943e 8b4e 203e 0c91 e5bd ecab af3e
00000380: 20dc 993e 211a bcbc db84 d83e 5ea0 403e
00000390: 5599 453e b98f 893e 240d 6b3e bf29 32bd
000003a0: 4f42 283e feca ccbc 840b cb3e 9589 323f
000003b0: 3ad2 903e 511e c23e b04f 2c3f 3ddb c23e
000003c0: d0b5 0b3d 41e3 7d3e c80d 20bd 958d 153d
000003d0: b7df 9bbd a830 86be 1ff0 8d3d 9604 cd3d
000003e0: 644c 9a3d 4250 053f 2e02 fe3e 350f 1b3f
000003f0: c4d0 c4bd 3dc5 30bd b10d 1dbe d399 4cbd
-0.21473177 -0.17750093 -0.14263901 -0.11020934 -0.025874231 0.0945804 -0.07257374 0.005175986
0.10242995 0.5817356 0.8039646 0.28048947 0.11855534 0.6752257 0.039725993 -0.32165757
0.083821826 -0.42054784 0.15483111 0.24224645 0.022616016 0.11910301 0.36168897 0.27697256
-0.26335192 0.012264443 0.09211767 -0.24880578 -0.51171535 -0.7269537 -0.3300288 -0.49205717
-0.6501978 -0.15780655 -0.1309032 -0.30979198 -0.44973674 -0.10495954 -0.06447661 -0.5313098
-0.059079725 0.041922916 -0.33468103 -0.046306714 -0.05078237 0.29185438 0.482962 0.39816964
0.13029161 0.52829725 0.20994803 -0.038056646 -0.012268706 0.044329956 -0.5923426 -0.32853022
-0.36745167 -0.06716572 -0.054561466 -0.25068596 0.24016277 0.37132734 0.15944241 -0.32128587
-0.3433737 -0.23231418 -0.19232783 -0.10453876 -0.081634104 -0.3941827 -0.25808758 -0.098263465
-0.2489157 -0.55745465 -0.5147888 -0.21058382 -0.33884138 -0.19677277 0.007623598 0.07174982
0.077423505 -0.46470472 -0.15917352 -0.08700683 -0.20529033 0.117509454 0.25122973 0.07174375
0.24189888 0.20707177 -0.97566193 -0.6250969 -0.88306653 -0.6980036 -0.45635948 -0.63579273
-0.313888 -0.046217363 -0.3158003 -0.14852372 -0.30994537 -0.2772259 -0.051752962 -0.12501484
-0.28431478 -0.39179927 -0.32522973 -0.23440991 -0.18307005 -0.062148537 -0.10503747 -0.17624728
-0.039643597 -0.08558874 -0.6626684 -0.4816916 -0.29953986 -0.26937363 -0.06829185 0.018165303
-0.39195517 -0.15281586 0.016690554 -0.52054226 -0.34353352 -0.23650257 -0.19778562 -0.22170864
-0.19251704 -0.46249202 -0.5868462 -0.669556 -0.2992244 -0.48277584 -0.54628545 0.2401066
0.2687121 0.15331459 0.010995573 0.005762691 0.12813444 0.15271209 0.054963853 0.17976797
0.1498375 0.12589367 0.13300253 -0.23589683 -0.24480923 -0.2282115 -0.25497785 -0.26387918
-0.33207655 -0.4614266 -0.55819476 -0.4444564 -0.12124559 -0.28422397 -0.1535774 0.16150926
0.26472786 0.41710818 -0.33977255 -0.25770876 -0.4666421 -0.15322196 -0.15000887 -0.59856117
0.20857592 0.16131656 -0.21560727 0.007966312 0.09207308 0.02391332 0.09301712 0.28244638
0.19324341 0.24800931 0.23882423 0.044137593 0.38855898 0.3091526 0.26356852 0.33716518
0.3742302 0.21502742 0.39446694 0.60238445 0.40037087 0.08753121 0.13848758 0.062408626
-0.28477955 -0.18181044 -0.28252494 -0.4328011 -0.39215064 -0.7464622 -0.16102347 0.08501817
0.05999579 -0.111827485 0.18709001 0.21301293 0.20405832 0.24012662 0.328537 -0.019398885
0.39707598 0.18382557 0.038819455 0.62701845 0.36395815 -0.19591506 0.31383753 0.081214644
-0.01811363 0.2755716 -0.08993931 0.060253445 0.29048103 0.15654962 -0.11209306 0.34310853
0.30050755 -0.022961678 0.4228886 0.18811175 0.19296773 0.26867464 0.22954232 -0.043496843
0.16431545 -0.024999138 0.39657223 0.69741184 0.2828539 0.37913755 0.67309093 0.3805789
0.034108937 0.24793722 -0.039075643 0.036511976 -0.076110296 -0.26208997 0.06930565 0.1001064
0.075341016 0.5207559 0.49611038 0.6057008 -0.096101314 -0.04315685 -0.15337254 -0.049951386

layer2.0.bias f4 [64]
00000000: 2cec 9041 5d1f 9841 99a0 9f41 af02 8141
00000010: c51e 9641 db74 8b41 46e3 8d41 a9c2 5e41
00000020: 1ea1 8d41 0570 9041 43c6 9441 25c1 7741
00000030: 205e 9341 2572 8041 090c 9741 a0ef 8e41
00000040: 2bbe 9f41 26b7 8e41 68ab 9741 9f21 a141
00000050: 73ec 9341 d89b 8b41 53b0 a641 e951 a241
00000060: b3d2 9741 1249 9941 6da0 5b41 5d04 a841
00000070: 5129 9441 3fa0 6d41 e5d6 8841 0c69 8d41
00000080: 7bd8 a441 5245 9041 319f 9041 a502 9741
00000090: ae06 9641 2025 a041 804c 9c41 0ce3 8541
000000a0: 1cba a341 507f 8f41 1b5f 8b41 54b4 9341
000000b0: d435 8f41 3d70 8141 922f 9741 3ae2 9541
000000c0: 1ec8 8741 b574 a441 fb4b 8f41 d832 9341
000000d0: fabb 9941 7b5d 8641 3c9b 9641 2e68 a541
000000e0: 57f5 8641 f18b 9841 1e29 7541 d9da 8e41
000000f0: 2175 9841 a4bd b441 103b 7641 6b20 9541
18.115318 19.015314 19.953417 16.12631 18.765024 17.432058 17.735973 13.922524
17.70367 18.054697 18.596807 15.484654 18.42096 16.055735 18.880877 17.867004
19.967855 17.839428 18.958694 20.141417 18.490454 17.451096 20.836096 20.289995
18.97788 19.160679 13.726666 21.00213 18.520174 14.851623 17.104929 17.676292
20.605703 18.033848 18.07773 18.876291 18.753262 20.018127 19.537354 16.735863
20.465874 17.937164 17.421438 18.46305 17.901283 16.179804 18.898228 18.735462
16.972713 20.556986 17.9121 18.399826 19.216785 16.795645 18.825798 20.675869
16.869795 19.06833 15.322538 17.85686 19.057192 22.592598 15.38942 18.64083

layer2.1.weight f4 [64]
00000000: ba03 7a3f 1429 843f 7e78 a03f 1ce6 813f
00000010: 118d 673f 90d5 7d3f b181 7a3f 5378 463f
00000020: 7896 573f a707 8b3f 2db3 913f f8c1 503f
00000030: 1bd5 673f 9c12 593f ba44 893f 0025 913f
00000040: e599 963f d407 7d3f d7c5 8e3f 6474 893f
00000050: 907a 833f 3063 813f a3e8 993f 4aa3 963f
00000060: c4ec 8a3f ff7c 823f 09d7 673f eee5 a83f
00000070: 5018 953f 0870 623f fbde 5d3f 703e 943f
00000080: 2d07 933f 3fa4 963f 3c2f 843f 3cd1 5e3f
00000090: f454 a13f c577 923f 11bc 8d3f 22be 633f
000000a0: b513 b23f e6f2 793f 8d24 6b3f 74d6 7b3f
000000b0: 039c 803f 21ae 693f 0016 813f 787d 8d3f
000000c0: bd31 6b3f 81bb a43f a2d3 813f 5f2d 703f
000000d0: 2e67 8f3f db12 643f 5224 973f 23b7 913f
000000e0: 5af3 4e3f eee8 733f 58c3 493f ffdf 933f
000000f0: b872 843f 0949 963f 4363 5a3f 19c0 793f
0.97661936 1.0325036 1.2536771 1.0148349 0.90449625 0.99153996 0.97854143 0.7752735
0.8421397 1.086171 1.1382805 0.8154597 0.9055955 0.8479402 1.0724099 1.1339417
1.1765715 0.9884007 1.1154126 1.0738645 1.0271778 1.0108395 1.202412 1.1768582
1.0853505 1.0194396 0.9056249 1.3195169 1.1648045 0.88452196 0.86668366 1.1581554
1.1486565 1.1768874 1.0326915 0.87038016 1.2604051 1.1442801 1.1073018 0.88961995
1.3912264 0.9763626 0.9185265 0.98374104 1.0047611 0.91281325 1.0084839 1.1053915
0.9187277 1.2869722 1.014271 0.9381923 1.1203363 0.8909127 1.1807959 1.1384014
0.80840075 0.952773 0.78813696 1.1552733 1.0347509 1.1741039 0.8530771 0.9755874

layer2.1.bias f4 [64]
00000000: 1723 86be ef30 13be 10f5 babe d3f2 153e
00000010: afe8 88be e64c 123c 1270 19bf 7901 3abe
00000020: ac00 ecbe 559c 02bf 485a 9cbe 3be4 0abf
00000030: 8115 04bf c811 14bf 5860 44be 2284 cabe
00000040: f84f 22bf f39f 54bd 9dae c4be 8bcc 04bf
00000050: d8b1 9abe 4f80 a3be ec57 88be e9ca 51be
00000060: f713 c8be 5729 41bf 63e6 b2be fcb2 01bf
00000070: 7d98 dcbe 0633 8ab9 6d89 0ebf d581 45be
00000080: efab 13bf 11d9 4fbf cd5f 0cbf 4868 0cbf
00000090: 98da b9bb 69c7 31bf 7549 dcbe f39c 87be
000000a0: 5e0e c73d c21e 0abe 087d 30be 77b2 0bbf
000000b0: e053 89be 801c a3be f5b3 8ebe 3526 92bd
000000c0: dee4 37be 0d87 18be b5e1 01bf 3b3c 56be
000000d0: fb2c e0be ef97 e2be 0b76 12be f854 ccbe
000000e0: 48e2 27be 38bd 7abe 7e89 c5be bf2a 0ebd
000000f0: ed03 d2be dc96 60be 734c b3be 47e1 dcbe
-0.26198646 -0.14374135 -0.36515093 0.14643411 -0.26740023 0.008929467 -0.5993663 -0.18164624
-0.46094263 -0.51019794 -0.3053763 -0.542545 -0.5159531 -0.5783963 -0.19177377 -0.39553934
-0.6340327 -0.051910352 -0.3841447 -0.5187461 -0.3021381 -0.3193383 -0.2662958 -0.2048756
-0.39077732 -0.75453705 -0.34941396 -0.50663733 -0.4308509 -0.00026359427 -0.55678445 -0.19287808
-0.57684225 -0.8119059 -0.5483368 -0.5484662 -0.0056718104 -0.694449 -0.43024793 -0.2648693
0.09719537 -0.13488296 -0.17235196 -0.5456919 -0.26821804 -0.3185768 -0.2787167 -0.07136194
-0.179584 -0.14895268 -0.50735027 -0.20921414 -0.43784317 -0.4425654 -0.14302842 -0.39908576
-0.16394913 -0.24486244 -0.3858146 -0.034708735 -0.4101862 -0.21932548 -0.35019264 -0.43140623

layer2.1.running_mean f4 [64]
00000000: b3e7 d83f 383b d140 4f93 b7c0 0a70 1241
00000010: e66c d7bd 84cc d140 30f8 e53e 6c50 1241
00000020: c917 fa41 dafb 5b41 9dcc 9fc0 58e2 ff41
00000030: ab04 5640 0d49 9141 c2dd 3f41 367f 64c0
00000040: a70c 3d41 c185 b441 f6e6 10c1 c3fc 9240
00000050: 76fe 47c0 5c2b 2141 9587 80bd c592 0bc1
00000060: e1f2 6e41 e9f9 4341 cf45 9a41 aec7 0241
00000070: 31cb a641 3bd2 c9c1 4b02 2240 1549 1ac1
00000080: b5bc ab40 8969 21c1 91bc 82c1 58c8 8f3f
00000090: 8e0a 0740 a2d8 9641 ea9c 5641 dcea 22c1
000000a0: 2ea0 d1c0 583b 86c0 cafd 6d41 cd34 8fc0
000000b0: 9629 80c0 ce24 2bc1 7b20 8b41 c19c 6241
000000c0: be14 ae41 48a6 fd40 2d04 b3bf 0cda 3abf
000000d0: 0f2c 7a40 1766 6140 cedf 55c1 ef60 a63f
000000e0: 4f29 1e3f f587 c43f 9910 90c1 2562 d7c1
000000f0: 973f 9540 db1b f2bf b044 9240 91b7 0642
1.6945709 6.538479 -5.736732 9.152353 -0.105188176 6.5562153 0.44915915 9.144634
31.261614 13.748987 -4.993727 31.98552 3.344035 18.16067 11.99164 -3.5702643
11.815589 22.56531 -9.056387 4.5933547 -3.124906 10.073086 -0.0627586 -8.723332
14.934297 12.248513 19.284086 8.17375 20.849215 -25.227652 2.53139 -9.642842
5.3667855 -10.088265 -16.342073 1.1233015 2.1100192 18.855778 13.413309 -10.182339
-6.550803 -4.194744 14.87446 -4.4751954 -4.0050764 -10.6964855 17.39086 14.16327
21.760128 7.926548 -1.3985649 -0.72988963 3.9089391 3.521856 -13.36714 1.2998332
0.6178178 1.5353991 -18.008104 -26.922922 4.6640124 -1.8914751 4.5708847 33.679264

layer2.1.running_var f4 [64]
00000000: 64db 2043 f8fb 1e43 531b 4143 9e15 9043
00000010: 67cc 2e43 f9f0 7343 38e7 0243 caa4 6043
00000020: 6def 1d43 e839 3043 ce16 3743 409f 6043
00000030: 7c65 2843 f901 0843 c437 2843 50f7 7043
00000040: af19 0a43 32b7 2043 3c6a 0943 94d3 0e43
00000050: 3ab8 1543 2cf2 8543 43ec 5143 2cfc 3a43
00000060: 762e 2043 2019 e042 a80f 5043 0b21 0843
00000070: e15f 2443 5814 8a43 b656 0843 ce5b 8343
00000080: aebb 2943 54c6 4143 5bf2 2c43 ebce f742
00000090: 1b63 4243 1886 f042 78c2 0843 6b5c 4043
000000a0: 1e7e 5243 22c9 8243 d6d8 8843 2c40 f942
000000b0: 3b5a 2643 b672 1843 571e 1643 3531 5a43
000000c0: 5d91 3643 0ccb 2a43 e4d5 1343 c971 0f43
000000d0: af1d 3643 d183 0043 9dcc 3d43 5bde 1b43
000000e0: aae1 0643 9f66 0543 b78f 2343 7a80 8143
000000f0: ab47 cb42 cc41 f142 96c6 5343 c551 0f43
160.857 158.98425 193.10674 288.16888 174.79845 243.9413 130.9032 224.6437
157.93526 176.2262 183.08908 224.62207 168.39642 136.0077 168.21783 240.96606
138.10033 160.7156 137.41498 142.82648 149.71964 267.89197 209.9229 186.98505
160.18149 112.04907 208.06116 136.12907 164.37453 276.15894 136.33871 262.71722
169.73312 193.77472 172.9467 123.90414 194.38713 120.2619 136.75964 192.36101
210.49265 261.57135 273.69403 124.625336 166.35246 152.44809 150.11852 218.19221
182.56783 170.79315 147.83551 143.44447 182.11595 128.51491 189.79927 155.86858
134.8815 133.40086 163.56139 259.00372 101.63998 120.62851 211.77573 143.31941

layer3.0.weight f4 [64, 64, 3, 3]
00000000: a34e e83e d5f3 e43e 892a 8f3e 1404 0b3f
00000010: 1c2f 133f 3d6c de3e 9b9f 8f3e 760b a63e
00000020: 909a bd3d 0240 66be a8b5 f2be f114 02bf
00000030: 65a2 c2be e075 44bf 0a0c 2dbf fb9e 0ebf
00000040: 69a1 62bf 7f66 5cbf 1d2f b43d 1d23 343d
00000050: 572d 9cbc 44a6 a13e aa57 9e3e cac4 953e
00000060: bfc5 ea3d eea7 91bd 244d 053e be79 943d
00000070: d1ae 013e 0e6c 593d 2355 05be 4811 493c
00000080: a929 f0b9 9de1 75be 7aba 92be 5208 11be
00000090: 76ba 9ebe b845 b5bd 2364 eebd 95d4 ddbe
000000a0: b503 afbe c976 6dbe dcc8 9fbe 7c57 a8be
000000b0: bbab 9cbe 5383 17be 64ac 64be cdf8 a1be
000000c0: e6de 9bbe acf3 cdbe feff 9dbe bba4 bebe
000000d0: b7a2 f2be 9a88 c9be 14fc b8bc 75f8 8c3d
000000e0: 71b0 20bd 78f8 4b3e d800 533e 6cd8 293d
000000f0: 8de2 413e 9bb0 5b3b aa64 d43c 0354 26be
00000100: f730 003d b4ed 8c3d ef8a c5be 826e 58be
00000110: 8ff7 13bd ffcd cdbe a284 4bbe d879 90bc
00000120: 830e a7be ed7d 28be 5407 d03d b9aa cebe
00000130: 4fd3 38be d3d2 1bbd 97db e2be 7d1e 5ebe
00000140: 8d0c 9bbd 0a13 5d3d 86ea f73e dfca d43e
00000150: a5f8 cd3e 8a6a 223f 58b6 063f 7cd9 c33e
00000160: 7768 f43e 9273 af3e 204f 8a3e 2212 863e
00000170: c4a2 7e3d c975 1d3d c51d 3f3e 06f9 b7bd
00000180: a838 91bd df7c 01be bc1c 8abe 7ba4 ebbd
00000190: c9f0 46bd 796c 0b3d 55d1 08bf 0a65 0ebf
000001a0: 42a7 f4be a02d 4abf 5f54 37bf ff65 f8be
000001b0: 7ce3 0cbe fc0d c63d 3a5c 213e 9b9b 7dbd
000001c0: 8f15 963e 9372 813e 6e4c c5bd 3d9f a13d
000001d0: 2a5d 973d c6ed c43c 218e af3e c91b 813e
000001e0: 2980 24be b692 843d 835b d53d a832 8ebe
000001f0: a397 23be 686e 8dbe 0e60 993e 781f b23e
00000200: f1f1 a43e c95f c7bd d76d 1cbe 86a8 4bbe
00000210: 3e0c b4be f74a 09bf 3dfa ccbe 90e8 e93e
00000220: 029c c03e d486 163e b8fb d33e da6e 023e
00000230: 2518 a4bd 7625 043e 80aa 06bd 58cc cfbb
00000240: e5c3 c73e 2bbe 6f3e 7175 4d3b ed88 b73d
00000250: 62b4 bf3d 6c7c c3bd 8f4c 813d 0be8 3d3d
00000260: 53d0 44bc 7ca1 4c3e 679f 853e 95e2 8c3e
00000270: dc35 62bd b26f 4cbd 2caa cabc ce8f ffbd
00000280: 24f9 48bd 9333 dc3d da20 093e abd8 2e3e
00000290: d090 6b3e c60a dc3c f7fd f5bc 28d1 153e
000002a0: 8395 69be 30a1 98bd 0d55 973d 430a 153e
000002b0: ed1c 1b3e 4fed 2f3e e388 dd3d 1e04 01be
000002c0: 7471 8fbd ce1c 69be 5283 94be 3384 3fbe
000002d0: 3c50 733d 1cb2 61be d313 c33d 842f 303e
000002e0: fe9a 89be ed25 6a3c 12da fe3e 50cc b03e
000002f0: 94b5 e03e c29c 78be 3032 3abf 7822 fdbe
00000300: 860b 10be bb08 00bf a88e 9ebe 806e 073e
00000310: 9440 f1bc c827 4c3e 39a6 39bf 70db 26bf
00000320: c82b 15bf 21f2 c2be ea4a bebe 49ef c1be
00000330: 212e 86bd 9c87 d9bc 85b4 fd3c 98f2 3939
00000340: 8fb1 19bd 754b 0d3e 8865 04be 1b3c bd3c
00000350: ac54 023e 136e 7bbe b4f2 13bd 98b3 193e
00000360: a079 0ebe 6818 acbd 3dfe c1be f707 93be
00000370: bba6 c0be c0c8 19bf 0187 d9be 0c6f 9bbe
00000380: 04d4 bfbe 9218 4d3e 8981 ab3e cdd4 cd3e
00000390: c1e0 e53e 236c e43e ba10 b03e 20a4 da3e
000003a0: d3ac c13e c874 313e 6528 6d3d 8b06 383e
000003b0: dbfb 3abd 1e52 4abd 46eb e2bd a4ff 61be
000003c0: d587 97be 1a04 cebe cb39 06bf 95fd 37bd
000003d0: b1c8 7e3d 06b1 f33d 8993 2ebd 56e0 81bc
000003e0: ddb6 303e e9b4 a8bd 0755 2ebd f5a4 203e
000003f0: b23a 07bf d763 39bf 9f32 08bf 60f3 e1be
0.45372495 0.4471728 0.2796214 0.543031 0.5749376 0.43441954 0.28051457 0.3243062
0.09257996 -0.22485355 -0.47404218 -0.50813204 -0.38014522 -0.7674236 -0.67596495 -0.55711335
-0.8852754 -0.86093897 0.08798049 0.0439788 -0.019064588 0.31572163 0.30926257 0.292517
0.11463498 -0.07112108 0.13017708 0.07249783 0.12664343 0.053081565 -0.13020758 0.012272187
-0.00045807406 -0.24011846 -0.28657895 -0.1416333 -0.31001633 -0.088511884 -0.11640193 -0.4332625
-0.34182516 -0.23189844 -0.3120793 -0.32879245 -0.3059977 -0.1479619 -0.22331387 -0.31635132
-0.30443496 -0.4022497 -0.3085937 -0.37235054 -0.47389767 -0.3936203 -0.022581138 0.06883327
-0.039230768 0.19919002 0.2060579 0.04146616 0.18934079 0.0033522013 0.025926907 -0.16242985
0.031296697 0.06881276 -0.3858256 -0.21135905 -0.036124762 -0.40196225 -0.19874814 -0.017636225
-0.3262826 -0.16454287 0.10157648 -0.40364626 -0.18049358 -0.038042855 -0.4430816 -0.21691318
-0.07570753 0.053973235 0.48421115 0.41561028 0.40228763 0.63443816 0.52621984 0.38251865
0.4773595 0.3426786 0.27013493 0.2618571 0.062166944 0.038442407 0.186637 -0.08983044
-0.070908844 -0.12645291 -0.26975048 -0.115059815 -0.048569474 0.034038994 -0.53444415 -0.55622923
-0.47783858 -0.7897587 -0.71613115 -0.48515317 -0.13758653 0.09670636 0.15757838 -0.061915975
0.29313323 0.25282726 -0.096337184 0.078917004 0.073908165 0.02403916 0.34288123 0.2521651
-0.16064514 0.064732954 0.10417845 -0.27773023 -0.15975814 -0.27623296 0.29956096 0.34789634
0.32215837 -0.097350664 -0.15276276 -0.19888505 -0.3516559 -0.5363001 -0.40034667 0.45685244
0.37619025 0.1469987 0.41402984 0.12737599 -0.08012418 0.12904915 -0.032877445 -0.0063414983
0.39016643 0.23412387 0.0031350518 0.089616634 0.09360577 -0.09545216 0.063134305 0.04636387
-0.012012559 0.19983476 0.26098177 0.27516618 -0.055227146 -0.04991121 -0.024739347 -0.124786004
-0.049065724 0.107520245 0.13391438 0.1707484 0.2300446 0.026860606 -0.030028326 0.14630568
-0.2281094 -0.07452619 0.07389269 0.14554696 0.15147753 0.1718037 0.10817125 -0.12599227
-0.07004061 -0.22764894 -0.2900644 -0.18702774 0.05940269 -0.220406 0.095252655 0.17205626
-0.26876062 0.014291269 0.4977575 0.34530878 0.43888533 -0.24278548 -0.7273283 -0.4944036
-0.14066896 -0.5001332 -0.30968213 0.13225746 -0.029449739 0.1993705 -0.7251926 -0.65178585
-0.5826993 -0.38075355 -0.3716653 -0.37877873 -0.06551767 -0.026553921 0.030969867 0.00017733348
-0.03752285 0.13798316 -0.12929356 0.02309995 0.12727612 -0.24553709 -0.03612013 0.15009916
-0.13913584 -0.084030926 -0.3788928 -0.28717014 -0.37627205 -0.60071945 -0.42485812 -0.3035816
-0.37466443 0.20028904 0.33497265 0.40201417 0.44898036 0.44613752 0.3438776 0.42703342
0.37827167 0.17329705 0.05789985 0.17971246 -0.045650344 -0.04939472 -0.11080031 -0.22070175
-0.2959582 -0.40237504 -0.52431935 -0.04491957 0.062203113 0.11898999 -0.04262117 -0.015854042
0.17257257 -0.08237631 -0.042561557 0.15687926 -0.52823937 -0.7241797 -0.5320224 -0.44130993

layer3.0.bias f4 [64]
00000000: 43e1 8b41 f1e5 7041 a9bb 9541 ce3a 9341
00000010: 645c 9641 ec59 8b41 dbcd 9d41 b043 8c41
00000020: 37ec 4241 6266 8941 549f 8a41 bd3b 8041
00000030: 6bbb 9c41 f755 a741 a75b b241 0ddf 9241
00000040: f230 8f41 092d 5b41 7a6d 9341 da93 9841
00000050: b123 6841 d997 9b41 0d19 3d41 8809 a841
00000060: 9fba 8141 af7e 8941 bdab 8041 7c47 8441
00000070: 50a8 9341 14ea 9741 2e53 9041 99c9 9441
00000080: 92e3 9e41 6eeb 7f41 2554 9441 9ea7 7f41
00000090: 5dc1 9641 4c50 9a41 8e06 a141 0cb3 9041
000000a0: 75dd 6041 a0fa 7341 990f 7641 2380 4141
000000b0: 7899 7541 df6d 5341 8187 7041 2cfb 9541
000000c0: fe14 7a41 af52 ae41 9dcf 8841 36fc 8741
000000d0: 343c 5e41 e54f 7841 9334 9a41 3985 a141
000000e0: 79ab 6c41 37a6 4041 1632 8f41 fbc6 9741
000000f0: 4afe 9641 91c3 5541 2b8f 7441 bb55 9541
17.484991 15.056138 18.71663 18.403713 18.795113 17.418907 19.725515 17.53305
12.18267 17.174992 17.327797 16.02917 19.591513 20.916975 22.294752 18.358912
17.8989 13.698495 18.428455 19.072193 14.508714 19.449144 11.818616 21.004654
16.216124 17.186857 16.083857 16.534904 18.457184 18.989296 18.040615 18.598436
19.861118 15.994978 18.541086 15.978422 18.844416 19.289207 20.1282 18.087425
14.054067 15.248688 15.378808 12.093783 15.349968 13.214324 15.033082 18.747643
15.630125 21.790373 17.101374 16.99815 13.889698 15.5195055 19.275671 20.19005
14.791863 12.04058 17.899456 18.972158 18.874165 13.360246 15.284953 18.66686

layer3.1.weight f4 [64]
00000000: 79eb 633f 0a6c 273f 52d9 843f ebac 833f
00000010: f7c9 933f 908a 663f e342 863f 72d5 873f
00000020: 2c29 553f 1c68 7b3f b712 923f 2138 5c3f
00000030: 7e79 7f3f 64cd 8d3f 8908 873f 2163 8b3f
00000040: bd7a 763f a4d0 693f 4334 6d3f 7ed5 703f
00000050: 2f63 423f e6be 883f 183b 113f 52e4 963f
00000060: 836c 633f 713b 5c3f 7c2c 823f 37b6 743f
00000070: c873 883f e43c 723f 8116 603f f80e 7e3f
00000080: cda6 6e3f 2f7f 513f 50e3 923f aa3a 6a3f
00000090: 9ab4 743f aa36 863f 3e90 753f d9d7 623f
000000a0: c33e 393f c89d 853f 3012 733f fa16 113f
000000b0: 7d7e 4d3f 8d0c 233f d1d2 7b3f 34f9 823f
000000c0: 77ba 6a3f 6867 753f 649d 8e3f e94f 663f
000000d0: da77 5f3f 8e96 3e3f 240e 743f d531 833f
000000e0: e3d2 7d3f e89c 073f 0da6 8a3f 0ac2 753f
000000f0: a237 553f 32c6 0b3f 1ffb 613f 2cc6 783f
0.8903118 0.6539923 1.0378821 1.0287145 1.154601 0.9005518 1.0489162 1.0612013
0.8326595 0.98205733 1.1411961 0.86023146 0.9979476 1.1078305 1.054948 1.0889627
0.96281034 0.91333985 0.9265787 0.94075763 0.7593259 1.0683258 0.56730795 1.1788428
0.8883745 0.860282 1.0169826 0.9559054 1.0660334 0.9462416 0.8753434 0.9924159
0.9322327 0.8183469 1.147562 0.91495764 0.95588076 1.0485432 0.9592322 0.8861061
0.7236139 1.0438776 0.94949627 0.56675684 0.8027113 0.63691026 0.98368555 1.0232301
0.9169077 0.9586091 1.1141782 0.89965683 0.87292254 0.7444848 0.95334077 1.0249583
0.9914991 0.52973795 1.0831925 0.95999205 0.83288014 0.545993 0.88273805 0.97177386

layer3.1.bias f4 [64]
00000000: cd39 81be 6576 1abf 38e9 febe 42f4 fabe
00000010: a33e 02bf a0d9 d2be 8c91 5dbf a001 d53c
00000020: c340 aabd 74a7 a2be dbaf 8ebd 0ebd 923d
00000030: 23cf 76bf ee85 9fbe 1375 2fbf 150e 4bbe
00000040: ab35 3bbc 7120 84be e05d 4cbf 2a72 18bf
00000050: 5963 14bf b68b febe 8206 4dbe b07b 07bf
00000060: bbc6 66be bc3a 21bf 15ea 4b3e f59e d3be
00000070: ae6e 6abe ad44 83be 258c 18bf a9a0 b5be
00000080: 107c 4bbf 9aa6 fcbe 9eb1 dcbe c243 a5be
00000090: efbc cfbd a61c 20bf 6888 31bf 5da4 07bf
000000a0: 8ffa bebe c24d a4bd b564 0bbe 1e32 d8be
000000b0: d3d5 b73d 273d 91be b361 d1bd 0363 6fbe
000000c0: a0a8 39be 2084 00bf 79bb a2be ad4b 06bf
000000d0: 3b15 50be c0d0 01bf 4bb3 8abe b23d b9be
000000e0: 4341 e1bd b9b5 8fbe f956 26bf 6113 3abf
000000f0: e344 03bf c4b5 b2be 153b e4be c0d2 48be
-0.2523941 -0.60336906 -0.49787307 -0.4901448 -0.50876826 -0.4118166 -0.8655021 0.026001751
-0.083131336 -0.31768382 -0.069671355 0.071649656 -0.96409816 -0.31156868 -0.68538016 -0.1982959
-0.01142637 -0.25806 -0.7983074 -0.595492 -0.5796409 -0.49715966 -0.20022014 -0.5292311
-0.22536747 -0.62980247 0.19913514 -0.41332212 -0.22893783 -0.25638333 -0.59588844 -0.35474136
-0.7948618 -0.49345857 -0.4310426 -0.32278258 -0.10143458 -0.62543714 -0.69348764 -0.52985173
-0.37300536 -0.080226436 -0.13612635 -0.42225736 0.089763306 -0.28366968 -0.10223713 -0.23377614
-0.18130732 -0.50201607 -0.31783655 -0.5245922 -0.20320599 -0.5070915 -0.27089915 -0.36179882
-0.10998776 -0.2806833 -0.6497646 -0.7268582 -0.5127699 -0.349043 -0.44576326 -0.19611645

layer3.1.running_mean f4 [64]
00000000: 8e79 a13e 89c4 0a42 c996 7441 5d8f 6a41
00000010: edb2 613f 66b3 6840 b566 3b41 1460 bf3e
00000020: 2104 cbc0 616f dec0 3207 19bf 8d0f 47c0
00000030: 2c5b 5e41 2322 a140 a9ab 0741 575e 0d41
00000040: 8afb adc0 e6bf a7bf 8d34 1641 d372 b641
00000050: 76ad 33bf fd79 9141 7bcc 9641 a4fe a73f
00000060: 1049 983c fe17 8841 5fbc bbbe 72f3 c440
00000070: affb 7c41 607e 4141 8945 8441 7177 d340
00000080: 1f92 fd41 5b08 ed40 49ce 1341 1f1d b3bf
00000090: a40e 6d41 d2de f041 77c4 1142 de09 bb41
000000a0: 3d82 a141 1b9f 4fc0 abe0 b940 b69d cb40
000000b0: 4f0b 43c0 9cf8 6fc0 a2ed bc3f 358c 1ac0
000000c0: 83f7 47bf 0b06 4241 dcef 7cc0 cb3a a93f
000000d0: d6c5 f740 ab56 bb41 c222 c341 7196 93be
000000e0: 2a76 f140 e7be 0641 e030 0141 74b7 9b41
000000f0: 9979 b641 06ac d8bf 39d3 8dbf aed9 ec40
0.3153805 34.69193 15.286813 14.660001 0.88163644 3.6359496 11.712575 0.3737799
-6.344254 -6.951096 -0.59776604 -3.1103241 13.897259 5.035417 8.479409 8.835532
-5.4369555 -1.3105438 9.38783 22.806067 -0.70186555 18.184565 18.849844 1.3124585
0.018589526 17.011715 -0.36667153 6.1547174 15.811446 12.093353 16.533953 6.6083302
31.696348 7.40727 9.237863 -1.3993262 14.816074 30.108799 36.44186 23.379818
20.188593 -3.244086 5.8086753 6.363002 -3.0475652 -3.749549 1.476002 -2.4148076
-0.7811205 12.126475 -3.9521399 1.3221067 7.7429 23.417318 24.391972 -0.28825715
7.5456743 8.421607 8.074432 19.464577 22.809374 -1.6927497 -1.1080085 7.401572

layer3.1.running_var f4 [64]
00000000: 447e d942 9057 e542 f8c4 a142 7e76 c442
00000010: cedd 1343 2811 ed42 4781 d342 df7a 2043
00000020: b0a3 1d43 83cf 0243 d034 7043 7707 7043
00000030: b7c4 a342 f180 fb42 2abd a542 637c dc42
00000040: 6304 0043 ab1b 6343 dc6d d642 69a7 d742
00000050: 1ef8 ac42 5b86 dc42 77f0 4243 6919 d142
00000060: 9815 2043 e93e be42 5648 5243 6273 3543
00000070: a129 1043 b294 f742 aafa cd42 1f49 e542
00000080: 7f95 cd42 ab2c df42 2db9 a242 57a1 1643
00000090: b4ee 0b43 b7b3 c142 ebb1 b042 04f9 9b42
000000a0: 355d 0943 7bfb 5c43 dfac 6b43 8eb7 5443
000000b0: ed9d 4e43 fa56 ee42 eec5 4243 2bab 1e43
000000c0: e932 2e43 6a2d 9942 f803 2143 d726 dd42
000000d0: 9c45 6d43 ad14 d742 cced 1143 364d d542
000000e0: 3381 8743 5348 0643 57f1 a642 4fc8 9142
000000f0: b37b 9242 e3d5 f442 3fc2 0043 e1ee ce42
108.74661 114.67102 80.884705 98.23143 147.86642 118.53351 105.752495 160.47997
157.6394 130.8106 240.2063 240.02916 81.88421 125.75184 82.86946 110.24294
128.01714 227.10808 107.21457 107.82697 86.484604 110.26241 194.93932 104.54963
160.08435 95.12287 210.28256 181.45071 144.16261 123.79042 102.98958 114.642815
102.791985 111.58724 81.36167 150.63023 139.93243 96.851006 88.347496 77.98636
137.36409 220.98235 235.67528 212.71701 206.6169 119.169876 194.77316 158.66862
174.19887 76.5887 161.0155 110.57586 237.27191 107.54038 145.9289 106.6508
271.00937 134.28252 83.47137 72.89123 73.2416 122.41775 128.75877 103.46656

layer4.0.weight f4 [64, 64, 3, 3]
00000000: 408f 1ebe 7fe8 fb3d 28e8 81bd ff5c 23be
00000010: d126 f73d c22f d5bd 7ae8 adbe 18ca a8be
00000020: 2fed b5be 1f93 28bc 69bd d0bd 9163 29bd
00000030: 578b 58be e44a 483e 5823 923d 65a9 43be
00000040: 88b3 c4bd ac48 8c3c 164a 1a3e 0879 943e
00000050: 2fd4 143e 9434 bcbc 7eb2 7f3e 10d1 113e
00000060: 2b4a febc de2a eebd c39b a0bc fc3f c13e
00000070: 691d 4c3e 3d27 c83e cacf 013e 78a4 0f3e
00000080: b2b1 153e af41 6e3e 8e81 f73d 9804 403e
00000090: 28e7 a1be 86de c2be ff0f 26bf 8e06 8dbe
000000a0: c92c d7be c069 afbe 4449 863d d12b 1dbd
000000b0: 0cab 87bd 497e c6bd a08c 203c 8d01 0c3e
000000c0: 5e29 94bd 1acf 35bd aeb2 493c 50bd 0fbe
000000d0: 8fe4 90be 0fff c0bd f548 4dbf 705f b2be
000000e0: 4934 fbbe b2a0 07bf 6936 08be efc0 cabe
000000f0: 2f90 83bf a7c9 23bf d8ed 2cbf b1ff 153c
00000100: 3295 91bd 1ca2 2ebe b2ba 3f3e 3f51 95bd
00000110: 6eeb 0bbd 9afd dc3d c0c1 fbbc 7363 ffbd
00000120: d27a 653c 466a 46bd 09e0 993d 3015 08bd
00000130: 48ab 13be 807c 303e d5a8 b6be 3268 8bbe
00000140: 8dd0 e9bd 08ac 8c3e aed2 cd3e e568 083f
00000150: 13e6 853e 2630 b23e 1616 bc3e 4ce8 923e
00000160: c769 833e 3c7a cb3e 1053 05be 9c99 c0bc
00000170: cc21 56bd e69b 0ebd cdbe 3cbe 8451 27be
00000180: 4b31 15be cbcb 9abe 1ddb 93be b4be 8b3e
00000190: 1a46 ae3d 3dc8 f93d 8e84 8a3e 626a 7d3e
000001a0: ef1b 923e ab18 543e 904d 5c3e 4954 b43e
000001b0: 293e 3b3e f491 6a3e e4b1 b73e 2138 8c3e
000001c0: a18a 6a3e f7e6 bc3e 5b94 8b3d db60 1c3e
000001d0: 6c02 873e b5f4 373e f72b 7a3e 9abf 2f3d
000001e0: d811 da3e 221f 423e 3c3c ac3e 24be 2b3e
000001f0: 7b57 813e 12b0 a83e ed64 83bf f9ca 82bf
00000200: 6da2 66bf 5095 4cbf 3cda 15bf 0eab cfbe
00000210: 9376 78bf 6903 3dbf bc7a 23bf 323b d3be
00000220: 53d0 c7be 553f d5be a3fe 2cbe 6c59 b3bd
00000230: 91c9 47be c875 4f3c 74b1 1bbd 1067 fe3d
00000240: 1fa5 12bf c4c6 f1be 62a7 89be f2b8 c7be
00000250: fceb 68be 388e a7bd 3974 84bd 97ad babd
00000260: 736b 9e3d 4c6f 04be 02b6 adbd 343b e5bd
00000270: f999 23bd e9ef 70bd c921 6b3c 237e 103e
00000280: 7b6d 303e 10b3 b63e 94db 13bc fce0 19be
00000290: 0377 18bd 791c 463c 2548 49bd b504 1a3d
000002a0: 7832 9bbe 98dc 2bbe 61dc 4cbd cd91 efbe
000002b0: ef91 a0be eafe 77be 6fbf 843e 5785 e33e
000002c0: f892 993e 3079 babd 2535 0a3e eb54 0f3e
000002d0: 5675 12bf 9563 1bbf 2d00 47bf 34cb e33d
000002e0: 9023 253e 354a 9abc e0d7 943e 58f2 723e
000002f0: 0e00 923e 411e 1ebe bd5d 62be 88ac 05bf
00000300: 0b84 d93d fed5 51bc 4408 66bd a074 afbe
00000310: 107b 2abe 7287 9abd 3501 1f3f 1b66 133f
00000320: e9bb f43e 0215 d93e a180 043f 34cd b73e
00000330: 2c1c 203e 68f2 213e 9c5d 103e 9a63 9dbe
00000340: 3efc 8ebe 7188 eebe d872 d1be f051 a9be
00000350: dcfb 07bf 253f f2be 606d 07bf a22c 44bf
00000360: b1eb 43be 596a 9dbe f746 74be 26bc 26be
00000370: 3262 1abe 58ee 57bd 8553 d9be 7295 95be
00000380: 5d78 41be e713 873e 9f34 683e ddce 173e
00000390: 60b7 1b3d 5146 40b9 18a7 2ebe 393f f5bd
000003a0: c109 05be 0964 aebe feca c8bd 4d20 51be
000003b0: a097 90be 0380 6dbe 9b52 f3bd e5f2 98be
000003c0: ee73 d8be 251e f1be 5e5e 1abf f400 fcbe
000003d0: f55c 32bf 755d 6ebf b7e8 1a3e e719 f13d
000003e0: 5d5f 21bc 92e8 be3e 8552 9a3e a9e1 a23e
000003f0: 2b5f 72be 9a77 bbbe 0cf0 08bf 3f81 94bd
-0.15484333 0.123002045 -0.063431084 -0.15953444 0.120679505 -0.104095 -0.33966428 -0.32966685
-0.3553252 -0.010288983 -0.10192377 -0.04135472 -0.21146904 0.19559819 0.071356475 -0.19107588
-0.09604555 0.017124496 0.15067324 0.2899859 0.14534067 -0.02297429 0.24970433 0.14239907
-0.031041225 -0.1162927 -0.019605523 0.3774413 0.19933094 0.39092436 0.12676921 0.14027584
0.14618567 0.23267244 0.120852575 0.18751752 -0.3162167 -0.38060397 -0.6486816 -0.27544063
-0.42026356 -0.34260368 0.06556943 -0.038371865 -0.066244215 -0.09692056 0.009799153 0.13672467
-0.07234453 -0.04438696 0.012310667 -0.1403706 -0.28299376 -0.094236486 -0.8018945 -0.34838438
-0.49063328 -0.52979577 -0.13302006 -0.39600322 -1.0278376 -0.6397957 -0.6755042 0.0091552
-0.07108535 -0.17054027 0.18723562 -0.07290887 -0.03416007 0.10790558 -0.030732036 -0.1247014
0.014006333 -0.048441194 0.075134344 -0.03322333 -0.14420807 0.17234993 -0.35675684 -0.27227932
-0.11416731 0.27475 0.40199798 0.53285056 0.26152095 0.3480236 0.367356 0.28692853
0.2566664 0.39741695 -0.13019967 -0.023510747 -0.052278325 -0.034816645 -0.1843216 -0.1633969
-0.14569585 -0.30233607 -0.28878108 0.27293932 0.085094646 0.121963955 0.27054256 0.24747613
0.28536937 0.20712535 0.21513963 0.35220554 0.18285431 0.22907239 0.35877907 0.27386573
0.22904445 0.36894962 0.06815406 0.15271322 0.26369035 0.17964442 0.24430834 0.042907335
0.4259174 0.18957189 0.33639705 0.16771752 0.25262055 0.3294683 -1.0265175 -1.0218192
-0.9009159 -0.7991533 -0.58536124 -0.40560192 -0.9705593 -0.7383333 -0.6385915 -0.412561
-0.39026126 -0.4164988 -0.16894011 -0.0875729 -0.19510485 0.012662359 -0.03801103 0.12422001
-0.57283205 -0.4722196 -0.26885515 -0.3900829 -0.22746271 -0.08181423 -0.0646748 -0.09115141
0.07735338 -0.12933081 -0.08481981 -0.11192933 -0.03994176 -0.058822546 0.014351317 0.14110617
0.17229263 0.3568349 -0.0090245195 -0.15027231 -0.037222873 0.012091749 -0.049141068 0.037602145
-0.30311942 -0.16783369 -0.050014857 -0.46790925 -0.31361338 -0.24218336 0.25927302 0.44437668
0.2999494 -0.09105146 0.13496836 0.13997237 -0.5721029 -0.60698825 -0.77734643 0.11122742
0.16126847 -0.018834213 0.2907095 0.2372526 0.28515667 -0.15441228 -0.22106071 -0.52216387
0.10620888 -0.012807367 -0.056160226 -0.34268665 -0.16648507 -0.075453654 0.62111217 0.57577676
0.47799614 0.4239884 0.5175877 0.35898745 0.15635747 0.15815127 0.14098209 -0.30740052
-0.2792682 -0.46588472 -0.4090793 -0.33070326 -0.5311868 -0.473138 -0.5290127 -0.76630604
-0.19132878 -0.307452 -0.23855196 -0.1628271 -0.15076521 -0.052717537 -0.42446533 -0.2921558
-0.18893571 0.26382372 0.22676323 0.14825006 0.038016677 -0.00018336742 -0.17055929 -0.119749494
-0.12992002 -0.34060696 -0.09804343 -0.20422478 -0.2824068 -0.23193364 -0.1188099 -0.29872814
-0.42275947 -0.4709331 -0.6030024 -0.49219477 -0.6967309 -0.93111354 0.15127836 0.117725186
-0.0098493965 0.37286812 0.30141082 0.3181279 -0.23669116 -0.36614686 -0.5349128 -0.07251214

layer4.0.bias f4 [64]
00000000: 42f1 ab41 d9eb bf41 9626 aa41 5aac bc41
00000010: 0d99 b041 2371 a441 4ab9 9841 747b 9741
00000020: cf0b 9c41 ae94 8e41 bb11 9741 f3c8 9d41
00000030: 1629 9841 bab1 8b41 a948 ab41 8843 7141
00000040: fa23 a741 a70e 9f41 8dcf 9241 eb0e 9141
00000050: 9405 9441 01a4 8d41 00b2 8541 3097 a141
00000060: 8338 8c41 0b5c 8c41 b103 7e41 2f29 9141
00000070: 7c21 9a41 b39f a341 03df 9a41 8676 8741
00000080: 6971 a441 cdae 8d41 72c0 8641 29b7 9841
00000090: 2a22 9f41 c8ed 7e41 30c9 8d41 1f93 9641
000000a0: 8235 7d41 e3dd 6b41 d06e 9841 1199 9c41
000000b0: 5821 6f41 bd17 8541 64f2 7941 97c6 8341
000000c0: 70cf 8241 dc74 9041 5bf0 8c41 4b1e 9b41
000000d0: ba8a a041 a136 9641 ba58 9041 c5a8 a541
000000e0: 40ac 6a41 d30f 8941 65e5 b941 af27 8c41
000000f0: 4fbb c041 1d8c ce41 98ba bf41 2c33 b141
21.492802 23.99016 21.26884 23.584156 22.074732 20.555243 19.090473 18.93528
19.505766 17.822598 18.883657 19.72312 19.020061 17.46178 21.410479 15.078987
20.892567 19.882154 18.351343 18.132284 18.502724 17.70508 16.711914 20.198822
17.527594 17.544943 15.875901 18.14511 19.26635 20.452978 19.358892 16.932873
20.555376 17.710352 16.843967 19.089434 19.891682 15.933052 17.723236 18.821836
15.825563 14.741672 19.054108 19.57474 14.945641 16.636591 15.621677 16.471968
16.351288 18.05706 17.617361 19.389791 20.067738 18.776674 18.043324 20.707407
14.667053 17.132727 23.23701 17.519377 24.09146 25.818415 23.96611 22.149986

layer4.1.weight f4 [64]
00000000: eb18 bd3f 9aa5 d83f c6a9 a43f 6d8d aa3f
00000010: 4456 ab3f abb8 983f 3197 883f ee82 803f
00000020: 211f 893f e886 863f 3c09 813f d9e2 813f
00000030: 76c5 8c3f a471 5e3f 1e63 b83f 4dc7 403f
00000040: a624 903f 7d39 8a3f d90a 813f 4ebe 8d3f
00000050: a327 a23f 2179 923f d658 653f 4f31 983f
00000060: f585 823f 2294 873f 6254 503f ecc4 873f
00000070: 1021 923f fcf3 953f 2d9f 863f 2b98 7b3f
00000080: 2d01 953f c954 783f 4653 6f3f cc63 813f
00000090: 4f98 923f 2316 4f3f dd1b 753f f0da 913f
000000a0: 7bf2 803f 9d7a 473f 1f05 763f c538 8f3f
000000b0: 1cf8 4d3f 4121 7a3f b1bb 543f 0963 603f
000000c0: 0715 6e3f e260 7d3f d186 843f 9ccb 8c3f
000000d0: 5186 903f 7b3c 883f 7a5c 893f 5f61 9b3f
000000e0: 3537 673f 76f5 673f 4ffe a13f c9ea 8e3f
000000f0: 3e08 b43f 26c6 c43f 730e ea3f 8eb7 ca3f
1.4773229 1.6925538 1.2864311 1.332441 1.3385701 1.1931356 1.067114 1.0039957
1.0712625 1.050992 1.0080943 1.0147353 1.099776 0.8689215 1.4405248 0.7530411
1.1261184 1.0798794 1.0081435 1.1073701 1.2668346 1.1443216 0.8958868 1.1890048
1.019713 1.0592082 0.8137876 1.0606971 1.141634 1.1715083 1.0517327 0.98279065
1.1640984 0.9700437 0.9348644 1.010858 1.1452731 0.8089315 0.9574564 1.139494
1.0073999 0.7792147 0.96101564 1.11892 0.8045671 0.9770699 0.83098894 0.87651116
0.93000835 0.98975956 1.0353643 1.0999637 1.129099 1.0643457 1.0731347 1.213909
0.90318614 0.9060892 1.2655734 1.1165401 1.4065015 1.537297 1.828566 1.5837266
