miniImagenet/SalNet_IntraClass/miniImagenet_relation_network_5way_5shot.pkl (torch_old, 526130 bytes, 33 tensors)

layer1.0.weight f4 [64, 2, 3, 3]
00000000: 0681 5b3d e9d7 adbd 8818 873d 8b46 5f3e
00000010: 2e6c 24bb 3c44 ca3d 6e26 ddbc b711 33be
00000020: b464 1dbe 31ac 153e 6ee7 af3e d17e c23d
00000030: d796 21bf bdee 343e ba77 e33d a47f f8bd
00000040: 1956 fa3e 61c9 a03e 3e23 a43e 7375 a03e
00000050: f718 483d a9de fb3d 3697 503e bd2b 4d3e
00000060: d2b8 0cbe 1290 7cbe 4d38 143e 5dd8 ef3d
00000070: 9b24 963e 1e29 033c 66b5 80be 5808 b3be
00000080: e9d9 76be 1bb0 943e 96cb 423e 0dfe 4b3e
00000090: a816 2fbe a49a ca3d f68f e5b9 a0ea eabe
000000a0: d453 a23e dd25 c63d 3b15 56be f1c0 3c3e
000000b0: 182b c0ba dcbe dd3e b9b3 b6bb fc74 103e
000000c0: 6f38 07be 9458 7a3e e460 cfbe c241 8b3e
000000d0: af89 8fbe 761f d0bd 27a4 8abe 038f d6bd
000000e0: d5f9 a73d 88d8 213d fc64 3cbd 9b36 bb3e
000000f0: adec 00be 3394 24be 981f 1b3f 2230 bcbe
00000100: c838 aebc 00a1 203e 7032 f53d b124 02be
00000110: 7f34 9a3e 929a 89bd 54f6 3bbe df86 703e
00000120: b838 dbbd 4351 debd d6f1 8ebe ef89 45be
00000130: c9c3 473e c2e7 5abe c921 6b3e b8ff 8dbe
00000140: b3c0 f03e f8f4 0f3d 0382 b93d ae99 783d
00000150: a254 763d 598d ad3d e64c 21be b61e e1be
00000160: 3901 ba3c 0c4a c8be 6371 543e 18c6 adbe
00000170: 9d26 0fbd 6011 ba3e 87ed 053e ecbd 653e
00000180: f5d0 ee3e 6eb6 d53d faad 743d ed7f 253e
00000190: ea64 a2be 1dea 97be 08db 5ebb ed0c 0b3e
000001a0: 9038 a9bc 837b 233e ad22 0bbd 2499 b2be
000001b0: 295e ca3e 1d75 c63e 35aa a93e 98c5 383e
000001c0: 6b3b 2e3d ce4c 053d 5a76 b7be 4208 ce3c
000001d0: 0091 86be 39e2 753e ab25 ba3e 1c51 693e
000001e0: 1389 c7bd 3f92 2e3e a6c9 bbbd 801e 9abe
000001f0: ef13 eb3d c0ba 07bd 3b34 f53e a912 453d
00000200: 498f 34be a81e 8a3e 502c 183e ac80 c1ba
00000210: e75a 893e f864 80be 720f 48be d0b6 aabe
00000220: 0496 c03c 7682 b83d f88f c4be 3db0 91bd
00000230: 4117 d83c b1ee 783e c3d7 453e 024d 343e
00000240: 7bf0 1fbd 7ae5 233f 57c5 1b3f debc 1c3e
00000250: 3ce8 1dbe ab75 a33c e9b3 2cbe 7df3 09be
00000260: 1a64 a0be 5e38 5abe 0869 93be 711a c9bd
00000270: fbeb aebc 699f 8b3c 9239 98bd 04cb e23d
00000280: 1fa1 213e 8b18 963d ca44 263e 7d1d 28be
00000290: d14c 63bc f836 223f 0614 4e3e fecf 603d
000002a0: d98a 903e ec9c f5bd e5d5 a4be f284 79be
000002b0: f16b 31bd 9884 be3d e4df 0fbf 6bd3 debc
000002c0: 0b57 3bbd d314 e23d 203e 9c3d b864 97bc
000002d0: cf87 e1be 580c afbe 82fa 253e 9325 833e
000002e0: 7ca7 0dbd 9498 f53e d1ae 413e 05c8 8ebe
000002f0: bffe eb3d a179 ffbd 0ff3 483d 2e66 d23c
00000300: 8d7d b5bc 4b45 f1be 54a4 473e b241 bc3d
00000310: f2d6 76bd 6957 f23c db54 c7ba a9a1 abbe
00000320: e749 af3d d2b0 b03d 1241 873e 8f93 253e
00000330: e0bb aabe 7d51 d6ba 48ce 733e 80fa 123e
00000340: 75c2 81be 4375 e63b f70a 13be c52f 383e
00000350: 5cf5 283e 1919 2dbf 686a 92be bac9 3f3d
00000360: 4af5 823d d609 cbbd 17ab 72be e201 a53e
00000370: 6a09 aabd 4ba6 a3be ce89 313e b6ba 183e
00000380: 6b4a 1fbd 56b9 113e fa20 37be 123c cfbe
00000390: 801f c43e ff57 7cbe 2ee4 e1be 5974 beba
000003a0: 2c91 ee3d 7aae bbbc 7f7d 8d3c 0038 9f3c
000003b0: bad8 cb3d 5d7d acbe 640d 9f3d 5f06 913e
000003c0: 0e87 abbe 38f5 3e3c 08ad 2e3e a609 c6bc
000003d0: 09dd bebd 17ca 4bbe 3815 fd3e c034 cebc
000003e0: 92b1 93bd db19 fc3e 8ef9 c3bd ff3b cc3b
000003f0: 856f 29be 2579 e6bd 2503 a7be 38cf c8be
0.053589843 -0.08488447 0.06596476 0.21804254 -0.0025088894 0.09876296 -0.026995864 -0.17487226
-0.15370446 0.14616467 0.34356254 0.094968446 -0.6312079 0.17669196 0.111068204 -0.121337205
0.48893812 0.3140364 0.32058138 0.31339607 0.048851933 0.122983284 0.20370182 0.20036216
-0.13742378 -0.24664333 0.14474602 0.1171119 0.29324803 0.008005409 -0.25138396 -0.34967303
-0.24106564 0.29040608 0.19022974 0.19921131 -0.17098486 0.098927766 -0.00043785543 -0.4588213
0.3170458 0.096751906 -0.20906536 0.18432976 -0.001466128 0.43309677 -0.005575624 0.14107126
-0.13205121 0.24447852 -0.4050361 0.27198607 -0.28034732 -0.10162251 -0.27078363 -0.10476496
0.082019486 0.03951314 -0.045994744 0.36565098 -0.12590285 -0.16072159 0.60595083 -0.36755472
-0.02126731 0.15686417 0.11972511 -0.12709309 0.30118176 -0.06718935 -0.18355685 0.23488949
-0.107041776 -0.10855343 -0.2791888 -0.19290899 0.1950828 -0.21377471 0.22962107 -0.2773416
0.47022018 0.03514573 0.09058001 0.060693435 0.060139306 0.084742256 -0.1575199 -0.43968743
0.022705661 -0.39118993 0.20746379 -0.33940196 -0.034948934 0.3634138 0.1307889 0.2243573
0.46643797 0.10435186 0.05973623 0.16162081 -0.31717616 -0.29670802 -0.0034005065 0.1357915
-0.020656854 0.15965085 -0.033968616 -0.34882462 0.39524963 0.38761225 0.3313767 0.18044126
0.042537134 0.03254395 -0.35832483 0.025150422 -0.262825 0.24012078 0.36356863 0.22784847
-0.09742942 0.17047976 -0.09169321 -0.30101395 0.114784114 -0.033137083 0.4789141 0.0481135
-0.17632784 0.26976514 0.14860654 -0.0014763079 0.26827165 -0.25077033 -0.19537142 -0.333426
0.023509033 0.090092584 -0.3839109 -0.07113693 0.026378276 0.24309804 0.19320588 0.17607501
-0.0390477 0.6402203 0.6084799 0.15306422 -0.15420622 0.01995357 -0.16865505 -0.1347179
-0.3132637 -0.21310565 -0.2879107 -0.098194964 -0.021352759 0.017043786 -0.07432856 0.110738784
0.15784119 0.073289 0.16237178 -0.16417499 -0.013873295 0.63365126 0.20124826 0.054885857
0.28230932 -0.11992821 -0.3219444 -0.24367121 -0.04331583 0.09302634 -0.56201005 -0.027200421
-0.045737308 0.11039128 0.07629037 -0.018480644 -0.44048926 -0.34189105 0.16208842 0.25614604
-0.034583554 0.4796797 0.18914343 -0.27886978 0.11523198 -0.12474371 0.049059924 0.025683489
-0.022154594 -0.4712318 0.1949628 0.09192218 -0.06026358 0.029582696 -0.0015207784 -0.33521774
0.08559018 0.08627476 0.26416832 0.1616957 -0.33346462 -0.001635119 0.23809159 0.1435337
-0.2534367 0.0070330217 -0.14359652 0.17986973 0.16499847 -0.6761642 -0.28596807 0.04682324
0.063944414 -0.099139854 -0.23698078 0.32228 -0.08302577 -0.3196281 0.17337725 0.14914975
-0.03888933 0.14230856 -0.17883673 -0.40475518 0.38305283 -0.24642943 -0.441194 -0.0014530524
0.11648783 -0.022910345 0.017271755 0.019435883 0.09953447 -0.33689395 0.07766226 0.28325173
-0.33501476 0.011655144 0.17058194 -0.024174523 -0.09319503 -0.1990131 0.4943025 -0.025171638
-0.07211603 0.49238476 -0.09569083 0.006232738 -0.16546448 -0.11253575 -0.32619587 -0.39220595

layer1.0.bias f4 [64]
00000000: ddfe 9c3e 2c0e 643d 6e6a 4f3e 6915 7bbd
00000010: e1eb 963d 0e55 9b3e b8ce 9fbc 491d 9d37
00000020: b857 093d 5e32 8f3d 884b 303e 7d8e 013e
00000030: 576f 563e 8e03 023d 004c 353d 0b2d da3d
00000040: 65c8 513e ad73 d03d 36cb fe3c 0dc4 193e
00000050: c01d d83d 0880 0fbe 7d79 2abc b7e3 f93d
00000060: 6963 d73d 4e9a 99bd 93ae 88bd 7969 283e
00000070: 3c23 99bd c0f4 acbc 15f9 ee39 48cf ea3d
00000080: 664a 2a3e 970c 5cb9 3bf9 24be faac 88bd
00000090: 8b88 8fbd f8d3 443e aaf1 08bd a220 283e
000000a0: 08d4 b83e 9dfa f0b9 e2c6 9abb 6b94 9ebc
000000b0: fead c43d 73a2 5d3e ecce a6bd 7331 9d3d
000000c0: 61cb c73d 337d b23d f363 a13d ae19 9fbe
000000d0: 92ea 613e f9c3 34bb 35b1 78be 6eef f63b
000000e0: 81eb 923d bce4 053d 853f c2bd efe6 0d3d
000000f0: fdf4 183e 9f83 913d 5f1a 7fbe fcb0 1bbe
0.30663195 0.055677578 0.20255443 -0.061299715 0.07369209 0.3033833 -0.01950775 1.8729495e-05
0.03353092 0.06992029 0.17216313 0.12652011 0.2094091 0.03174167 0.044261932 0.106531225
0.204866 0.101783134 0.031102758 0.15016194 0.10552549 -0.14013684 -0.010404942 0.12201636
0.10517008 -0.075001344 -0.066739224 0.16446485 -0.074774235 -0.0211128 0.00045580478 0.11465317
0.16629943 -0.00020985525 -0.16110699 -0.06673618 -0.070084654 0.19221485 -0.033433594 0.16418698
0.36099267 -0.0004596309 -0.0047234157 -0.01935788 0.09603499 0.21644 -0.08144936 0.07675447
0.09755588 0.08715286 0.07880392 -0.3107428 0.22062138 -0.002758263 -0.24286349 0.0075358665
0.07173825 0.03268884 -0.09484772 0.034644064 0.14937206 0.07105183 -0.24912404 -0.15204233

layer1.1.weight f4 [64]
00000000: 92a2 483f b22c 593f add8 5e3f f57c 713f
00000010: 8468 873f 8664 553f cd55 8c3f 4233 873f
00000020: 36d4 963f aa66 993f 727e 6f3f ee58 593f
00000030: cc84 7d3f 648b 813f 1831 2e3f f8cb 623f
00000040: 18fb 8a3f fbf8 8b3f c6ba 523f 2c66 613f
00000050: e741 743f 41e0 533f 40c5 263f a9c4 343f
00000060: f0f6 5a3f 6841 3f3f c994 693f a481 903f
00000070: f89a 7e3f 1470 953f 7903 863f 1fc5 6e3f
00000080: ba8a 8d3f 124c 7f3f 0bb8 813f b9ec 703f
00000090: 79ab 5e3f ac20 783f 59d8 943f 1b90 453f
000000a0: a9e8 953f 20ef 6b3f 5193 443f 4eca 763f
000000b0: ae05 9c3f 451d 5f3f afcb 683f 17c2 b13f
000000c0: 5435 803f 4174 8f3f e21e 7b3f dbb2 743f
000000d0: 4127 733f fdb1 603f 36c0 833f 8627 983f
000000e0: 10d9 673f 2fbb 883f cb36 613f 05d7 6e3f
000000f0: 9e00 7e3f 26fd 6b3f 28de 323f 4d89 183f
0.7837306 0.84833825 0.8704937 0.94331294 1.0578771 0.8335651 1.0963684 1.0562518
1.1783512 1.1984456 0.93552315 0.8490132 0.99030757 1.0120664 0.6804366 0.8859248
1.0857878 1.0935358 0.82316244 0.88046527 0.9541306 0.8276406 0.6514473 0.7061258
0.85533047 0.74709177 0.91242653 1.1289563 0.99455214 1.1674829 1.046981 0.9326953
1.1057961 0.9972545 1.013429 0.9411121 0.86980397 0.96924853 1.1628524 0.7717301
1.1711627 0.9216175 0.76787287 0.9640244 1.2189233 0.87154037 0.90935796 1.3887357
1.0016274 1.1207353 0.98094 0.9558541 0.9498177 0.8777159 1.0293033 1.1887062
0.90565586 1.0682124 0.8797423 0.93296844 0.9921969 0.9218315 0.69870234 0.59584504

layer1.1.bias f4 [64]
00000000: 7a1d be40 e4e3 f4be dbad d43e 20be 39bf
00000010: 933c f2be c4e4 8dbe b56a 0dbf e4d1 37bf
00000020: 386b 4cbf e704 0ebf d01a edbe b3f7 a2be
00000030: 04e9 0cbf 7f1b 2cbf 9eb7 b9be 4ba1 30bf
00000040: 1535 89be d4b6 58be 568e 6a3f 0a00 18bf
00000050: 9765 0abd e2ee 25bf 40e7 00be 2007 373d
00000060: cac9 d2be 8f35 b0be fc19 adbe 21f0 ba3e
00000070: 6516 bd3d 9c89 06bf e520 67be 3d82 553e
00000080: 68b9 f33c e725 1cbf b26a f3be 716e 703e
00000090: 02d7 2bbf a2bd 2cbe b972 69be b395 ccbe
000000a0: 40e8 22bf 866e cf3e 32f0 f4be 3296 103f
000000b0: 5e13 12bf 05d8 21be 5247 25be 63f5 17bf
000000c0: 4664 c3be 6637 08bf f2f4 0fbf 2076 88be
000000d0: 9e03 bcbe 6c16 c0be 18f2 df3e edbd 433f
000000e0: 6340 43be 6917 4bbe f86a aabd 69bc 353e
000000f0: e964 2bbf d965 e0be 6f23 e73d 7569 993e
5.941098 -0.47830117 0.4153889 -0.7255573 -0.4731184 -0.27713597 -0.55240947 -0.7180464
-0.798511 -0.5547623 -0.4630952 -0.31829605 -0.55043054 -0.67229456 -0.362729 -0.68996114
-0.2679831 -0.21163493 0.9162344 -0.5937506 -0.03378829 -0.6481763 -0.12588215 0.04468453
-0.41169578 -0.34415862 -0.33808887 0.3651133 0.09232787 -0.52553725 -0.22571142 0.20850463
0.029751495 -0.60995334 -0.4754234 0.2347963 -0.6712495 -0.16869214 -0.2279767 -0.3995796
-0.63635635 0.4051401 -0.47839504 0.5647918 -0.570608 -0.15805061 -0.16140488 -0.59358805
-0.3816244 -0.5320953 -0.5623313 -0.26652622 -0.3672151 -0.37517107 0.4373939 0.7646168
-0.1906753 -0.19833149 -0.08321184 0.17747654 -0.6695085 -0.43827704 0.11286055 0.2996327

layer1.1.running_mean f4 [64]
00000000: 92b9 173f 2974 143f f935 3d3e 1899 0e3e
00000010: 1887 82be 51cf 2b3f 42c6 033f b295 853e
00000020: cef2 573e 41af 463e ee79 0b3e c089 46bd
00000030: 6077 f4bc 3a47 3e3e 32ad 06bf 9453 073e
00000040: 5fdc 1e3f 002e c3ba 0e43 3a3e 0ac0 b43d
00000050: d4e2 72be 8b83 1bbf 0bc8 533d b2f0 c2be
00000060: 3404 58be 8b07 f83e 3e91 a7be 0009 5c3e
00000070: 8887 bcbe f218 933d 1d0d f03e 421d f5be
00000080: e500 3f3e 4689 833e 1030 e43d 0094 afbc
00000090: 1e34 5a3d f474 b8be 5bd4 4e3d 78be e63e
000000a0: a099 8a3e e045 04bd 3441 3dbf 2011 bdbd
000000b0: 00e4 d939 2770 d33d ceae 46bf 3e76 203e
000000c0: 3136 c93e ca68 963e 1324 ab3d a27a 0dbf
000000d0: 4c70 d23e 35b6 1c3f a030 fbbc 742b ac3d
000000e0: 4305 15bf 56d6 613e b8c6 77be 7044 42bd
000000f0: 0030 0bbd 2f89 043f 8c07 f4be 20ff cebd
0.5926753 0.57989746 0.1847762 0.13925588 -0.25493693 0.67113215 0.5147439 0.2609077
0.21088716 0.19402792 0.13620731 -0.048471212 -0.029842079 0.18581858 -0.52608025 0.13215476
0.6205501 -0.0014891028 0.18189642 0.08825691 -0.2371934 -0.60747594 0.051704448 -0.3807426
-0.21095353 0.48443255 -0.32727998 0.21487808 -0.36822152 0.07182492 0.46885005 -0.47873884
0.18652685 0.2569067 0.1114198 -0.021432877 0.05327236 -0.36026728 0.050495487 0.4506719
0.27070332 -0.0322932 -0.7392762 -0.09231782 0.0004155934 0.10324126 -0.7761048 0.15670106
0.39299157 0.29376823 0.0835649 -0.5526525 0.411013 0.61215526 -0.030662835 0.084067255
-0.58211154 0.22054419 -0.24196899 -0.04742855 -0.033981323 0.51771826 -0.47662008 -0.10107255

layer1.1.running_var f4 [64]
00000000: c44e 533d 00df 573d 1177 013d 0c80 333d
00000010: 908b 003d 9bf2 383d bdf4 823d decd f53c
00000020: dfde cf3c ec84 fd3c 1a97 093d 2a24 2a3d
00000030: c2e2 3d3d 7e7d e03c 18e0 633d e025 123d
00000040: fbfe 2e3d 7518 363d f323 133d 7fa9 2c3d
00000050: 8a08 743d 6f44 1c3d 6d44 013d 1bbe 9f3d
00000060: 09e6 263d 24e4 793d 906f 633d 4eab 263d
00000070: 8dc7 273d 2f7b ae3c c42d 2a3d bac7 a13d
00000080: 2cac d13c 84bc 1f3d 473b e33c 1e71 1f3d
00000090: 66bc f43c 25cf 8b3d a784 ed3c bb6c 233d
000000a0: 703b aa3c 6ccd 083d f9a6 dc3d 74f3 e53c
000000b0: 48fd 8f3c 5bd0 2a3d e888 a43d 203a cd3c
000000c0: 7481 1a3d a819 da3c a92b c13c 941f 3e3d
000000d0: b506 cd3c fe3f 973d 7850 053d 4fba ee3c
000000e0: 6a0f 943d d5fd 183d 232a 803d f3ce cd3c
000000f0: 9a69 ea3c 997d 2d3d 12d6 213d ed61 0e3d
0.05158879 0.052702904 0.03160769 0.043823287 0.031383097 0.04515324 0.063943364 0.030005392
0.025374828 0.030947171 0.033591367 0.041538395 0.04635883 0.02740359 0.055633634 0.03568065
0.042723637 0.044456918 0.035922956 0.04215383 0.059578456 0.0381512 0.031559397 0.077999316
0.040746722 0.061008587 0.055526316 0.040690713 0.04096179 0.021298973 0.04154755 0.07899423
0.025594793 0.038998142 0.027738227 0.038926236 0.029874992 0.06826619 0.028993918 0.039898615
0.020780295 0.03339903 0.10774035 0.028070189 0.017576829 0.04170261 0.08033925 0.02505213
0.037721112 0.026623562 0.02358039 0.046416834 0.025027612 0.073852524 0.032547444 0.029141573
0.072295025 0.037351448 0.06258037 0.025123095 0.028614808 0.042356107 0.039510794 0.034761358

layer2.0.weight f4 [64, 64, 3, 3]
00000000: 9a82 673c ad92 e4bc 805d db3e b87f 97be
00000010: 036f 74be 9bb6 40bd 0b04 41be 5802 9dbe
00000020: 20db 43be d615 d43e 7fb0 2f3e 68ef 423e
00000030: 1450 cfbc 111d d6bc 8008 17bd 1a38 f6bd
00000040: d770 8cbe ec60 c3be aa14 e23e 8570 7e3e
00000050: 428e d93d 7cf5 f43e a4ce 62be 7ab4 13be
00000060: 86ea cc3e d91d 473e 54fc dc3c 0d3a 043e
00000070: 5a48 313c f03a 26be 891e 003e 9125 f6bc
00000080: b248 4b3e 5aec 6dbd b5a1 5a3e cdf8 0cbd
00000090: 73fa 4fbf 501b 27bf e6f4 5abe 35b2 c43d
000000a0: b37f 87be 7273 6b3e aadd 00be 16da 79bd
000000b0: 8ede 1b3e 32f3 a6be 187e 93bd d817 813e
000000c0: 3714 68be d698 af3e 32ba f33e f061 debe
000000d0: e10a 2dbe 38b0 b03e 1ed7 5d3e 2c8b bebd
000000e0: 55c7 01be 9bfb 4f3e d84f 933d b979 893d
000000f0: 1d49 953e 06f2 963d 46c6 7cbe 35a0 f13e
00000100: de9a 77be 4109 b83e a224 82bb 9963 7fbe
00000110: 51de c93d efae c73d c3be bdbe 93e2 333d
00000120: 5fef 223e 472e 1dbe 575d 263d 87fb f1bd
00000130: bb16 07be c885 92be 6bc1 6b3e afaf 5abe
00000140: c25b 42be 5749 6b3e 7507 58bd b038 413c
00000150: 7053 17be 6312 2bbd 9e36 cb3d c56a 84bd
00000160: 5114 2abe 60dc 443e 973c ebbe db78 943d
00000170: 171f 95be cf75 41be d01d 58be 9ba5 a2be
00000180: 9499 31be d375 723e d624 55be afca 583e
00000190: 6fb3 0abe 90c9 09be 35b7 9a3d 27a1 643e
000001a0: 1b4e 82bd 8292 9e3d 772b 103e 116d 74be
000001b0: 4f1c eebe 974e d3be 7357 2c3e 3b76 b43d
000001c0: 4b25 43be 1ab8 4e3e 5196 3bbe 08e0 d4be
000001d0: 7748 c33e ce3f 523e 941a c4be bb74 16bd
000001e0: 6ca3 6e3e 9ef9 b5be dc63 c23c ef01 703e
000001f0: ac44 85be af37 c63e 4735 d9be f3d9 d9be
00000200: e4ac d1be b7fa 48be 45ae 12be f04b 9cbd
00000210: b9ab 66be 3e8d 473d 2adb a9be 8780 513e
00000220: 4ac0 0f3e 2a99 aabd f063 513e 6bfc 7b3e
00000230: f7ba 98bd c5ab 193e cf2c 913e 0264 433e
00000240: 07f7 d33d 567b 2a3f f37e 0f3f caf8 35ba
00000250: bc4f 773e 2c91 e23e 1d51 9bbd b297 f83e
00000260: 57f3 c23e e91d 223f 024d 5e3e 0a81 a43e
00000270: 2147 22be 5d9b 08be f6a4 b5be 05ff a93e
00000280: f942 19be 7736 05be 05f6 95be 70e1 efbd
00000290: 4d5f a33e 381b 24be 71e4 1abe f701 53bd
000002a0: a4e5 6fbe 0b27 6cbe 6e62 0b3d affc 493e
000002b0: dfbb 4b3e d3dd c73e 4ecb 8ebe 530e ebbd
000002c0: 91c7 f1bd eb31 cb3e 772a a03e f722 113f
000002d0: 9e43 9fbe 9b41 3ebd 65cd 6ebe e1f4 edbd
000002e0: 0518 57be 1b68 1cbe c069 6cbe dcc4 213f
000002f0: eb56 823d f6fd 65be 1f6f 6ebd 3eaf d23c
00000300: 1b1d 8bbe bacd 68bd 2791 073d 71f2 ae3c
00000310: d060 8f3e 6594 f33d f30b e93d c28b 9b3e
00000320: 4b2b 263e 005c e23c 4588 893b 052c 9cbe
00000330: 3b6c b1bd 1304 723e a039 86be 2211 103e
00000340: 4e6b 07be 5414 f7bd 1ed5 743e 4c4e 8fbe
00000350: c00d 8cbe 22d3 463e 742c a43d afeb 16be
00000360: 3db6 a0bd fecf c83e 8564 38be 4371 46bc
00000370: 805e cdbe 74b9 edbe 5a25 ab3e 0caf b03d
00000380: d520 9f3d 4a88 80bd 3ae1 963d decb 2bbe
00000390: 289f 213d 7df7 833e e6c6 7abc db41 dcbe
000003a0: 4ab9 42be f2d8 97be 7a5d b03e 7771 d43e
000003b0: 3a3e 1d3f 90c7 a6be 64b1 7fbe 3d31 42be
000003c0: 4556 64bd f601 81be 484a c63e 5f25 433e
000003d0: 786f 6e3d dd92 023e d6ed d6bc 9773 7bbe
000003e0: 9867 4ebe 9d0c b83e f908 5abe 0c86 c73c
000003f0: f912 973d 798f a53e eafd 893e ccab 253d
0.014130259 -0.027901972 0.42844772 -0.2958963 -0.23870473 -0.047049146 -0.18849199 -0.3066585
-0.19126558 0.4142291 0.17157172 0.19036639 -0.025306739 -0.026136907 -0.03687334 -0.12022419
-0.2742984 -0.38159883 0.4415639 0.2484761 0.10622837 0.4784354 -0.2214914 -0.14424315
0.40022677 0.1944498 0.026975788 0.1291277 0.010820473 -0.1623342 0.12511648 -0.03004721
0.1985195 -0.05808673 0.21350749 -0.034416962 -0.8124153 -0.6527605 -0.21382484 0.09604303
-0.26464614 0.22993258 -0.12584558 -0.060999 0.15221617 -0.32607418 -0.07201785 0.25213504
-0.22663961 0.34296292 0.47602993 -0.43434095 -0.16898681 0.34509444 0.21664092 -0.09303889
-0.12673695 0.20310824 0.07192963 0.0671267 0.29157344 0.07370381 -0.2468501 0.4719254
-0.24180171 0.3594456 -0.003971652 -0.24940337 0.098568566 0.09750163 -0.37059602 0.04391725
0.15911625 -0.15349685 0.04061636 -0.11815553 -0.13192265 -0.28617692 0.23023002 -0.2135608
-0.18980315 0.22977196 -0.052741487 0.0117933005 -0.14777923 -0.04176558 0.09922527 -0.06465677
-0.16609313 0.19224691 -0.45944664 0.07249614 -0.29125282 -0.18892597 -0.21105123 -0.31766972
-0.17343742 0.23677759 -0.20814833 0.21171068 -0.13545011 -0.13455796 0.07554475 0.223271
-0.06362554 0.07742788 0.1407908 -0.2386973 -0.46505973 -0.41270897 0.16830234 0.08811613
-0.19057195 0.20187417 -0.1831906 -0.41577172 0.38141224 0.20532152 -0.38301528 -0.036732417
0.23304528 -0.35542005 0.023729257 0.23438238 -0.26028955 0.38714358 -0.4242346 -0.42549095
-0.40952218 -0.1962689 -0.14324291 -0.076316714 -0.22526444 0.048718683 -0.3317502 0.20459186
0.14038196 -0.08329995 0.2044828 0.24608009 -0.07457536 0.15006931 0.283545 0.19081119
0.10349851 0.66594446 0.56053084 -0.00069416745 0.2415151 0.44251382 -0.075838305 0.48553234
0.3807628 0.6332689 0.21709064 0.321297 -0.15847446 -0.13340516 -0.35477418 0.33202377
-0.14966954 -0.13009058 -0.2928926 -0.11712921 0.31908646 -0.16026008 -0.15126206 -0.051515546
-0.23427445 -0.23061769 0.034029417 0.19725297 0.19895886 0.39036426 -0.27889484 -0.114773415
-0.118056424 0.39686522 0.31282398 0.5669398 -0.31106275 -0.046449285 -0.2332054 -0.116189726
-0.21005256 -0.15274088 -0.23087215 0.6319101 0.063642345 -0.2246016 -0.058211442 0.025718328
-0.27170643 -0.05683682 0.033097412 0.02135584 0.2800355 0.118935384 0.11379232 0.30380064
0.16227452 0.02763176 0.004197153 -0.30502334 -0.086632214 0.23634367 -0.2621584 0.14069036
-0.13224527 -0.12064424 0.23909423 -0.27989423 -0.2735424 0.19416478 0.08016291 -0.14738344
-0.07847259 0.39221185 -0.18007095 -0.012111965 -0.4011116 -0.46430552 0.33426934 0.086271375
0.07769934 -0.06275995 0.07367177 -0.16776988 0.039458424 0.25774756 -0.01530621 -0.43018994
-0.19015995 -0.29657704 0.34446317 0.41492817 0.61423075 -0.3257413 -0.24970013 -0.18964095
-0.055746336 -0.2519681 0.38728547 0.19057225 0.058211774 0.12751336 -0.026236456 -0.24555813
-0.20156705 0.35947123 -0.21292485 0.02435591 0.073766656 0.32336023 0.26951534 0.04044704

layer2.0.bias f4 [64]
00000000: 10bf 83c1 0d56 82c1 aeb7 83c1 7c8a 86c1
00000010: 9886 82c1 6dd0 7ec1 c012 7fc1 ec6f 85c1
00000020: e997 72c1 993b 76c1 18c8 83c1 6cfb 7fc1
00000030: 670a 81c1 7d56 80c1 48a0 7dc1 11e3 84c1
00000040: 4fd7 75c1 3d94 83c1 df22 79c1 a139 75c1
00000050: 5aec 7fc1 e7ec 81c1 15f9 77c1 737c 84c1
00000060: 7f0d 77c1 0643 81c1 3503 82c1 dcf4 80c1
00000070: 054a 77c1 8ef4 75c1 e50c 82c1 0a79 83c1
00000080: fb56 79c1 3343 7cc1 4ecc 82c1 1f8e 81c1
00000090: ba4c 82c1 437d 80c1 9c72 83c1 3528 83c1
000000a0: cf02 7ec1 224b 85c1 9da7 79c1 9900 86c1
000000b0: b9e8 77c1 378a 7ac1 636f 80c1 a806 83c1
000000c0: bd57 7ec1 848d 7cc1 ff77 7fc1 8797 86c1
000000d0: c5c7 77c1 cb8d 7fc1 c11f 7ec1 6581 80c1
000000e0: b26e 81c1 920c 7ec1 b26c 83c1 1d68 81c1
000000f0: ca71 80c1 c201 84c1 6008 7dc1 936e 80c1
-16.468292 -16.292017 -16.464687 -16.81762 -16.31572 -15.925885 -15.942078 -16.67965
-15.162087 -15.38955 -16.472702 -15.998882 -16.13008 -16.04223 -15.851631 -16.610872
-15.365066 -16.447382 -15.571013 -15.32657 -15.995203 -16.240675 -15.498311 -16.560766
-15.440795 -16.157726 -16.251566 -16.11956 -15.455571 -15.372206 -16.256296 -16.434101
-15.583735 -15.766406 -16.349758 -16.194395 -16.287464 -16.061163 -16.430962 -16.394632
-15.875686 -16.661686 -15.603421 -16.750292 -15.494317 -15.658744 -16.054388 -16.37825
-15.8964205 -15.78455 -15.966796 -16.823988 -15.486272 -15.972117 -15.882752 -16.06318
-16.17905 -15.878069 -16.428074 -16.175837 -16.055561 -16.500858 -15.814545 -16.053991

layer2.1.weight f4 [64]
00000000: 7c79 8f3f 5e7e 923f 98b4 7d3f 048e 813f
00000010: c069 713f f254 623f 74d2 7c3f f6a3 9a3f
00000020: 8764 653f 7b5e 493f 0eaf 8d3f 377e 813f
00000030: dbb1 853f d047 7c3f 176f 903f 7cc0 813f
00000040: 5b39 343f 2197 933f de84 653f a19f 723f
00000050: b085 863f 119a 813f 0554 783f 5a2d 833f
00000060: f254 643f d119 5d3f cbe0 653f 5ddf 8e3f
00000070: 90a3 6a3f 7bab 843f 73ff 7f3f 8fac 9b3f
00000080: b4b9 523f a39b 803f fa5f 663f 1ce1 863f
00000090: dea1 833f b52e 873f 6169 983f 3033 9d3f
000000a0: db35 843f 64f6 743f 88f0 903f c027 903f
000000b0: cf95 623f 2ddb 833f 2b99 633f a281 823f
000000c0: 33b5 703f 1cda 963f f4e0 833f add7 923f
000000d0: bb08 513f b6cc 903f d94c 8c3f 10f1 863f
000000e0: 2e56 6d3f 286e 723f 1727 863f 68d8 6e3f
000000f0: 17ab 703f 7905 7b3f 0add 453f 33aa 873f
1.1208949 1.1444814 0.9910369 1.0121465 0.94301987 0.88410866 0.98758626 1.2081287
0.8960652 0.7865979 1.1069047 1.0116643 1.0444902 0.9854708 1.1283902 1.0136867
0.7040002 1.1530496 0.89655864 0.94774824 1.0509548 1.0125142 0.97003204 1.0248215
0.89192116 0.8636752 0.8979613 1.1161915 0.91655827 1.0364832 0.9999916 1.2162036
0.8231461 1.0047497 0.899902 1.0537448 1.0283773 1.0561129 1.1907159 1.2281246
1.0328935 0.9568846 1.1323404 1.1262131 0.8850984 1.0301262 0.8890559 1.0195811
0.9402649 1.1785312 1.0303025 1.1472069 0.81653947 1.1312473 1.0960952 1.0542316
0.92709625 0.94699335 1.0480679 0.9329896 0.9401106 0.98055226 0.77290404 1.0598816

layer2.1.bias f4 [64]
00000000: 43a5 753e e8a6 68be f5b8 a4bb 4413 90be
00000010: 41ec 8abe cb26 7cbe a48b f5be 6e1f f4be
00000020: 15a2 1fbe a20b 85be 2c36 afbe cdda 61be
00000030: f5aa 7abc 2e6d e0be 7be7 b3be 422a 0ebe
00000040: 5e08 00bf 5ae8 143d a49b 93be 17b8 02bf
00000050: e8ef d7bd 6532 b83e 9fe5 c6be f889 fcbe
00000060: a01c bebe 222f 98be 49eb d6be c807 81be
00000070: 85da 53be a646 aebe 57f0 923d 6926 1fbe
00000080: 5bb3 8abe 1759 5d3e 969d bcbe 80a6 13bf
00000090: 9d42 5dbd b415 8dbe 6896 8abe e5fd 00bf
000000a0: 9048 4bbe f5dd 493e 13bd acbe 3cc0 3abe
000000b0: 8085 dabe 0333 e03b a6c8 e43e f269 b9bd
000000c0: c2f3 a3be bf29 bdbe 0e2c 9ebe b808 0ebd
000000d0: d660 2b3e 3125 f0be 739f 413e 507a 95be
000000e0: 4610 f33d 9105 77be 0197 a9be 67a9 593f
000000f0: 32a5 18bf 2b56 203d 95c5 7d3e b21d d1be
0.23988824 -0.2271992 -0.0050269314 -0.28139699 -0.27133372 -0.24624173 -0.479581 -0.4768023
-0.15589173 -0.25985438 -0.34221017 -0.22056122 -0.015299548 -0.43833297 -0.35137543 -0.13883308
-0.5001277 0.0363544 -0.28829682 -0.5106215 -0.10543805 0.35975948 -0.38847062 -0.49324012
-0.37131214 -0.2972346 -0.41976383 -0.2520125 -0.20688827 -0.34038275 0.071747474 -0.15541996
-0.27089962 0.21616016 -0.3683898 -0.57675934 -0.054018606 -0.2755562 -0.27067876 -0.5038741
-0.19851899 0.19713576 -0.33738002 -0.18237394 -0.42679977 0.0068420186 0.44684333 -0.090534106
-0.3202191 -0.36945912 -0.30892986 -0.034676284 0.16736159 -0.46903375 0.18908481 -0.2919488
0.11868338 -0.24123217 -0.3312302 0.8502411 -0.5962707 0.039144676 0.24782403 -0.40842968

layer2.1.running_mean f4 [64]
00000000: eebb c3c1 bd78 fac1 de6a 4ac1 6658 a4c1
00000010: e1db 5ac1 d041 98c0 5299 9dc1 678c 8bc1
00000020: 9a5d efc1 a6bf 86c1 99fa d3c1 bef5 01c1
00000030: 6578 b5c1 5c4d b0c1 f0aa 9fc1 711b b3c1
00000040: d896 0fc2 d1a6 b5c1 3ae9 25c2 beea 87c2
00000050: f7f3 46c1 adbc 8ec1 fe49 dbc1 dd04 f5c1
00000060: fcd9 34c2 0d32 38c2 45e7 77c1 1201 f3c1
00000070: 80b3 e5c1 6800 48c2 a89c a2c1 96ee 8cc1
00000080: f9eb 2cc2 9695 fac1 0f2c 18c2 2ea2 39c1
00000090: acca b6c1 48d6 dfc1 8294 49c1 e52c 17c1
000000a0: 70b5 a2c1 7ecd b1c1 a519 3fc1 d25e d2c1
000000b0: f97d 75c1 b8cd cac1 0261 aec1 282f c6c1
000000c0: 616e 04c2 4c82 b9c1 24f6 c6c1 4800 c1c1
000000d0: 0530 7cc1 ab2d 40c1 a20f ebc1 3192 9ec1
000000e0: feb7 07c1 46ab 81c1 451b e6c1 87e0 c0c1
000000f0: 5d23 9dc1 2e89 e7c1 0f8f c9c1 52d6 c5c1
-24.466763 -31.308954 -12.651091 -20.543163 -13.678681 -4.7580338 -19.699863 -17.443556
-29.920704 -16.843578 -26.497362 -8.122496 -22.683786 -22.037773 -19.958466 -22.3884
-35.89731 -22.706453 -41.47776 -67.95848 -12.434562 -17.842127 -27.411129 -30.627375
-45.212875 -46.048878 -15.493962 -30.375523 -28.712646 -50.000397 -20.326492 -17.616497
-43.230442 -31.32304 -38.043026 -11.602095 -22.84896 -27.97963 -12.598757 -9.448461
-20.338593 -22.225338 -11.943761 -26.296299 -15.343255 -25.350449 -21.797367 -24.773026
-33.10779 -23.188622 -24.870186 -24.125137 -15.7617235 -12.011149 -29.382633 -19.821383
-8.48242 -16.20863 -28.763315 -24.109632 -19.642267 -28.941982 -25.194853 -24.729649

layer2.1.running_var f4 [64]
00000000: 9ef6 1d42 9fcd 8942 5818 2542 5213 1042
00000010: 5bec 2942 0b32 4942 1cea 2c42 6682 5e42
00000020: fbbc a242 6217 7b42 905d 2142 bb2c 0c42
00000030: cec5 5b42 532d 1b42 d27a af42 4361 0a42
00000040: 6498 5142 711b fb41 d5fe 8d42 e5c6 0d43
00000050: 3584 6c42 48ca 0b42 2c91 7f42 d479 3e42
00000060: 43f4 a342 4523 6242 c7ea 1842 0ec8 0242
00000070: 8c05 5442 b8db 0243 cab9 3242 a62e 1a42
00000080: 74d2 8042 3d78 a442 5804 3d42 8c21 2742
00000090: c6cf 0c42 b99f 3e42 d3ec 3542 1cf5 7342
000000a0: d922 1142 e065 1442 a6a0 8f42 5c8f 0f42
000000b0: 3ca0 8a42 7b0b 8442 9d60 8042 488c 1642
000000c0: 15fc 3942 dc8f 5b42 705f 1342 12ca 0942
000000d0: 31e6 8842 6ca0 3242 00b7 2942 e1b0 2b42
000000e0: ce0d 2f42 a67d 4442 5455 6b42 f953 1942
000000f0: 662e 2742 d7b0 2f42 ba4e 4b42 44e2 2442
39.490837 68.9016 41.273773 36.018867 42.480816 50.29887 43.228622 55.627342
81.3691 62.772835 40.34137 35.043682 54.94317 38.794262 87.73988 34.594982
52.39882 31.3884 70.99772 141.77693 59.12911 34.94754 63.89177 47.618973
81.97707 56.534443 38.229275 32.695366 53.005417 130.85828 44.681435 38.545555
64.41104 82.23484 47.254242 41.78276 35.202904 47.65598 45.481274 60.989365
36.28403 37.099487 71.81377 35.89 69.31296 66.02242 64.1887 37.636993
46.496174 54.890488 36.8432 34.447334 68.44959 44.656662 42.42871 42.922733
43.76348 49.122704 58.83333 38.332005 41.79531 43.922695 50.82688 41.220963

layer3.0.weight f4 [64, 64, 3, 3]
00000000: a5ac bf3e f4fb d63d d386 1a3e e491 8d3c
00000010: 1a43 853b dfe6 58be d28f 84bd 627f 473d
00000020: d295 083e 5315 893e f871 26be 20b4 0bbe
00000030: ccaa 8e3e 41a5 183e 472f 1b3e 55de 54be
00000040: f856 adbe 213a b9be bb8b c0bc c37e febe
00000050: 748c 29be 9ab2 8d3e 064f 92bd dc7e c33e
00000060: 930c 03be 0865 12bf 8903 6cbe 6a08 9abe
00000070: 96f8 48be aa6f d7be 2832 983e 4599 413e
00000080: 3f3d 32bd f2e8 453e d9fe 963e 97f5 6fbe
00000090: f3cd efbd 0422 13bd e117 1abe 863f 273d
000000a0: b7f0 f33b 35dd 82be c7f9 61be 1caa 5a3c
000000b0: 4825 1fbe e5f9 12be 1655 fdbc 262a 103e
000000c0: 2274 65be 920a 633c 9d6c 1abd acb2 86be
000000d0: 8bc3 0ebd c1ec 92bc 412f dbbd d844 5e3e
000000e0: a61f 2ebe 5e38 503d 6e20 0f3f 62d2 de3d
000000f0: df55 a0bc 0b3a e13d 5783 dbbc 1209 d43d
00000100: 54d8 963d 79d2 91be b743 37be a87a 78be
00000110: b537 d9be 998e 873e 4248 eabc 4658 89be
00000120: d912 cdbd f1a0 abbe 9eca c2bd 3737 353e
00000130: 07b7 ff3d 7741 913e 2a9d 663d 229c 56be
00000140: 161c 49be f205 4dbd bd03 573e 1f23 5d3e
00000150: f170 1d3d 5c96 d5bd 23b0 823e f78c 4f3e
00000160: 548d 903e 822a 7f3e 2c52 b3be 97a9 89be
00000170: cc73 e2be af1f 173f e21c 843e 1a22 0c3f
00000180: 1904 8a3e ff54 a93d aa2c 6cbe 6054 10be
00000190: ccb8 1ebe e178 29be 957d 1a3d f22a 5bbe
000001a0: bb41 8a3c a946 6b3e e5ed 113e 3681 9b3d
000001b0: 86e4 de3c 4252 c03d 6ac2 44be a2cb a0be
000001c0: fa64 cdbb 3dcc d9be 9f2a 0fbc 7557 1f3d
000001d0: 4e07 ffbd 48f1 09be ad39 6dbe 546f 8abe
000001e0: 54ca 143e e1dd 353c ebee 213e 27e4 373d
000001f0: 8e23 7a3d e430 163e 944b 813e 88ed b23d
00000200: b95d bb3e 6e79 bc3e d85d 08be ca27 a93e
00000210: d3cb a23e f582 98bd 750a ce3e 445a 963d
00000220: 8464 3a3e 58e2 b6bd fc72 8dbe 9205 7c3e
00000230: 59af f8bd a536 70be fad2 a93e 790f 54bc
00000240: 1c4a 073f 85a3 e13e 061d 063f 5350 893d
00000250: 626c a2bd 467f 833c e7e2 2e3c ffde babe
00000260: 87ce 7fbe e5ae 91be cdb1 6ebe bf67 1fbe
00000270: 5cb4 1a3e 6953 fcbc 2c94 a13e deef 0c3d
00000280: 8862 5a3d 2f79 133f da10 9fbe 0bd8 ecbe
00000290: 20c8 0cbf 603a 3d3e 6fba 0ebe 920a a93d
000002a0: 2367 f93c 21be 48bd d843 dcbd 8d52 0f3e
000002b0: 230b 86be 9880 3e3d fabc 7f3e 2e5b 17be
000002c0: b3e3 3ebe 3333 0c3e 949b eabe a31e aebe
000002d0: 995c 553d 2940 c9bc de5b b13d 51e2 7ebc
000002e0: d298 f4bb 5286 1f3e 9f13 1abe ad64 153c
000002f0: 261f 3f3d 9a1e 9a3d eb03 f53d a713 663e
00000300: 1eb4 98bd 0613 19bc 9308 e0bc 0428 74be
00000310: 1ada 04be 488b 72be bfc4 a13d a28c a8bd
00000320: 96ff 7f3d eefc 683e 93ed c33c 4752 3dbc
00000330: 1ce5 8b3e eaa8 833d e9bb 663d f83f 51be
00000340: 69f5 01be 4a36 9fbe adc6 dabd 8383 2c3d
00000350: db9b 3cbe 1f5c 3d3c c7fb 183c 0d59 19be
00000360: bbd8 6ebc 5ae1 b6be f25c 7cbe 983c 6c3e
00000370: bf48 5dbe f11a 3ebe 390d 403c e635 60be
00000380: c60c 49be 1b39 0a3d c062 27bd 6d62 ea3c
00000390: 69dd 123e 9da9 66be 3474 3e3c 0a6b 323e
000003a0: a8aa 80bd 8505 44be 4f8b f23e 48cd 43be
000003b0: 5124 643e 1236 923e fe9f e0be c12b 953c
000003c0: 82e2 993e 6688 f9be 45c0 c33d 41b9 38bd
000003d0: 7326 ea3c 9c54 013e 59bd febd 975c 883e
000003e0: baf9 213e 21c2 2fbe e9f9 d63e d06f 9e3e
000003f0: 242e 0f3e f01c 75be b7a1 c53e 2a06 053e
0.37436405 0.10497275 0.15090494 0.01728148 0.004066837 -0.2118182 -0.06472744 0.048705466
0.13338402 0.26774082 -0.16254413 -0.13642931 0.27864683 0.1490679 0.15154754 -0.20787938
-0.33855414 -0.3617716 -0.023504129 -0.49706087 -0.16557485 0.27675325 -0.07143979 0.38182724
-0.12797765 -0.5718541 -0.23048224 -0.30084544 -0.19626078 -0.4207738 0.29725766 0.18906124
-0.04351544 0.19327143 0.29491308 -0.23433529 -0.117092036 -0.03592111 -0.15048172 0.040832065
0.007444467 -0.25559393 -0.22067939 0.013346221 -0.15541565 -0.1435314 -0.030924361 0.14078578
-0.22407582 0.013857501 -0.037701238 -0.2630819 -0.034854453 -0.017935159 -0.10702372 0.2170595
-0.1700426 0.050835006 0.5590886 0.10879971 -0.019572197 0.10997399 -0.026796026 0.103532925
0.0736548 -0.2848089 -0.17896925 -0.2426554 -0.42425314 0.2647598 -0.028598908 -0.2682516
-0.100133605 -0.33521226 -0.095113024 0.17696844 0.124860816 0.28370258 0.056302227 -0.20957997
-0.1963962 -0.050054498 0.2099752 0.21595429 0.038437787 -0.104290694 0.25525007 0.20268618
0.28232825 0.24918559 -0.3502363 -0.268872 -0.4422897 0.5903272 0.25803286 0.54739535
0.2695625 0.08268165 -0.23063913 -0.14094687 -0.15500182 -0.16550018 0.03771742 -0.21403101
0.016877046 0.22976173 0.14250906 0.075930044 0.027208578 0.093906894 -0.19214788 -0.3140536
-0.006268141 -0.42538634 -0.008738189 0.038901765 -0.12452565 -0.13470948 -0.23166533 -0.27038062
0.14530307 0.011100263 0.15813796 0.044895317 0.061069064 0.14667088 0.25252974 0.08736712
0.36594942 0.36811393 -0.13317049 0.3303817 0.3179613 -0.07446853 0.40242353 0.073414356
0.18202406 -0.089298904 -0.2762679 0.246115 -0.1214282 -0.23458345 0.33168775 -0.012943142
0.52847457 0.44070068 0.52388036 0.06704774 -0.07930829 0.0160519 0.010674215 -0.36498258
-0.24981128 -0.28453746 -0.23310013 -0.1556692 0.15107864 -0.030801492 0.3155836 0.034408443
0.053316623 0.57606786 -0.31067544 -0.46258578 -0.54992867 0.184793 -0.13938306 0.08253969
0.030444687 -0.049009446 -0.10755128 0.13996334 -0.26180372 0.046509355 0.24974433 -0.14780876
-0.18641548 0.13691406 -0.45821822 -0.3400775 0.05209026 -0.024566727 0.086601004 -0.015556888
-0.0074645067 0.15578583 -0.15046547 0.009118241 0.046660565 0.07525368 0.11963638 0.22468434
-0.074562296 -0.009342914 -0.027347839 -0.2384339 -0.12973824 -0.23685944 0.078988545 -0.082299486
0.062499605 0.22752735 0.023916995 -0.011555261 0.27323234 0.06428702 0.05633155 -0.20434558
-0.12691273 -0.31096107 -0.10682426 0.042117607 -0.18418829 0.011557608 0.009337372 -0.14975376
-0.01457804 -0.35718805 -0.24644831 0.2306999 -0.21609782 -0.18564965 0.0117219025 -0.2189556
-0.19633779 0.033745866 -0.04086566 0.028611386 0.14342274 -0.2252564 0.011624385 0.17423645
-0.0628255 -0.1914273 0.4737191 -0.19121277 0.22279479 0.28556877 -0.43872064 0.01820934
0.30055624 -0.48736876 0.09558157 -0.045098547 0.028582787 0.12629932 -0.12438459 0.2663314
0.1581792 -0.17163898 0.4198754 0.3094468 0.13982445 -0.2393682 0.3859994 0.12990633

layer3.0.bias f4 [64]
00000000: c7b7 c241 3885 c441 441e b541 e025 ba41
00000010: 6cb7 c941 6c56 a241 2669 ae41 ff24 be41
00000020: e3c9 9d41 163c ab41 461f ac41 39a7 af41
00000030: 67ab c341 fdb6 ae41 281e c941 a9d1 a941
00000040: ba7c ce41 c3e4 b441 b9bd d241 0db9 b641
00000050: 9e10 a341 f7f5 b841 3d1b a541 3c94 c841
00000060: 5398 a841 d884 ba41 3c77 ba41 829e b741
00000070: ec65 9f41 69bb ae41 2402 a541 97ba bc41
00000080: 6c77 a941 796a b541 f40d b541 49b0 a941
00000090: d507 b841 f127 b841 2d36 9a41 3d82 b141
000000a0: c947 a541 de33 ac41 db37 9e41 69fd ac41
000000b0: f15a c241 142c a741 f97e 9c41 3a3c b441
000000c0: 1e16 b441 b8b4 a941 7780 a941 ff44 a841
000000d0: 5710 9841 3d5f cb41 d97e bb41 fd5a ae41
000000e0: af18 b741 b5b6 b941 3a68 be41 397a bb41
000000f0: 8aad c141 a94c ab41 a1f4 b941 6c59 b441
24.339735 24.565048 22.639778 23.268494 25.214561 20.292198 21.801342 23.768064
19.723577 21.404339 21.51527 21.956652 24.458693 21.83935 25.139725 21.227373
25.810902 22.6117 26.342638 22.840357 20.383114 23.1201 20.6383 25.07238
21.074377 23.314865 23.30822 22.952396 19.924767 21.841509 20.626045 23.591108
21.183311 22.676989 22.631813 21.211077 23.003824 23.019503 19.276453 22.188593
20.660051 21.525326 19.777273 21.623735 24.294405 20.896523 19.561998 22.529408
22.5108 21.213242 21.187727 21.03369 19.007978 25.421503 23.436937 21.794428
22.887053 23.214212 23.800892 23.434679 24.209736 21.412432 23.244448 22.543663

layer3.1.weight f4 [64]
00000000: f705 9a3f ba95 883f be14 5c3f 79ca 833f
00000010: 616f 873f 7609 8e3f df00 693f 10fb a03f
00000020: d52b 513f e0f2 6b3f 0806 813f f7dd 6c3f
00000030: def0 8d3f 8472 8e3f 1149 953f 8591 713f
00000040: 6534 833f 16a9 853f afd9 9a3f 32cd 5b3f
00000050: 6f97 8a3f d384 4c3f 69aa 633f ac97 a13f
00000060: 3ccb 5d3f 60fa 873f b97f 7b3f ac1e 733f
00000070: 66ce 8c3f 6f34 5e3f 63f1 573f d8b4 713f
00000080: 9e38 863f 8f8a 833f f820 733f db01 6e3f
00000090: 29b7 923f c403 603f d5bf 523f ff2c 573f
000000a0: 8743 863f 6fa7 4f3f 1a59 563f 52bb 553f
000000b0: 115d 783f 90b8 823f 5cf2 4c3f 0ead 843f
000000c0: 2ca3 8a3f 3b9f 853f 8724 593f 15a7 493f
000000d0: c8e9 4e3f 1050 8a3f 9c8e 7f3f a115 4f3f
000000e0: 9adc 603f 7ac4 813f 1695 7e3f 4682 7b3f
000000f0: 7207 7a3f e69a 6f3f b5ff 613f a6d8 693f
1.203307 1.0670693 0.8596915 1.0296165 1.0580865 1.1096637 0.91016954 1.2576618
0.8170751 0.9216747 1.0079966 0.9252619 1.1089132 1.1128697 1.1662923 0.9436267
1.0250365 1.0442226 1.2097682 0.8585998 1.0827464 0.79890174 0.889319 1.2624412
0.86638236 1.0623283 0.98241764 0.94968677 1.1000488 0.8679876 0.843527 0.9441657
1.0486028 1.027666 0.9497218 0.9297158 1.1462146 0.87505746 0.8232396 0.84053034
1.0489358 0.8111486 0.8372971 0.83488953 0.9701701 1.0212574 0.8005731 1.0365312
1.0831046 1.0439218 0.8482136 0.7877057 0.8082547 1.0805683 0.9982698 0.8089238
0.8783661 1.0138085 0.9944624 0.98245656 0.9766761 0.9359573 0.882808 0.91346204

layer3.1.bias f4 [64]
00000000: 0635 5bbe 52a8 c3be a198 18bf 3bfe 19bf
00000010: 9112 f63d a9a6 b8be 1124 44bf dea1 c5be
00000020: 2bd1 b9be a873 febe cb8b d3be 4af5 c7be
00000030: 833d 1fbf 4d16 3fbe 1d9e 16be 0b01 2abf
00000040: ef98 bb3b 5cc1 05be eafb 6ebe df15 03bf
00000050: 2a94 dfbe fdcb 4abf b85b 49bf df41 a9bd
00000060: 41d8 26bf d69f fdbc de5f fbbe 4281 08bf
00000070: 5368 f5be 3b92 2dbf de48 3cbf c60c 0cbf
00000080: ef35 bebe 4106 a4be 554a 0fbf 784c 4cbf
00000090: ecf3 2dbf 0a3a ddbe c412 35bf 2065 47bf
000000a0: d847 acbe 3ec0 0cbf 3ad5 d5be c13d 20bf
000000b0: e385 e6be 4a0e 80be e630 2cbf 0aeb 9ebe
000000c0: cbe5 01bf 99bd 8fbe b197 32bf 2be7 4bbf
000000d0: 4b60 25bf 0605 3cbe 4b5d 08bf 7692 5bbf
000000e0: bcd9 60be 762e 70be ae1d a1be c9c4 04bf
000000f0: ff20 c8be 267c 09bf 918f 59bf 718f 13bf
-0.21406946 -0.38214356 -0.59607893 -0.6015355 0.1201526 -0.36064652 -0.7661753 -0.38600057
-0.36292395 -0.49697614 -0.4131759 -0.39054328 -0.62203234 -0.18660851 -0.14708753 -0.6640784
0.005725018 -0.13062042 -0.23338285 -0.5120525 -0.43667728 -0.7921751 -0.78655577 -0.08264517
-0.6517373 -0.030960005 -0.49096578 -0.5332223 -0.47931156 -0.67801255 -0.73548687 -0.5470699
-0.37150523 -0.3203602 -0.55972797 -0.7980418 -0.6795032 -0.43208343 -0.7073176 -0.7788868
-0.33648562 -0.5498084 -0.4176424 -0.6259423 -0.45024022 -0.25010902 -0.67262113 -0.31038696
-0.5074126 -0.2807434 -0.6976271 -0.7964961 -0.64600056 -0.18361291 -0.53267354 -0.85770357
-0.21958059 -0.23455223 -0.31467956 -0.5186277 -0.39087674 -0.5370506 -0.8498469 -0.5764075

layer3.1.running_mean f4 [64]
00000000: 63fa ed41 e6ef 0f42 a4fd e141 d190 c240
00000010: 26b4 a041 7ebd d441 6c21 6441 8530 f041
00000020: d430 8f41 5382 1542 19e7 c841 ea7f 0641
00000030: e86b 2342 7af7 bd41 a087 9141 342d cd41
00000040: e7f5 0742 0012 8641 4f68 c541 7337 2241
00000050: 1810 f241 95c8 be41 bebc c541 0935 0842
00000060: 464c 6e41 03fd 9f41 793a 9d41 b5d2 3e41
00000070: 4bb5 1a42 32b7 cb41 e732 1f41 d2d6 8d41
00000080: 3e5f 7341 d13e b641 650b e541 77eb a741
00000090: 7d52 8041 8449 4341 220b a441 20e8 8141
000000a0: 6aab 9b40 03c3 d240 2f6a 8e41 81f4 8740
000000b0: a506 9141 910a b041 6bd9 3340 5ee7 f941
000000c0: 6577 d841 ab1c 1340 85ef 6941 0e19 e641
000000d0: c2df 5f41 8696 0e42 b9be 9540 d172 d641
000000e0: 2581 a741 e4c9 b141 1935 9141 971e 9c41
000000f0: 5264 ac41 374d 5f41 0b3c 0942 6916 c541
29.74726 35.984276 28.248848 6.080178 20.087963 26.592525 14.25816 30.023691
17.898842 37.37727 25.11284 8.406229 40.855377 23.745838 18.191223 25.647072
33.99014 16.75879 24.675932 10.138537 30.257858 23.84794 24.71716 34.051792
14.893621 19.99854 19.653551 11.926442 38.677044 25.46445 9.949927 17.729893
15.2107525 22.780672 28.630564 20.989973 16.040277 12.205448 20.505436 16.238342
4.8646746 6.586305 17.801847 4.2485967 18.128244 22.00516 2.8101451 31.237972
27.058298 2.2986248 14.620976 28.762234 13.992128 35.646996 4.6795316 26.806063
20.938059 22.22358 18.150927 19.514936 21.548985 13.956351 34.308636 24.635942

layer3.1.running_var f4 [64]
00000000: ed88 4642 53bb f041 5f32 0b42 b785 f141
00000010: 2a82 e141 4140 5542 4a9d 7d42 b128 4742
00000020: 63a7 8742 eb54 5142 5bee 0d42 4e09 5542
00000030: 015f 1b42 ca30 6d42 49d6 d041 848a 5142
00000040: 185d e441 6739 0d42 5734 d141 a47d 1d42
00000050: 9da9 5342 1ba9 2c42 7e25 7642 17e5 2242
00000060: 59ab 8242 8486 4242 e503 1942 cd20 0c42
00000070: c316 8242 ca84 4542 bf3f 6242 7e58 0342
00000080: ed98 2842 5580 cc41 a795 1e42 e216 5c42
00000090: c1d4 2f42 c61d 0842 ac69 b242 a956 4f42
000000a0: 727c 4d42 4e53 f441 37c2 8a42 1b2e 5242
000000b0: 0ff0 0042 8aa2 3342 2579 9a42 23f4 1a42
000000c0: 07f2 8642 6f38 6142 c0d3 5442 dc1e 2f42
000000d0: 9c70 9542 83ba 0042 013d 3042 3541 2542
000000e0: e0e4 2c42 250b ef41 ae3f 1642 403e d541
000000f0: 75a5 ef41 fe8a 3042 1e4f 1242 e424 0442
49.633717 30.091467 34.79919 30.19029 28.188557 53.312748 63.403603 49.789738
67.82693 52.332928 35.48277 53.259087 38.842777 59.297646 26.104631 52.38527
28.545456 35.306057 26.150557 39.372696 52.915638 43.165142 61.536613 40.72372
65.33466 48.631363 38.253803 35.032032 65.04446 49.379677 56.562252 32.83642
42.14934 25.562662 39.646145 55.022346 43.957767 34.029076 89.20639 51.83463
51.37153 30.540676 69.379326 52.545025 32.234432 44.90873 77.23661 38.738415
67.47271 56.30511 53.206787 43.780136 74.71994 32.18214 44.059574 41.31368
43.22351 29.880442 37.562187 26.655396 29.95579 44.135735 36.577263 33.036026

layer4.0.weight f4 [64, 64, 3, 3]
00000000: c704 c53d 3fef 9dbe 40f0 21bc acce a0be
00000010: 6a82 dbbe 880e 6dbe 567b 823e 0303 18be
00000020: 6a46 b63d 25ba 9fbc 9610 69be 6b04 cfbe
00000030: eb21 5d3e 28bf c7bd 69fe 9fbe 79e3 043f
00000040: 05f2 793e 1a90 8a3e a61b b93d d540 0e3d
00000050: 627b 9a3d 4809 c73c 0cd3 52bd 2e00 12bc
00000060: 0365 8c3e 1022 2b3e 21d9 54be 4ee4 743e
00000070: 03dc 483e 73dd a3be f2de 123d 0128 553e
00000080: cc15 72be 1673 433c d61f 363d 5a6a 7ebe
00000090: 2bf0 94bd 4e1e 84be e20a 86bd 81ec 353e
000000a0: 8912 a33d d124 1c3e ca30 863e 6da1 3abb
000000b0: abe8 cd3d cd6b dcbe e713 8dbe 871f 30bf
000000c0: 7247 a4be db3a 13bd b40e 51be 2e07 03be
000000d0: cc36 a5bd 0499 afbe 0806 20be 6dbd c7be
000000e0: 2749 9a3e b023 86be 5285 72be 4470 f83e
000000f0: 3c88 c2be 05c2 4ebe 0925 ef3d 6d0c 53be
00000100: 67b0 c1be 881e 53bd 4177 96bc 6ea3 b03c
00000110: 772f a73d bb15 363c dba2 ea3d 98fb bd3e
00000120: c580 3b3e 38aa a73d dba1 813e 1f55 6fbd
00000130: 67f2 21be 7dd0 8f3c 4f28 1c3d 26b5 03be
00000140: 754f fb3d be2c 8a3e e666 ec3e ae23 eb3e
00000150: e843 5e3e b452 873e 983a 153e e481 21bd
00000160: 44b0 883d 3e00 a8bd b924 2ebe 5806 cbbe
00000170: 746f e1be e3bd d5bd b7cc a5bd 37c1 cabe
00000180: 2c98 403d b55a 8abd b0f9 17be b24d c43d
00000190: cbee 2bbe 7ad5 02be 9276 42be 2fe9 be3b
000001a0: 97ab 363e 7c18 72be 20a4 3fbe 8741 573c
000001b0: 898e dc3d 1af7 2e3e 8bbb 1b3f 64c3 1bbe
000001c0: ef24 14be 9b90 163f f9ff 3bbf a7fc edbe
000001d0: dae7 473d 901e fc3c 00f4 dcbe a14c 20be
000001e0: 1b3c d9bd 85e8 ecbd 44f2 27be cead 50be
000001f0: 7287 aabe d11e 2bbe 480d fb3d 6042 e33d
00000200: 84ee 123e 9968 1bbe 690b 333d 3517 a1bd
00000210: ade6 ad3c 1514 8a3e 284f 39be afa6 a53d
00000220: 4be3 6c3e f409 053f 9d94 efbd 037c 6fbe
00000230: e613 0a3e 8892 893c c990 c93d beb0 a03e
00000240: d02b 413e 0144 263e 5ebf 413e 8c06 36be
00000250: a20a 763e f943 08be 4655 563d 9a5b ab3e
00000260: 07c7 b8bb ce68 233e 3005 9a3d 8b33 6fbc
00000270: 7c5d 6a3e 21fb 7fbe a4c8 99bd fc13 203d
00000280: c646 b1be 0049 e33d 575c dc3e 35d8 f33d
00000290: 6b1f 53be 6454 973e 6f9b 78be 70ca 45bf
000002a0: cf73 e53d a0ff e9bd e4af ecbe ec3e c13e
000002b0: 4fcb 8c3e 972c 033f 0af4 aa3d 8c6f 9cbd
000002c0: 7265 c33d 8cfa 293e 76db 95bd 9af2 4bbd
000002d0: 53b9 23be 28b8 b63c 7835 d0be 4aad 8dbe
000002e0: f3de 743d 51d9 c4be 9503 0ebd 9f29 f3bd
000002f0: c6a4 15bf 95a7 863c e024 47be 5cb3 113e
00000300: e09f 52be 2acb 113d f5a3 d33d d03f 8fbd
00000310: 250e 5abe b57e 493e 2a11 243e aa38 46be
00000320: 19bf a03e 8897 583e 4468 853c 57c5 6b3e
00000330: 42c1 a93d 9b08 683d 85a8 583e 47c9 433e
00000340: aac0 2bbd 208a 473d 60a7 563e 9d30 abbd
00000350: 6ff5 933c 3d4e a4be 1304 0dbf 6693 76be
00000360: e07c 2d3d af5c 3e3e 0580 cabd 3a9b 37bd
00000370: 89cf 1e3e 437c 07be 7435 aa3d e837 c53e
00000380: da5d e83d 1d08 48be 4489 3dbe d82e 15be
00000390: 9d74 633e 9b9e 3e3e eeea f13c 4c25 a1bd
000003a0: f412 e6be 5c9f 0fbf 27ec 713e 9adb 00bd
000003b0: 371c 433f 29f7 293e bb22 91be c90b 213f
000003c0: b162 1fbd e603 b9be 0c27 b03e 3d82 abbd
000003d0: a094 e7bd d239 bc3e a219 04be df19 aabe
000003e0: 3f9b be3e 1835 3c3d f462 a1be f8dc 9e3e
000003f0: b939 a53c c76d 2c3e 8597 a0be dabd 853c
0.09620052 -0.30846593 -0.00988394 -0.31407678 -0.42872936 -0.23150074 0.25484723 -0.14844899
0.08900149 -0.01949794 -0.22760233 -0.40433058 0.2159497 -0.09753257 -0.31248787 0.51909596
0.2440873 0.27063066 0.09038477 0.034729797 0.07543065 0.024296418 -0.0514708 -0.008911176
0.27420816 0.16712213 -0.20785953 0.23915216 0.19615178 -0.3200489 0.03585715 0.20816042
-0.23641127 0.011929294 0.044463955 -0.24845257 -0.07272371 -0.2580437 -0.065450445 0.17766
0.0796252 0.1524842 0.26209098 -0.0028477565 0.100541435 -0.43050995 -0.27554247 -0.68798107
-0.32085758 -0.0359448 -0.20415765 -0.12795708 -0.08067092 -0.3429643 -0.156273 -0.39011708
0.30133936 -0.26199102 -0.2368367 0.48523152 -0.37994564 -0.201912 0.11676986 -0.20610209
-0.37829897 -0.05154279 -0.018367412 0.021562304 0.0816335 0.011113579 0.114568435 0.37106013
0.1831084 0.081867635 0.25318798 -0.058430787 -0.15815125 0.01755547 0.03812438 -0.12862071
0.122710146 0.2698726 0.46172255 0.4592566 0.21705592 0.26430285 0.14573133 -0.039430514
0.06674245 -0.08203171 -0.17006196 -0.39653277 -0.44030344 -0.10436609 -0.08095687 -0.39600536
0.047020122 -0.06755582 -0.14841342 0.09585132 -0.16790311 -0.12776747 -0.18990543 0.0058261375
0.17838894 -0.23642153 -0.18714952 0.0131381815 0.10769374 0.1708645 0.6083304 -0.15211254
-0.14467214 0.588144 -0.7343746 -0.4648182 0.048805095 0.030776292 -0.43154907 -0.15654232
-0.10607167 -0.11567787 -0.16401011 -0.20378801 -0.33306462 -0.16710974 0.122583926 0.110966444
0.14348799 -0.1517662 0.043712053 -0.078657545 0.021228159 0.26968446 -0.18096602 0.08088433
0.2313358 0.5196831 -0.116982676 -0.2338715 0.13484153 0.016793504 0.09842069 0.31384844
0.1886437 0.16236879 0.18920657 -0.17775935 0.24027494 -0.1330718 0.052327417 0.33468324
-0.0056389603 0.15957949 0.07520521 -0.014599691 0.22887224 -0.24998142 -0.07508972 0.03908156
-0.34624308 0.11097908 0.430392 0.119064726 -0.20617454 0.29556572 -0.24278043 -0.7726202
0.11203729 -0.1142571 -0.46227944 0.37743318 0.27498862 0.51239914 0.08347328 -0.076384634
0.095408335 0.16599482 -0.073172495 -0.04979191 -0.15988664 0.02230461 -0.40665793 -0.27671272
0.059782933 -0.3844705 -0.034671385 -0.11873173 -0.5845455 0.016437331 -0.1944766 0.14228576
-0.205688 0.035594143 0.10334007 -0.06994593 -0.21294458 0.19677241 0.16022173 -0.19357553
0.31395796 0.21151555 0.01628507 0.23024498 0.08288814 0.05664883 0.21158035 0.1911975
-0.041931786 0.04871571 0.20962286 -0.083588816 0.018061368 -0.3209094 -0.5508434 -0.24079666
0.04235542 0.18590043 -0.09887699 -0.04482577 0.15508856 -0.13230996 0.083109766 0.38519216
0.11346026 -0.19534345 -0.18509394 -0.1456865 0.22212453 0.1861519 0.029530969 -0.07868442
-0.44936335 -0.5610254 0.23625241 -0.03145943 0.7621493 0.1659819 -0.2834681 0.6290861
-0.03891248 -0.36135787 0.3440479 -0.0837445 -0.11307645 0.36762863 -0.12900403 -0.33222863
0.37227818 0.04594907 -0.31520808 0.3102796 0.020169126 0.16838752 -0.313656 0.01632588

layer4.0.bias f4 [64]
00000000: 0654 1fb8 11cf 2539 46b5 2638 a2ae ffb7
00000010: 2ad7 80b7 5cc5 5c38 ae25 0f39 7d7e 1fb8
00000020: 9eaa 9b38 09f1 62b7 4f68 16b8 c553 f537
00000030: 4c39 6739 2b5e cfb9 d480 bc38 6551 3db8
00000040: ea24 50b9 735b 7c39 aa7f 6a39 daa0 2d38
00000050: 6d37 0fba 4131 21b9 035f 94b8 5706 7335
00000060: 57f5 1cb8 f149 933a f83f 433a dee2 0539
00000070: a753 f9b8 3b08 8bb9 fb3c 3bb9 dac0 2bb9
00000080: ec26 0839 83dd 18b8 0844 d037 6a9a 85b8
00000090: 7740 2037 7aef a739 4cb9 0939 0661 1039
000000a0: a44d 9839 b6c7 373a 9798 4939 2dba 243b
000000b0: 557d e739 777a 12b7 46cb f7b7 339a c339
000000c0: 9121 2bb8 1bd1 3fb8 6310 06b8 15e7 54ba
000000d0: 5908 4539 26cd 3239 a307 4437 b21b 16b9
000000e0: 2e97 6637 1cc9 1a38 a04e 9939 5d97 4cb8
000000f0: 523a e9b9 d5c0 8a38 a5cf 1db8 9284 0839
-3.7986807e-05 0.00015812764 3.9746308e-05 -3.0479689e-05 -1.5358983e-05 5.2635893e-05 0.0001365158 -3.8026355e-05
7.422756e-05 -1.352677e-05 -3.585993e-05 2.9245284e-05 0.00022051221 -0.00039552277 8.988535e-05 -4.5136916e-05
-0.00019850177 0.0002406666 0.00022363538 4.139622e-05 -0.0005463276 -0.00015372505 -7.074887e-05 9.053378e-07
-3.742179e-05 0.0011237246 0.0007448192 0.00012768383 -0.00011888827 -0.00026518278 -0.00017856427 -0.00016379674
0.0001298447 -3.6445923e-05 2.4827212e-05 -6.370696e-05 9.551753e-06 0.00032031146 0.00013134367 0.00013769054
0.00029049546 0.0007010655 0.00019225698 0.0025135383 0.00044153133 -8.730792e-06 -2.9539351e-05 0.00037308186
-4.0800838e-05 -4.5732693e-05 -3.196335e-05 -0.0008121592 0.00018790494 0.00017051827 1.1684288e-05 -0.00014315432
1.3744268e-05 3.690376e-05 0.00029241014 -4.8778358e-05 -0.00044484675 6.6162705e-05 -3.76251e-05 0.00013019357

layer4.1.weight f4 [64]
00000000: 3281 6d3f e141 7e3f 6ed0 753f 8000 5e3f
00000010: dfc8 8d3f 5dce 7c3f 17e2 8d3f 382a 703f
00000020: 7457 6a3f 9a1d 743f 54ea 813f 097b 493f
00000030: 5880 8b3f dd02 743f da66 803f cd82 873f
00000040: fd45 743f b8ff 943f 34d8 693f 6ca0 7b3f
00000050: d235 8c3f 8161 733f e36c 813f 14e7 913f
00000060: 5316 913f 717a 883f e8b4 803f 0141 723f
00000070: e110 933f ec84 433f f3f1 433f 2623 4a3f
00000080: e3ae 603f 76b5 7a3f 7b53 693f bdd7 5f3f
00000090: 37ca 883f 4ab4 883f ab49 723f ff74 673f
000000a0: 26e1 883f 344e 603f 80f6 723f e3dc 773f
000000b0: 8bcd 843f acdd 8e3f dac8 853f dccb 573f
000000c0: 84de 893f 8b7a 6b3f 5270 863f 1332 813f
000000d0: cc73 6d3f 1468 573f 7022 913f a4c4 613f
000000e0: e9a9 863f 431c 853f 7255 4d3f 94a0 7c3f
000000f0: 8921 6a3f bb37 6c3f 922a 833f e603 4b3f
0.9277526 0.99319273 0.96021163 0.8671951 1.1076926 0.98752385 1.1084622 0.9381442
0.9153969 0.9535767 1.0149636 0.7870336 1.0898542 0.9531687 1.0031388 1.0586792
0.95419294 1.1640539 0.91345525 0.9829166 1.0953925 0.95070654 1.0111355 1.1398644
1.1334938 1.0662366 1.0055208 0.9463044 1.1489526 0.763747 0.7654106 0.7895988
0.87766856 0.9793314 0.91143006 0.87438565 1.0686711 1.068002 0.9464366 0.90412897
1.069371 0.8761933 0.9490738 0.9682142 1.0375227 1.1161399 1.045192 0.8429544
1.0771031 0.9198386 1.0503027 1.0093406 0.92754817 0.84143186 1.1338634 0.88190675
1.0520602 1.039925 0.80208504 0.9868252 0.9145742 0.9227254 1.0247366 0.79302824
