miniImagenet/SalNet_IntraClass/miniImagenet_foreground_encoder_5way_5shot.pkl (torch_old, 457789 bytes, 24 tensors)

layer1.0.weight f4 [64, 3, 3, 3]
00000000: 1a65 8a3e 1418 153e cb22 e13e def9 48be
00000010: d45d 8cbe 2580 89be 6bf2 60be b274 44be
00000020: 7404 1c3c ba86 8e3e 3adb 613e 6292 a73e
00000030: b874 47be 0d0d 06be 335d 58be b647 b53d
00000040: 8d2b 1ebe 67d3 073e 5419 5f3e 7572 8abc
00000050: 2a29 803e 41ba aebd 419c 63be cfbb 46be
00000060: df36 933d 8053 5b3d 2ead 653e ab75 3a3e
00000070: 8b15 f9bc 2339 debd 0c98 0d3e f818 25bd
00000080: ade5 9bbe cd7a 0a3e 4a48 d23c b03b 19bd
00000090: d213 253e 773a a2bc e7b0 9ebe 1f38 ae3d
000000a0: 3755 0cbe ee6d 14bf 39cc 093d a686 cfbd
000000b0: 6dc6 bbbe 52f2 8f3d fdd3 a2be 1acc dfbe
000000c0: f19a a13d b713 c1bd 65a9 ebbe a627 d53d
000000d0: e533 9ebc 5d3c 01be 4871 aabd c083 d8be
000000e0: cbe4 cdbe 3db6 bb3d 6581 433e d492 893e
000000f0: 0c38 553d 7bcb 893e b070 133e ce56 58be
00000100: c134 b1be 14af 99be de9a a0bd 3eb5 fe3d
00000110: 9edb 523e 8ef4 ad3b be43 b73d dcb1 f6b9
00000120: 36f4 7fbe 974c 8dbe 0fd3 35be 938d 0dbc
00000130: 10c9 7d3e ac97 883e ded3 473e ac1f 173e
00000140: d071 643e 3a5a cabe 4b80 e9bd 55ee d73e
00000150: 08d1 b8be 5f44 cf3d 1001 9f3e f8e9 33bd
00000160: f82d edbd 10e9 923e 8122 99be b50a f0bd
00000170: d5ed d33e 52c9 bebe d90c 78bc 59d0 293e
00000180: 8875 41be 269e 3bbe 6b84 023e c012 92bd
00000190: 424a 163d be7c 933e d027 9fbd bfba 803d
000001a0: 183b 933e 43bc 9dbc 97e7 a7bd 9d53 ab3c
000001b0: bd79 cf3d 1392 333e 0c0f d33d 8bf1 dd3c
000001c0: 1139 1a3e 7b40 6c3e c043 3bbe 0ece b8bc
000001d0: 9b06 ce3b c739 af3d 3c19 853e a94e 693e
000001e0: e5ee d7bd a346 853e d18c 6e3e 8c58 5fbe
000001f0: 631b c5bc 5d53 983d 6353 9f3d a426 e73e
00000200: 5247 003f 3ba3 3dbe 4f13 a83e cfcd 063f
00000210: 3290 e9be d134 c83b 69c1 ad3e afce a53e
00000220: 9859 863e be85 3abe b469 923e b7ff 013e
00000230: 7a7a a3be a868 463d f5fb 02bd 591d 69bc
00000240: 29b5 ad3d e520 d5bd beae 0dbf 4a98 6dbb
00000250: 493e a2bd 943f edbe 2756 8bbd 2df1 51be
00000260: a397 c1bd d111 833e ae07 1c3e 7c85 89be
00000270: 9b34 b73e 2d89 2a3c cb67 d43c d941 083e
00000280: 5875 303e f560 883e e2a1 fb3d 9805 92bb
00000290: 8074 55be dca8 b83e a589 e1bc 02ba ebbe
000002a0: e531 813e 4bc6 8b3d c805 42be 8e16 143e
000002b0: 997a 473d 5664 37be 6d4c b83e bbca 143e
000002c0: 4eb3 b9be c7bf 803e 86c4 a93c d1ca 93be
000002d0: 1abe 513e 4396 443e ff4b 92bd 1c64 883e
000002e0: 2bd8 3d3d d669 bbbe 5935 093d f05e 7abd
000002f0: 3c6f 72be daf9 3e3e 2a82 1abe 1a4a 2fbe
00000300: e181 a13e b85b 20be 0976 aebe b1d7 773e
00000310: 4466 8f3e 1a92 1abe d5e9 203d 1eae 31be
00000320: 7330 283e b395 8a3e c483 cb3c c118 39be
00000330: 64b0 573e ae30 1f3e 6ec6 86bd 2b1d 33be
00000340: f23f e1be 72fe 22be 3945 fd3d 7ce8 6cbe
00000350: d56f 99be aa2d a23e 6677 8e3e 3b88 72bd
00000360: 7857 d33e c613 f43e d928 893e 357a 573e
00000370: e6c1 3b3e e9aa 383d 5472 00be 8f99 1bbe
00000380: 7e43 4abe cf6a ac3d 80be 943d 7b14 7e3d
00000390: c669 9cbe e032 93be 6120 60be 1b5d a1be
000003a0: d9e9 f3be f94d 8fbe a8f5 083e 445a 313e
000003b0: 1951 7f3d aa18 c23d 39c5 d83d 17b5 93bc
000003c0: 1306 f53b a0e2 15be c461 703c ba83 ca3e
000003d0: add4 8aba a56c 683e c0a4 463e b46c abbe
000003e0: 6410 303e 4ab3 9abd da3e b3be 1bca 0e3c
000003f0: 0baa 3b3e 9819 d1be 04e4 413d 5078 663d
0.2703026 0.14559966 0.43971857 -0.19626567 -0.27415335 -0.2685558 -0.21967475 -0.1918514
0.009522546 0.27837163 0.22056285 0.3272887 -0.19478118 -0.13090916 -0.21129303 0.088515684
-0.15446301 0.13264237 0.21787006 -0.01690028 0.25031406 -0.08531619 -0.22227575 -0.19407581
0.071882 0.05354643 0.22429344 0.1820895 -0.03040578 -0.10850742 0.13827533 -0.040307015
-0.30448666 0.13523407 0.025669236 -0.037410438 0.16120842 -0.019803269 -0.3099434 0.08506798
-0.13704382 -0.5798024 0.033642028 -0.10133104 -0.36674824 0.07028641 -0.3180236 -0.43710405
0.07890881 -0.094275884 -0.46027675 0.10407953 -0.019311855 -0.12620683 -0.08322388 -0.42288017
-0.40213618 0.091656186 0.19092329 0.26869833 0.052055404 0.26913056 0.14398456 -0.21126863
-0.3461056 -0.30016387 -0.078420386 0.12436913 0.2059159 0.005308694 0.08948468 -0.00047053292
-0.24995503 -0.27597496 -0.17756294 -0.008639711 0.2478373 0.26678216 0.19514415 0.14758176
0.22309041 -0.39521962 -0.11401423 0.4217402 -0.36096978 0.101204626 0.31055498 -0.043924302
-0.115810335 0.28693438 -0.29909137 -0.11720792 0.4139239 -0.3726297 -0.015139782 0.16583385
-0.18892491 -0.18322048 0.12745826 -0.071324825 0.03669191 0.28806108 -0.077712655 0.06285619
0.28756022 -0.01925481 -0.08198469 0.020913893 0.101306416 0.17536192 0.10305604 0.027092716
0.15060832 0.23071472 -0.18287563 -0.022559192 0.0062874085 0.08555942 0.25995815 0.22783913
-0.105436124 0.26030454 0.23295905 -0.21811122 -0.02406091 0.07437775 0.07779577 0.45146668
0.50108826 -0.18519299 0.3282723 0.5265779 -0.45617825 0.006109812 0.33936623 0.3238425
0.2624023 -0.18215081 0.2859627 0.12695204 -0.3192938 0.04843965 -0.031978566 -0.014228188
0.08481819 -0.10406665 -0.5534476 -0.0036254101 -0.07922036 -0.4633757 -0.06803542 -0.20502158
-0.094527505 0.2559953 0.15237305 -0.26859653 0.35782322 0.010408682 0.025928399 0.13306369
0.17232263 0.26636472 0.12286736 -0.0044562332 -0.20845222 0.3606633 -0.027531454 -0.4604035
0.2523338 0.06824931 -0.18947518 0.14461729 0.048700903 -0.17909369 0.35995808 0.1453046
-0.3626961 0.25146315 0.020723592 -0.28865674 0.20482674 0.19197945 -0.07143401 0.26638877
0.046348732 -0.36604184 0.033498142 -0.061125696 -0.23675245 0.18649998 -0.15088716 -0.17118111
0.31544402 -0.15659988 -0.3407443 0.24203373 0.2800771 -0.15094796 0.0392855 -0.17351577
0.16424732 0.27067336 0.024843104 -0.18075849 0.21063381 0.15545914 -0.06580816 -0.17491595
-0.439941 -0.15917376 0.12366719 -0.23135561 -0.29968134 0.31675464 0.2782547 -0.05921195
0.4127767 0.47671336 0.26788977 0.21042712 0.18335685 0.045084868 -0.12543613 -0.15195297
-0.19752309 0.084188096 0.072628975 0.06203125 -0.3054945 -0.28749752 -0.21887352 -0.31516346
-0.4763935 -0.27989176 0.1337496 0.1731959 0.0623332 0.094773605 0.10584492 -0.018030686
0.0074775307 -0.14637232 0.014671747 0.39553624 -0.0010591947 0.22697695 0.19398785 -0.3348137
0.17193753 -0.07553728 -0.3500889 0.008715178 0.18326585 -0.4083984 0.047336593 0.056267083

layer1.0.bias f4 [64]
00000000: 421b 03c2 dc73 f5c1 d12f 0cc2 7fd3 0ac2
00000010: 9eff 07c2 bd5e 0dc2 f6a3 0bc2 b6c4 08c2
00000020: b3d0 0bc2 fb88 0cc2 715c 0ac2 62f5 0dc2
00000030: eb83 0bc2 9b7c 0cc2 e3fc 09c2 f539 0bc2
00000040: 3bfc f4c1 6b04 0cc2 f408 0cc2 83a5 0cc2
00000050: d523 0ec2 53e5 85c1 4b1d 07c2 f8f8 0bc2
00000060: 1d2f 04c2 7b8a 04c2 a405 08c2 034c 08c2
00000070: a505 ddc1 1977 0ac2 6a60 06c2 f9c2 06c2
00000080: be66 0bc2 e735 e8c1 fdc1 09c2 e374 00c2
00000090: c267 e8c1 0ded 08c2 98d9 09c2 99f5 0cc2
000000a0: b409 f9c1 506b 05c2 7aa7 02c2 0603 09c2
000000b0: ad22 07c2 74e1 09c2 65f0 04c2 b030 04c2
000000c0: 58da f9c1 2bec 02c2 f0a0 08c2 fd2d 04c2
000000d0: c678 fec1 ddab e7c1 3e0b f4c1 511d f6c1
000000e0: af20 09c2 17a1 09c2 90c8 05c2 e060 00c2
000000f0: 4cb8 08c2 7cad 09c2 7a1f 0dc2 444e 08c2
-32.77662 -30.681572 -35.046696 -34.70654 -33.999626 -35.342518 -34.91012 -34.1921
-34.953808 -35.13377 -34.590275 -35.48963 -34.878826 -35.121685 -34.49696 -34.8066
-30.62316 -35.004314 -35.008743 -35.161633 -35.534992 -16.736975 -33.778606 -34.993134
-33.04601 -33.135235 -34.00551 -34.07423 -27.627756 -34.616306 -33.594154 -33.690403
-34.850334 -29.02632 -34.43944 -32.114147 -29.050663 -34.231495 -34.462494 -35.23984
-31.129738 -33.354797 -32.66355 -34.252953 -33.783863 -34.47017 -33.23476 -33.047546
-31.231613 -32.730633 -34.157166 -33.04491 -31.808971 -28.958918 -30.50549 -30.764315
-34.281918 -34.407314 -33.44586 -32.094604 -34.179977 -34.41942 -35.28074 -34.07643

layer1.1.weight f4 [64]
00000000: 1fac e13e 164a 9f3e 7b80 9b3f 7eda 963f
00000010: 5cbb c63f 726b 9f3f d298 b43f c5b3 2c3f
00000020: e9f1 a03f 9520 af3f cf4a 1e3f baab 993f
00000030: 8818 853f c744 c93f cd9e aa3f 5f57 913f
00000040: 36ff 8f3e cc61 a53f 2125 ae3f acb5 8d3f
00000050: 29bf bb3f ca3b f73d e42c 953f a4a6 923f
00000060: b87d a43f f21a a33e 00fe 9b3f 1c6b 813f
00000070: 821d 4e3e ac45 7c3f 2431 883f 83aa ad3f
00000080: eedc 6d3f 8b4e 8a3e bfb8 753f 7716 ce3e
00000090: 39f4 b83e ee26 ad3f 35c8 2b3f c3ca 983f
000000a0: c406 9b3f 56c2 e73e b211 9a3f 4c1e 783f
000000b0: 0506 ba3f 2209 a73f c34b d93e 3408 cc3f
000000c0: a27f a03e ea12 a73f 0dc1 b03f 9b37 0d3f
000000d0: 4396 a33f f4a2 973e 47ca a13e 581d 173f
000000e0: 194c 7d3f 01b8 363f 86a4 973f c582 393f
000000f0: ce04 443f 7c00 ae3f a613 ab3f 4c6b 463f
0.4407663 0.3111121 1.2148584 1.1785429 1.5525928 1.2454665 1.4109137 0.67461807
1.2573825 1.3681818 0.618329 1.2005532 1.0398111 1.5724114 1.3329712 1.1354789
0.28124398 1.292047 1.3605081 1.1071067 1.4667712 0.12071951 1.1654325 1.1457105
1.2850866 0.31856495 1.218689 1.0110812 0.20128444 0.9854381 1.0639997 1.3567661
0.92915237 0.2701305 0.95985025 0.40251514 0.36123827 1.3527505 0.67102367 1.1936878
1.211144 0.45265454 1.203665 0.9692123 1.4533087 1.3049662 0.42440614 1.5940003
0.31347376 1.3052647 1.3808914 0.5516297 1.2780231 0.2961651 0.31599638 0.5902915
0.9894424 0.7137452 1.1847084 0.72465163 0.7656983 1.3593898 1.3365371 0.7750747

layer1.1.bias f4 [64]
00000000: 0e68 e6be 64a0 f4be a84b 963f 0261 e53f
00000010: 3195 a9be 767e 7a3f c367 9d3f a3ef 993e
00000020: 7be5 dd3e ddfc 5c3f 5598 053f 101a 5c3f
00000030: b673 5e3f 3e18 8cbe 5330 303e 2741 003f
00000040: 2e66 d7be 9478 66bc c335 af3f 0e8e 883f
00000050: 6970 0e3f 5ab5 cbbe 24e3 5fbe fad3 243f
00000060: c4b5 97be 8b77 5ebe 013e 6bbe 4f68 f1be
00000070: b296 02bf 7eae 993f 4f8b 0abf baed cebe
00000080: 6284 a73e 45c5 19bf ef95 963e e5d3 d8be
00000090: a656 3dbf 9d68 bfbe a871 443f 790d 74be
000000a0: 87cb 8ebe 6b79 63be 989a b6be 8c3a cabd
000000b0: cfcd acbe 4393 a4be 3b34 0cbf f98f bdbe
000000c0: 9b87 07bf 0c0d 6ebe 39c7 e1be 738b 0a3e
000000d0: 7a29 7fbe 0688 2cbf f961 21bf 3e5e 9dbe
000000e0: e8e1 afbe 4039 4e3f 8d00 b1be aa8c 91be
000000f0: e1cf a9be f340 9ebe c2a8 73be 4193 8e3f
-0.45001262 -0.47778618 1.1741838 1.792023 -0.33121637 0.97849214 1.229729 0.3006564
0.43339142 0.8632334 0.52185565 0.8597727 0.8689531 -0.27362245 0.17205934 0.50099415
-0.42070144 -0.014066834 1.3688282 1.0668352 0.55640274 -0.39786798 -0.21863991 0.6438595
-0.29630864 -0.2172529 -0.22972871 -0.47149894 -0.5101119 1.2006376 -0.5411882 -0.40415746
0.32718188 -0.60066634 0.29411265 -0.42349163 -0.7396034 -0.373845 0.76735926 -0.23833264
-0.27889654 -0.22214286 -0.3566482 -0.09874448 -0.3375077 -0.32143602 -0.547672 -0.37023905
-0.5294129 -0.23247164 -0.44097307 0.13529758 -0.24918166 -0.67395055 -0.6304012 -0.30735964
-0.3435204 0.80556107 -0.34570733 -0.2842763 -0.33166412 -0.30908927 -0.23794845 1.1138688

layer1.1.running_mean f4 [64]
00000000: cc15 06c2 a8ff d1c1 cb2f 0cc2 f898 0bc2
00000010: cff9 1cc2 86be 0ec2 9621 0cc2 ae2c 07c2
00000020: b788 0ac2 2f3d 0dc2 dac0 09c2 889f 0dc2
00000030: ea3f 0cc2 d980 13c2 4b74 10c2 fa12 0bc2
00000040: f946 d0c1 2a92 0ac2 668c 0cc2 9ef5 0dc2
00000050: 376e 0fc2 3a9b 93c1 2a56 11c2 0fbe 0bc2
00000060: 5a91 12c2 e3fa 04c2 ae86 0dc2 a0d0 0bc2
00000070: cb43 aec1 a808 0ac2 cb84 0ec2 569a 1cc2
00000080: 5ded 0ac2 3b2b bfc1 e44c 0ac2 dc94 ebc1
00000090: 00e2 aac1 4df4 0fc2 c245 09c2 067a 0dc2
000000a0: c687 39c2 ec6f 08c2 070a 1ec2 48db 0bc2
000000b0: dcc6 1dc2 a7d9 10c2 a27a fec1 e4ed 19c2
000000c0: bcb0 cfc1 fe0e 20c2 c9a4 1cc2 ea2c 00c2
000000d0: 0214 35c2 8426 c9c1 5224 ccc1 00cf 09c2
000000e0: 81b0 0ec2 9cf5 09c2 c950 11c2 79c9 0ec2
000000f0: ab13 06c2 1f7a 12c2 2f81 0dc2 8527 09c2
-33.521286 -26.249832 -35.046673 -34.899384 -39.243954 -35.686058 -35.0328 -33.793633
-34.63351 -35.30975 -34.43833 -35.405792 -35.062416 -36.875828 -36.113567 -34.76853
-26.034655 -34.64274 -35.137108 -35.48986 -35.85763 -18.450794 -36.334145 -34.935604
-36.641945 -33.245007 -35.381523 -34.953735 -21.783102 -34.508453 -35.62968 -39.15072
-34.7318 -23.896109 -34.57509 -29.447685 -21.360352 -35.988575 -34.318123 -35.369164
-46.38259 -34.1093 -39.509792 -34.96414 -39.4442 -36.21255 -31.80988 -38.482315
-25.961296 -40.01464 -39.160923 -32.04386 -45.26954 -25.143806 -25.517735 -34.45215
-35.672367 -34.489853 -36.32889 -35.69675 -33.519207 -36.61926 -35.376156 -34.288593

layer1.1.running_var f4 [64]
00000000: a03d 7a40 4c96 7d42 9321 9e40 3382 bc40
00000010: 9357 af42 e94e 8040 d45c ce40 0704 9c40
00000020: d82e 8f40 5bd5 b63f 57f4 a040 ba3b ce3f
00000030: 76c6 b040 1c72 3b41 dc77 5d41 4819 2f40
00000040: 52d2 8542 e603 4f3f 02e5 bc40 68ed 6340
00000050: 04b0 e93f 9295 1e41 c2af fe41 17e7 cc40
00000060: f5b5 2f42 2d20 853f deae 3841 55f3 4040
00000070: b6b9 ce42 a664 d83f 8cbb 8541 4857 bf42
00000080: cf4b 2f40 cdbb a042 01dc e240 756b b241
00000090: 1a90 3643 97d0 6b41 926a da3f 5b62 9f3f
000000a0: a6bc 2e44 11a6 9e40 da82 1443 c041 5940
000000b0: ee11 c942 f3ec 5b41 106b 2541 c8e0 bd42
000000c0: cc93 ad42 78a1 2443 71fb 9f42 152c 0a41
000000d0: 6f9b 0744 0068 3a42 7977 9742 2153 2a42
000000e0: 813a dc40 11c9 e53f ed0e ea41 a834 2e42
000000f0: 2805 0f40 3a83 8941 1149 c73f a991 bc40
3.9100113 63.396774 4.9415984 5.8908935 87.67104 4.0096326 6.4488316 4.8754916
4.474468 1.4283861 5.0298266 1.6111977 5.524226 11.715359 13.841763 2.735918
66.91078 0.80865324 5.902955 3.5613651 1.8256841 9.911516 31.83582 6.403209
43.927692 1.0400444 11.542692 3.0148518 103.36272 1.6905715 16.716576 95.67047
2.739002 80.3668 7.089356 22.30247 182.5629 14.738425 1.7063773 1.2451891
698.94763 4.957772 148.51114 3.394638 100.53502 13.745349 10.338638 94.939026
86.788666 164.63074 79.9911 8.635762 542.42865 46.601562 75.733345 42.58118
6.8821416 1.7951986 29.257288 43.551422 2.2346897 17.189075 1.5569173 5.892781

layer2.0.weight f4 [64, 64, 3, 3]
00000000: 7401 a9be 7404 39be 591e cbbe 7e9e f53d
00000010: 00f0 483c 4331 2abe 9490 243e 9d9b 8abd
00000020: 6cf1 88be 731f 0a3e 6de4 023e 9bdc 9f3d
00000030: cc49 3abe 82bc 413e be8b 833d 9eeb 98be
00000040: d6a6 51be e286 62bd 84f5 923d 1c42 743d
00000050: 0437 87be 1279 6e3e a32b ea3e 1aa2 783e
00000060: 611a 00bf 5d39 cfbc bf54 d53d a49a 99be
00000070: 447e 86bd 6f69 03be 10b2 a43d 13bc 92be
00000080: ab74 813d 85ab 8e3d d2d2 1f3e 9eb3 383a
00000090: 80f6 4abe e918 9fbe 866e 85bd 687c f23e
000000a0: 351d 733e 96aa b13d 9f5e f73e d098 413f
000000b0: e288 803e 30f8 a23e 8140 373e 0f63 84be
000000c0: fee7 4bbd 1463 883e 7363 22bd 2dea 76be
000000d0: a066 19bd cd0e 043e 8394 293e 5080 783e
000000e0: a2eb c4bd 616b 60be aeab 3b3e 48bf a8bc
000000f0: 85b3 febe e127 6cbd 8a35 09bd 931f 833e
00000100: 4089 203f 7146 7e3d b413 7ebe dd07 153f
00000110: a30e e03e 8914 29bf 8f34 b7be e6df 5dbd
00000120: 002c 98be 99c6 a3be f974 12be d3ff b83d
00000130: 1ed1 9dbe ce67 d2be ae56 043e daed 823e
00000140: 658b c2be be88 e8bd fb56 953e 84a7 b3bd
00000150: 2dee 43bc 6d84 25be 34fb e23d cc6d 2e3e
00000160: 5de6 a2be b08a 313e 04c8 c73d 439e bd3e
00000170: 9d8d 6d3d 56e2 44be 3dd8 b53e af31 483e
00000180: 668f 21bf d7e7 eabe 1fcd 9fbd f11b 35be
00000190: 3540 673d 097b 99bd 3366 793d 9c3a 1abe
000001a0: 3786 083b 11a5 153e 90a1 59be 6ab4 90be
000001b0: 750b 85bd 24d4 95bd f0e8 8abc 5efb 42bb
000001c0: f8cd 97be 10bf 1e3b 590d c33d 3eca 60bd
000001d0: 9e8a 74be 4670 573d 80dd 0d3d 03fe 8dbe
000001e0: fef8 4cbe 5a7c 2d3e c21b 60bd 32ca 89be
000001f0: 05fc 973d 6cc4 81bd 05af e9bb b6db 96bd
00000200: 3f72 a3bd 50b0 e5bd 5106 063e e457 98bc
00000210: b5e9 4bbe a245 973d 2e9f 87bd a577 58be
00000220: e7e9 85be 95dd 1e3d a864 ab3d b64c 7bbe
00000230: d877 3fbe c2a4 763e 2755 e63d ba32 9bbe
00000240: ff8e e8bd 38d7 4e3e fb26 4b3c 2362 b0bd
00000250: b206 c3bd cffc aaba 0cc6 26be e568 8fbe
00000260: c20b 76be 0953 91bd d059 503c 3ed9 6cbe
00000270: 3972 d73d 24de 933e f71c 863e b765 bdbd
00000280: c84e bfbc 4a85 9f3d c0b6 c8bc be4e e6bd
00000290: d8af 003e e9c8 073e 5c30 46be 6961 48be
000002a0: 9dde 293d 3947 7f3d b879 36be 88b0 cabe
000002b0: 5dad 16bf 0f26 243d 423c a13e 2f2b c0bd
000002c0: 88dd 66be 5c4e 8e3e 7425 643e fc7e a3be
000002d0: f33a 7abc 550d e33b b295 093d d9a0 a4be
000002e0: 15dc f63c d907 f33c d68a 1ebe bca0 14be
000002f0: 40f1 8fbe 96c5 333e 9f2d e83b 84e5 35bc
00000300: 6de7 423e 1a1f 4a3e 1826 753d 5980 c23d
00000310: 81ba 7fbc 1e5b 853a 0679 d2bd 5c9e 09bd
00000320: 92b5 5bbd 0dc3 1b3d 684a 513d 2d12 34bd
00000330: eb10 d6be 55c5 dfbd 6217 e2bc 6c0f 0b3e
00000340: 221a 993e 23a6 3cbc e79e 9d3d 4c06 cc3e
00000350: 3bb0 933e 76de 25bf aee1 9cbe a425 933b
00000360: de59 d7bd 4655 a1be c32e 99be b276 a23e
00000370: 1e8b b23d dad0 39be 4ce7 563e 8b40 f73e
00000380: c14f 9e3e 73b2 e93d dc82 f53d ecba be3e
00000390: a360 90bd f07d 523c 0343 df3a 0e12 19bd
000003a0: afa8 4a3b f162 06be b2fa 4bbd c8aa f83d
000003b0: 5681 8bbd 1828 96bd ec76 813d e257 a13d
000003c0: 750d d4be 0635 a1be 4dee a6be 4abb 15be
000003d0: 7334 ac3d 707b 06be a78d 2abd df3f 46be
000003e0: adce d0ba 8fa4 29be dee9 83bd 2e13 8e3d
000003f0: dde7 cf3d ecef 213e d0d1 a43e c197 47be
-0.3300892 -0.18068105 -0.3967159 0.119931206 0.012264252 -0.16620354 0.16070777 -0.06767962
-0.2674669 0.1348856 0.1278245 0.07805749 -0.18192214 0.18919566 0.06423138 -0.29867262
-0.20473799 -0.055304416 0.07175735 0.05963336 -0.2640916 0.23288372 0.45736417 0.24280587
-0.5004025 -0.025295908 0.10416555 -0.30000794 -0.06567052 -0.12833188 0.08041775 -0.28659114
0.06321081 0.069663085 0.15607765 0.0007045808 -0.19820595 -0.31073692 -0.06515221 0.4736054
0.2374161 0.08675115 0.48314378 0.756238 0.25104433 0.31829977 0.178957 -0.25856826
-0.049781792 0.2663809 -0.039645623 -0.24112768 -0.037451386 0.12896271 0.16560559 0.24267697
-0.09615256 -0.21915962 0.1832721 -0.020599023 -0.49746338 -0.05765522 -0.033498324 0.25610027
0.62709427 0.062078897 -0.24812204 0.58215123 0.43761167 -0.6604696 -0.35782287 -0.054168604
-0.2972107 -0.31987455 -0.14302434 0.090331696 -0.30823606 -0.41094822 0.1292369 0.2557209
-0.37996975 -0.113542065 0.29167923 -0.087721854 -0.011958641 -0.16163798 0.110830694 0.17034072
-0.31816378 0.17338061 0.09754947 0.37034807 0.05799638 -0.19226965 0.3551654 0.19550203
-0.63109434 -0.45880005 -0.078027956 -0.1768644 0.056457717 -0.0749417 0.06088848 -0.1506142
0.0020831951 0.14613749 -0.21253037 -0.28262645 -0.06496326 -0.07315853 -0.016956776 -0.0029751877
-0.2964933 0.002422277 0.0952403 -0.054880373 -0.23881003 0.052597307 0.034635067 -0.27732858
-0.20016858 0.16941968 -0.054713972 -0.26912075 0.07421116 -0.063362926 -0.0071314597 -0.07366125
-0.07980775 -0.112152696 0.13088347 -0.018596597 -0.19913371 0.07386328 -0.06622158 -0.21139391
-0.26155016 0.038785536 0.08368808 -0.24540982 -0.1869806 0.24086288 0.1124671 -0.3031214
-0.11355399 0.20199287 0.01239943 -0.08612468 -0.095227614 -0.0013045314 -0.16286486 -0.28009716
-0.24027923 -0.07095916 0.0127167255 -0.23129746 0.10519833 0.28880417 0.26193973 -0.09247916
-0.023352996 0.07789095 -0.024501204 -0.11245488 0.12567079 0.13260235 -0.19354385 -0.19568409
0.041472066 0.062323783 -0.1781987 -0.39587808 -0.5885828 0.040075358 0.31491286 -0.093832366
-0.22545445 0.27794158 0.22279912 -0.3193282 -0.015272844 0.0069290795 0.033590026 -0.32153967
0.03013424 0.029666828 -0.15482649 -0.1451444 -0.28113747 0.17555842 0.0070855166 -0.011102084
0.19033594 0.19738427 0.059850782 0.094971366 -0.015608431 0.001017425 -0.1027699 -0.03359829
-0.053639956 0.03802781 0.05109635 -0.043962646 -0.41809782 -0.1092631 -0.02759904 0.13580102
0.2990275 -0.011514219 0.07696324 0.39848554 0.2884539 -0.64792573 -0.3064093 0.004490571
-0.10515188 -0.3151037 -0.2991849 0.31731182 0.08717941 -0.18146077 0.2098667 0.4829143
0.30920222 0.114109896 0.1198785 0.37251985 -0.07049682 0.012847409 0.0017033521 -0.037370734
0.0030923297 -0.1312368 -0.04979963 0.12141949 -0.06811778 -0.07331866 0.06321511 0.078780904
-0.41416517 -0.31485766 -0.32603684 -0.14622226 0.084084414 -0.13133025 -0.041638996 -0.19360302
-0.0015930735 -0.1656668 -0.06441091 0.06937252 0.10151646 0.15814179 0.32191324 -0.19491483

layer2.0.bias f4 [64]
00000000: f5c8 c741 515f c641 da4c c541 9af3 cb41
00000010: b2aa b841 5b1b d141 f98a ce41 e71f cf41
00000020: f1ee eb41 7b8b a341 ffab c241 897b bc41
00000030: 8f7f cd41 b44d ba41 606d cf41 2878 bb41
00000040: c961 bb41 e149 db41 cb5f d341 9fbe c441
00000050: ec22 a941 4550 a041 e9a9 c641 4666 b641
00000060: aef4 a241 47e1 c641 7ed9 d141 c954 b741
00000070: 7626 c241 ea69 c441 d47c a041 a148 c741
00000080: 3cd2 d241 bcd0 be41 c907 d841 841f d341
00000090: 20d3 ae41 bfe4 9a41 e914 b441 969d a041
000000a0: 9755 ae41 4e5c c441 094d b141 8283 c141
000000b0: cba8 b841 9af4 bd41 b756 c941 0af1 cc41
000000c0: fbfe 9f41 30b1 d541 c4ba ca41 a3c8 9341
000000d0: 9f60 b741 1e5e ae41 6079 cc41 2055 c341
000000e0: c101 db41 bad7 a841 802b bd41 5e72 b541
000000f0: 128d a441 2d0b b541 79dc c141 a42a d841
24.973124 24.796541 24.662525 25.493946 23.083347 26.138357 25.817858 25.890577
29.49167 20.443106 24.333982 23.56032 25.687284 23.287941 25.928406 23.43367
23.422747 27.411074 26.421774 24.593077 21.142052 20.039194 24.832964 22.799938
20.369473 24.859999 26.231197 22.916399 24.26878 24.551716 20.060951 24.910463
26.352654 23.851921 27.003801 26.390388 21.853088 19.361692 22.51021 20.076946
21.791792 24.54507 22.162615 24.189213 23.082418 23.744434 25.167341 25.617695
19.999502 26.711517 25.341194 18.472967 22.922178 21.795956 25.559265 24.416565
27.375856 21.105335 23.64624 22.680843 20.568882 22.630457 24.232653 27.02082

layer2.1.weight f4 [64]
00000000: 71d0 8d3f 33c9 bc3f 158e 9c3f 963e 7b3f
00000010: 3476 a13f b066 c03f 8ef3 4a3f 7f55 993f
00000020: edea ab3f b61b fa3e c30a bb3f 501f 193f
00000030: 455e 823f 345d b33f 7e4a 6d3f 0815 353f
00000040: 85a7 8f3f ce7c 933f 9883 bd3f 188b b53f
00000050: b68c 0f3f 5a06 9a3f 3ec6 be3f fb64 b03f
00000060: 5be0 513f 48ef b33f 7677 6e3f 4666 a23f
00000070: 8b40 9b3f 531c 6e3f c639 9a3f d468 ab3f
00000080: 9287 c93f 6edc ab3f 310b 5f3f e26d 823f
00000090: 6901 003f 47fc fa3e 9c1d a73f 75cc fe3e
000000a0: e42c 833f 9520 ac3f 7d59 9b3f c908 553f
000000b0: 7fbc 8f3f 166e a03f d305 8c3f 1664 4c3f
000000c0: dddb ef3e d76d 3a3f f339 1d3f 05cf d33e
000000d0: fc32 133f a218 163f 5371 bb3f 18b1 273f
000000e0: 234f 6a3f 51c9 1d3f 2a76 253f 8777 0f3f
000000f0: 6dcc 033f aca0 973f 33af 513f 5e10 cf3f
1.1079236 1.4748901 1.223086 0.98142374 1.2614198 1.5031338 0.79277885 1.1979216
1.3431069 0.48849267 1.4612659 0.59813404 1.0185019 1.4012818 0.9269179 0.70735216
1.1222998 1.1522462 1.4805784 1.4183073 0.5607408 1.2033188 1.4904249 1.3780817
0.81982964 1.4057398 0.9315103 1.2687461 1.2129072 0.9301197 1.2048881 1.3391366
1.5744498 1.3426645 0.8712645 1.0189784 0.5000215 0.49020597 1.3055911 0.49765363
1.0248075 1.3447443 1.2136685 0.8321653 1.12294 1.2533596 1.0939277 0.7984022
0.4684743 0.7282385 0.6141655 0.4136888 0.5749967 0.58631337 1.4643959 0.655046
0.91527003 0.6163531 0.6463343 0.5604176 0.51483804 1.1845908 0.8190796 1.617687

layer2.1.bias f4 [64]
00000000: f85d 1f3e 010e 57be fef7 40be bbfb 88be
00000010: 02f8 37bd da3a 803d 4c01 a0be 6b9f acbe
00000020: e1b9 32be aa06 15bf c5f5 1c3e 3333 4ebf
00000030: 73de 9dbc 447b 10be 9483 34bd ee1d c0be
00000040: 9704 9fbe 14e3 f43e f197 223c a228 d5be
00000050: 17bf 1cbf 53aa 23be b7f2 c1be f303 cabe
00000060: 0e95 eabe a6e4 22be 9f71 babc 4a70 dbbd
00000070: 139f 7abe af09 eabe 3291 b4be e698 87be
00000080: 088f b0bb bf3d b3be 8957 d4be 7cd3 52bb
00000090: 135c 6dbf 632b 0bbf 7018 2dbe 9899 45bf
000000a0: 3630 b93d 4c89 9dbe bcc1 9bbe e5f4 bdbe
000000b0: 5405 173b 28d2 c5bd 6c12 23bd 4d4b 303e
000000c0: b286 73bf 5c3c f2be 3a0b 00bf 4d10 15bf
000000d0: cb91 0fbf d487 2cbf 3fa1 56be 5fd2 8fbe
000000e0: 50b5 77be 63cd 69be a380 23bf 0bb2 05bf
000000f0: 612a d9be e52b a8be c999 3dbd 131a 0d3d
0.1556319 -0.21001436 -0.18844602 -0.26754555 -0.044914253 0.06261225 -0.3125099 -0.33715376
-0.1745372 -0.58213294 0.15328129 -0.80546874 -0.019271111 -0.14109522 -0.044070795 -0.37522835
-0.3105819 0.47829497 0.009923921 -0.41632563 -0.6122908 -0.15982942 -0.3788049 -0.39456138
-0.45816845 -0.15907535 -0.022759257 -0.10714777 -0.24474744 -0.45710513 -0.35267025 -0.2648384
-0.0053881444 -0.35008046 -0.41473034 -0.0032169512 -0.9271862 -0.5436308 -0.16903853 -0.7718749
0.09042399 -0.30768812 -0.30421245 -0.37100902 0.0023043947 -0.09659225 -0.03981249 0.17216225
-0.95127404 -0.47311676 -0.5001713 -0.58228 -0.5608184 -0.6739476 -0.20959948 -0.28090188
-0.24190259 -0.22832255 -0.6386816 -0.52224797 -0.42415145 -0.3284599 -0.04628924 0.034448694

layer2.1.running_mean f4 [64]
00000000: aff5 ac41 1352 0641 225b 3341 9305 6d41
00000010: 783d dd40 a7f6 4141 bb61 9741 3c66 5541
00000020: 8aa2 d141 d961 7e3f efcd 8140 5073 b341
00000030: 0a3d de41 6027 2041 597a d941 34bf d241
00000040: fa10 7c41 0094 c041 bb48 9b41 c26a d940
00000050: ba90 0840 baf6 aac0 4825 4e41 9446 5c40
00000060: 3006 d1bf 5625 7841 8421 8241 b29e ca40
00000070: 7911 ba41 de45 5241 6cb5 38c0 c154 1342
00000080: cc76 3f41 1af1 0640 6841 9941 b08a 6b41
00000090: 9c65 a641 08cc 5341 326d 68bf b80c e241
000000a0: a567 7e41 fe52 6a41 dcce 9a40 9ce7 2f41
000000b0: 7196 6741 5a85 ff40 dd96 7a41 9faa 8841
000000c0: f81d 0942 783f 0c42 3ce8 ad41 32aa b841
000000d0: 95fe 6641 c977 cb41 a232 6e41 4b5b ac41
000000e0: 2efb cc41 80bc 67bf 269d c041 df62 0a41
000000f0: ba7d 2541 a879 4a41 8508 0741 bfc7 9541
21.619963 8.395038 11.209749 14.813861 6.9137535 12.122718 18.92272 13.33746
26.204365 0.99368054 4.0563884 22.431305 27.779804 10.009613 27.18474 26.34336
15.754145 24.072266 19.410513 6.794282 2.1338334 -5.342618 12.884102 3.4418077
-1.6330013 15.509115 16.266365 6.331872 23.258532 13.142057 -2.886073 36.832767
11.966503 2.1084657 19.156937 14.721359 20.799614 13.237312 -0.9079162 28.25621
15.900304 14.645262 4.8377514 10.994045 14.474229 7.9850283 15.661832 17.083311
34.279266 35.06198 21.738396 23.083103 14.437154 25.433489 14.887362 21.544577
25.622646 -0.90522003 24.076733 8.649138 10.343195 12.654701 8.43958 18.722532

layer2.1.running_var f4 [64]
00000000: 0532 0743 577c 1e43 c340 ce42 d487 b342
00000010: b327 5143 fd2c 2143 c0ec 4642 c60c 6542
00000020: eb12 a541 8ad4 9742 71af 4a43 0b36 0842
00000030: d818 ed42 60bc 7043 695c a242 77fa eb42
00000040: 232b 2343 bb16 4642 9a4a a642 a1e9 6e43
00000050: ed66 b442 f03e f143 7822 5943 4b5e a943
00000060: 8a08 9243 d81e 2443 204f 2f42 e042 8f43
00000070: d4e1 3a43 e2ca c242 0116 f843 3cc9 5e43
00000080: 8e0b 1b43 755e 8543 f55b 1742 96af 2542
00000090: 7b64 0942 1476 9842 db90 a243 cf2e 3a42
000000a0: cc90 9743 a6d5 3d43 1cd8 9443 4178 cb42
000000b0: 4387 5243 8126 2a43 3b56 ed42 391b fa41
000000c0: c217 cd41 c5c8 3f42 507b 0842 8fe2 0e43
000000d0: 3b5c 9f42 8f5a 9b42 1a4e 2143 fcca 6342
000000e0: 7ac0 2242 2362 b542 ff22 4542 2e72 c342
000000f0: 982f cf42 013c 8043 c24b 7d42 e5d7 ce42
135.19539 158.4857 103.12649 89.76529 209.15508 161.17574 49.7312 57.262474
20.634237 75.915115 202.68532 34.052776 118.54852 240.73584 81.18049 117.98919
163.1685 49.522198 83.145706 238.91261 90.20103 482.4917 217.13464 338.73666
292.0667 164.12048 43.82727 286.52246 186.88214 97.396255 496.1719 222.78607
155.04514 266.73795 37.8398 41.42147 34.348125 76.23062 325.13168 46.54571
303.13123 189.83456 297.68835 101.73487 210.52837 170.1504 118.66842 31.263292
25.6366 47.946064 34.120422 142.885 79.68014 77.67687 161.30508 56.948227
40.687965 90.69167 49.284176 97.72301 103.59296 256.46878 63.323982 103.42167

layer3.0.weight f4 [64, 64, 3, 3]
00000000: b75d 5b3d 1879 fa3c fa23 97bd b377 a23d
00000010: 9457 5b3d e873 8f3d 60f9 fcbd fd2a edbd
00000020: e930 873d 80ab 0d3e 253a 45be 998c 53be
00000030: 28ca 37bd 742e ecbd 555f ad3e 0ac9 a4be
00000040: d9b6 f43d 40cf a63e e2e8 a9bd 56fd 99b9
00000050: 99a3 6bbe ee7f edbb 102c 6c3e 80d3 56be
00000060: 4906 aabd 3df3 5abe 1ca0 7abe 3c2c 22be
00000070: dbc6 d8be 052f 3fbe d473 abbd f7e8 b2be
00000080: bd65 b6bd 8622 b53e d5d3 2e3d dc4a 063d
00000090: 17cc fb3e 33d9 993d 0b9c a0be 03ec a5be
000000a0: 85dd cabe 5f6c c9be b213 5abe 6775 fc3c
000000b0: 0df1 1f3e 041f 67bd 401c ccbd 59d5 f7ba
000000c0: 0e49 283e 5620 203e a2d4 27be 8f2c 09bd
000000d0: 72d4 ebbc 4d27 06bf 64a8 c5bb 5ff2 053e
000000e0: 3c38 573c f7d5 a93c ff22 433d 0b48 81be
000000f0: 246c 54be ff16 043b 9fec 9bbd 9ed6 8b3e
00000100: 4e4c d43b a3c0 a5be 9d74 3abf 349f 05bf
00000110: dd4f 0abf b768 61be 84e7 91bd 8d06 493e
00000120: ad46 093e 6214 7a3e 2457 a13d 1426 f0ba
00000130: ac99 60be 70a5 f8bd c610 ffbe 389f 57bd
00000140: 93dd 4f3e 4f42 a8be 77c2 24be f140 06be
00000150: 7d06 56be 5896 98bd f12e 7cbe f3e4 41be
00000160: 3c7a fcbd e1d6 afbe 4d2d 47be 3bde a8be
00000170: d0f1 a5be d14a bd3e ed3c 363e 03a3 f43c
00000180: 95c2 1b3d e71c 1a3e 5ccb 963c 7622 193e
00000190: 782b ea3c 336c 273e 3189 9d3e dcc3 533e
000001a0: 1de0 253e bdcb 953e c625 4bbd 7681 c8bd
000001b0: 8e35 f03d 763c 873e a939 6c3e 2626 13be
000001c0: c4ae 4bbe bd5d 31be bd4a 03bf 4fb0 48be
000001d0: 4365 98be c79e 173e 7146 a4bd 95e8 62be
000001e0: 1736 643e 5275 6c3d e1f8 93be baec 923d
000001f0: 42ef 4f3c a0d0 c1be 7666 d4bb f980 b83e
00000200: 85ad 7c3e 1fec 79be 6080 46bd c69d d9bd
00000210: 2553 28bf 6357 20bf 9f06 0ebf b2f9 1dbc
00000220: 9b45 0d3e 87e9 8f3d 522a 22be 2652 4abe
00000230: 7a04 a0be 5e59 bbbd e03b 8dbd 33db c0be
00000240: fbca abbd 44d2 c6be f4da 54be ad90 493e
00000250: 8a7a 873e 705c 8e3d b4e3 923e a6bc d53d
00000260: 6193 f13d 32ee b23d 8cb3 c03d 5792 02bc
00000270: 0d48 c9bb 889b 46bb e9c4 3fbe 73ab 96bd
00000280: 4655 fabd 1065 77be 3135 7d3e 92d7 443e
00000290: 3dd1 30be 2dc4 2a3e f610 b43e 836b 923d
000002a0: 7942 12bf cc37 de3c df70 7e3e dca0 30bd
000002b0: 8878 aebd 3da7 64be 5d48 023f fff1 0a3f
000002c0: 48aa 5f3e 3731 913e 25ad b43e cd78 833e
000002d0: 2094 abbd d7b7 23bd 26be 3ebd 2a9c 463e
000002e0: 6ce3 d53e 2e2a 9c3e 9002 cbbe 09c8 8abe
000002f0: cff0 b8be 304d ecbd d910 383d 61f3 e6bc
00000300: 2efa 123f 6c35 3c3f 3cbc cb3e 788a b33e
00000310: f030 d33e 11b9 053e cd20 873e 06b7 9ebd
00000320: 89b9 e3bd a811 abbc 82e0 bebd ba36 41be
00000330: 9501 6b3e 40db 113d de2e 64bd 5778 c1be
00000340: a178 1ebd 795a 343e 664c ea3d f2ee 953e
00000350: aa76 cf3e b330 98bd 667c 743e 943a adbc
00000360: c10d 423c 5f64 9a3e 204f b13d 46ef c13e
00000370: 92dd ec3e edff ca3e ca66 d53e 18ec 153f
00000380: e17c d93e 1526 af3e f28d 8b3e 29d5 ca3d
00000390: beb6 af3d 48a9 65be 3659 8dbe 431b 46be
000003a0: 91d6 abbe 5915 76be d97c 3d3d acf4 8d3d
000003b0: 08e9 8c3e a7bd 2bbe 29c1 36bd cbe2 ae3d
000003c0: c798 2fbf 0e62 e4be 8529 a8be 9884 253e
000003d0: db8f 4e3e 0459 3f3e 7e69 f93c 6267 703e
000003e0: 5b14 483e 026e 94be b922 1dbe 88d0 3a3b
000003f0: b459 e9bd 0152 efbd 4cc7 893d 4de2 26bd
0.05355617 0.03057532 -0.07379909 0.07932987 0.053550318 0.07004529 -0.12352252 -0.11580465
0.06601126 0.13834953 -0.19260462 -0.20659102 -0.044870526 -0.11532298 0.33861795 -0.3218463
0.11948938 0.32579994 -0.08296372 -0.00029371184 -0.23011626 -0.0072479164 0.23063684 -0.20979118
-0.0830198 -0.2138185 -0.2447514 -0.15837187 -0.42339215 -0.1867028 -0.08371702 -0.34943363
-0.08906124 0.35377902 0.042682488 0.032786235 0.49179146 0.075121306 -0.3136905 -0.32406625
-0.3962213 -0.39340493 -0.21296576 0.0308177 0.15619297 -0.056426063 -0.09966326 -0.0018908187
0.16434118 0.15637335 -0.16389707 -0.03348976 -0.028787825 -0.5240372 -0.0060320366 0.13080738
0.013135966 0.02073191 0.047640797 -0.25250277 -0.20744377 0.0020155308 -0.07613491 0.27312177
0.006478823 -0.32373533 -0.7283419 -0.5219605 -0.5402811 -0.22012602 -0.07124236 0.19631405
0.13405867 0.24421838 0.07877949 -0.0018321895 -0.21933621 -0.1214093 -0.49817485 -0.052642077
0.20299368 -0.3286309 -0.16089807 -0.1311071 -0.20900913 -0.07450551 -0.24627282 -0.18934993
-0.12328002 -0.34343627 -0.19450875 -0.32982048 -0.3241105 0.36971143 0.17796679 0.029862886
0.038027365 0.15050088 0.018407516 0.14954552 0.02858518 0.16349868 0.3076873 0.20680183
0.16198774 0.29257002 -0.04959657 -0.09790318 0.11728965 0.26413316 0.2306887 -0.14370021
-0.19890887 -0.17320915 -0.51285917 -0.19598506 -0.29764757 0.14806662 -0.08021248 -0.22159036
0.22286259 0.057729073 -0.28900817 0.07174058 0.012691321 -0.3785448 -0.006481941 0.36035898
0.24675567 -0.2440648 -0.04846227 -0.10625796 -0.6575187 -0.6263334 -0.55478853 -0.0096420515
0.13796084 0.07026964 -0.15836456 -0.197579 -0.31253415 -0.09147905 -0.06896186 -0.37667236
-0.08388325 -0.38832295 -0.20786649 0.19684096 0.26460677 0.06951225 0.2868935 0.104363725
0.117956884 0.087368384 0.09409246 -0.00796946 -0.0061426223 -0.0030305106 -0.18727459 -0.0735692
-0.12223296 -0.24159646 0.24727322 0.19222859 -0.17267318 0.16676398 0.3516919 0.071494125
-0.5713268 0.027126215 0.24847744 -0.043122157 -0.08519083 -0.22329421 0.5089167 0.54275507
0.21842301 0.2835786 0.3528835 0.256781 -0.08377862 -0.039970245 -0.04656806 0.1939551
0.41775072 0.3050093 -0.39650393 -0.2710574 -0.36121222 -0.1153816 0.044937942 -0.028192224
0.57412994 0.73519015 0.3979205 0.3506658 0.41248274 0.13058878 0.26392213 -0.07749753
-0.111193724 -0.020882443 -0.09320165 -0.18868533 0.22949822 0.035609484 -0.05570876 -0.37787125
-0.03868926 0.17612638 0.11440353 0.29283863 0.4052022 -0.07431164 0.23875579 -0.021146096
0.0118440995 0.30154702 0.0865767 0.37877864 0.46262795 0.3964838 0.41679984 0.58563375
0.42478088 0.34208742 0.27256733 0.09903938 0.08579777 -0.22427857 -0.27607125 -0.19346337
-0.3356214 -0.24031581 0.046261642 0.06931433 0.2752154 -0.16771565 -0.044617806 0.08539351
-0.68592495 -0.4460606 -0.32844177 0.16163862 0.20172064 0.186863 0.03044581 0.23476937
0.19539015 -0.2899018 -0.15345277 0.0028505642 -0.11394063 -0.11685563 0.06727466 -0.04074316

layer3.0.bias f4 [64]
00000000: 1822 8641 45d2 8a41 cd8f 8b41 26cf ac41
00000010: 082b 7641 6782 7b41 332d 2a41 e4b3 8c41
00000020: 2905 5c41 fd92 7a41 1c5e 8d41 22e0 7b41
00000030: a6c0 9641 9470 3c41 5f28 8941 a7c6 6b41
00000040: 08cf 8841 822e 7e41 6640 7141 f6a6 8f41
00000050: afee 9141 30db 7b41 3b66 5341 e820 8341
00000060: 97a5 8441 bde6 6c41 21e1 6f41 4c20 9241
00000070: f2f3 8f41 2d8b 8641 8de9 6841 48de 8b41
00000080: 03c3 9841 9123 5741 bd53 9c41 769b 8c41
00000090: 646e 5e41 5a62 8641 9416 9541 69d0 5941
000000a0: 8753 7241 c7cc 9541 d151 7d41 f1ad 8741
000000b0: c6d5 a941 3712 7e41 89b0 9041 fc30 8741
000000c0: 748e 7741 5040 6341 1613 6c41 a0cc 8341
000000d0: 9ffb 3241 f9c9 8841 1573 6441 c1fd 6e41
000000e0: 85bc 4441 3283 8941 ec00 8e41 1cff 8541
000000f0: 99f0 8a41 96e6 8841 36c4 5f41 f462 a041
16.766647 17.35267 17.445215 21.601147 15.385506 15.7193365 10.636035 17.587837
13.75126 15.660886 17.670952 15.74222 18.844067 11.777485 17.144712 14.735999
17.10109 15.886354 15.078222 17.956524 18.241545 15.741013 13.212459 16.391068
16.580854 14.806333 14.992463 18.26577 17.994114 16.817957 14.557019 17.483536
19.09522 13.446183 19.540888 17.575909 13.901951 16.798023 18.636024 13.613381
15.145392 18.724989 15.832475 16.959932 21.229382 15.879447 18.086199 16.898918
15.472279 14.203201 14.75466 16.474915 11.186431 17.09862 14.278096 14.936952
12.296025 17.18906 17.75045 16.749565 17.36748 17.11259 13.985403 20.048317

layer3.1.weight f4 [64]
00000000: 5e05 a43f b79e 5f3f f766 9d3f 6976 b03f
00000010: 2380 8c3f efce 893f d3cc 193f 129e 853f
00000020: 96a6 193f 016b 8f3f 4d5d a13f d9ee 3b3f
00000030: 59cb af3f ffa6 123f 0e80 483f 3c81 8d3f
00000040: cf22 b23f e035 5b3f d099 413f 524a a43f
00000050: ee44 693f abec 463f f702 233f d38a 873f
00000060: 9a72 aa3f 8483 833f 68b8 453f fe02 913f
00000070: bbc6 953f c8ed a43f fde6 863f 60a5 aa3f
00000080: 9e87 bf3f d7ee 1b3f 8152 803f 900a 453f
00000090: 6b23 9b3f 178d 6e3f b09d 863f 8688 393f
000000a0: 6e9b 733f 7f4b 6c3f 0069 913f 4522 623f
000000b0: 303b af3f c357 783f 104d 873f 5766 a23f
000000c0: 30fb 313f 218c 943f 7792 903f 09da 623f
000000d0: 09e7 123f 15da 853f 0f02 873f d004 8b3f
000000e0: 355a 013f d892 7f3f b446 833f f4f8 a93f
000000f0: 1159 8e3f 98e4 533f f2b7 4a3f 81e5 a93f
1.2814138 0.87351555 1.2297047 1.3786136 1.0976604 1.0766276 0.6007816 1.0438864
0.60019815 1.120453 1.2606598 0.7341133 1.3733932 0.57286066 0.78320396 1.1055064
1.3916873 0.8562908 0.75625324 1.2835181 0.91120803 0.77704877 0.636764 1.0589241
1.3316224 1.027451 0.77234507 1.1329038 1.1701273 1.2885065 1.0539242 1.3331718
1.4963262 0.60911316 1.0025178 0.7696924 1.2120184 0.93184036 1.0516872 0.72473943
0.9515904 0.923027 1.1360168 0.8833354 1.3689938 0.97008914 1.0570393 1.2687482
0.69523907 1.1605264 1.1294698 0.88613945 0.5738378 1.0457178 1.0547503 1.0860844
0.5052827 0.9983344 1.0255952 1.32791 1.1120931 0.8277068 0.7918693 1.3273164

layer3.1.bias f4 [64]
00000000: db39 a1be b941 f7be e058 59be d1ae fdbe
00000010: 20f6 83be ec54 2bbe 7a56 06bf 17a4 3cbf
00000020: 422e f9be 0999 2cbe 568b e8be c389 f7be
00000030: 5307 9abb 6181 02bf 38b2 0dbf 13f6 b4be
00000040: d840 92be 6469 9fbe 0914 82be aa86 4a3d
00000050: ab8c ddbe 99bc 01bf a774 21bf 6b0f 7dbe
00000060: 151f bbbe 243b 863c 71c1 44bf 0336 55be
00000070: 4388 a7bd 5d75 b5bd fe52 cabe 595b 89be
00000080: 5fcb 80be adee 95be fda0 efbe bcdf c0be
00000090: a640 8dbe a329 debe 87d6 d2be 8733 d4be
000000a0: d103 dfbe b197 08bf cb6a 9dbe f063 c7be
000000b0: 7ec1 ffbe e0fb 60be 1b98 b7be 9094 78be
000000c0: 9cfc c5be 8160 bcbd d109 70be 296f cdbe
000000d0: 421b 1fbf 7cfc d7be 1c36 61be b46c 96be
000000e0: b39a 05bf 56fa b5be 53db c4be 0aa2 68be
000000f0: aaaf dbbe 6934 ecbe 4f09 8fbe b7cd d6be
-0.31489453 -0.4829233 -0.2122531 -0.49547437 -0.25773716 -0.16731614 -0.524757 -0.7368788
-0.48668104 -0.16855253 -0.45418805 -0.4834729 -0.00470058 -0.50978667 -0.55350065 -0.3534399
-0.28565097 -0.31135094 -0.2540591 0.049444832 -0.43271384 -0.506784 -0.6306862 -0.24712913
-0.3654715 0.016385622 -0.7685767 -0.20821385 -0.08180287 -0.08860276 -0.39516443 -0.26827505
-0.2515516 -0.29283658 -0.46802512 -0.37670696 -0.27588385 -0.4339114 -0.41179296 -0.41445562
-0.435576 -0.5335646 -0.3074554 -0.38943434 -0.4995231 -0.21971083 -0.35858235 -0.24275422
-0.38669288 -0.09198094 -0.23441245 -0.4012387 -0.6215097 -0.42184818 -0.21993297 -0.2937981
-0.5218918 -0.35542554 -0.3844858 -0.22718063 -0.4290746 -0.46133736 -0.2793679 -0.41953823

layer3.1.running_mean f4 [64]
00000000: 2f63 5041 d937 5f41 481f 4041 c6da 9841
00000010: c8d9 8f40 2562 8441 2505 3341 d037 8241
00000020: 50b7 5741 9424 9141 cf56 2f41 d7e2 a540
00000030: 6ff1 8d41 0113 5d41 a22f 5d41 d1d0 f740
00000040: 7f12 0f41 8b32 8740 1654 d140 e238 6441
00000050: 30a1 6441 7cc0 6641 1095 8e41 42bd 3f41
00000060: 3e7f 5541 b159 2841 c111 9641 0ab7 9f41
00000070: b47a 9a41 5c04 3d41 c11b 9e40 d0bc 2941
00000080: 3fda 7141 a2b4 2a41 dc9c 7141 ec44 8741
00000090: 1d66 9ebb 5c6a 1a41 72e2 2641 fb64 5940
000000a0: 1538 8141 42f8 a441 7e62 6941 2d01 3241
000000b0: e76d 8541 b5bb 16bf 5044 2d41 afcb a141
000000c0: 9a05 6e41 df4a 7940 6aac dd3f 12d0 c540
000000d0: c072 4a41 0f28 d440 704e 89bf 9824 1241
000000e0: 3be3 fb40 4b32 6e41 960f 3a41 3c9f 4541
000000f0: 1e31 8340 c91a 6341 9578 2a40 4866 9341
13.024215 13.951135 12.007637 19.106823 4.4953346 16.547922 11.188756 16.277252
13.482254 18.14286 10.9586935 5.1839404 17.742887 13.81714 13.824129 7.7442403
8.942016 4.22492 6.5415144 14.263887 14.289352 14.421993 17.822784 11.9837055
13.343565 10.521897 18.758669 19.964375 19.309914 11.813564 4.940888 10.608597
15.115783 10.6691 15.100796 16.908653 -0.00483395 9.650967 10.4302845 3.3967884
16.152384 20.62122 14.586546 11.125287 16.678663 -0.5888017 10.829178 20.224455
14.876368 3.8951948 1.7318242 6.181649 12.653015 6.62989 -1.0727062 9.133934
7.871488 14.887279 11.628805 12.351376 4.0997458 14.194039 2.6636097 18.424942

layer3.1.running_var f4 [64]
00000000: 1d86 8842 d351 2642 daa9 6242 ace6 bc41
00000010: 085b 9842 212f a042 cc5e b842 22ff da41
00000020: 0642 1042 6b30 6b42 11a9 1c42 8b50 5a42
00000030: eed6 2342 2155 f241 abd2 c841 8124 9342
00000040: b752 3242 8aac 0f42 b3ce 0a42 5652 3d42
00000050: 8d54 dd41 27a7 1642 2423 1a42 cc74 2c42
00000060: 1ae6 5242 89d1 a242 dd90 c241 11c3 3842
00000070: 7eef 0f42 9937 8d42 9876 8442 7811 7142
00000080: b980 0c42 1869 4142 ffb3 8141 5ec2 b541
00000090: 9ad7 e942 2ab9 1542 9333 dc41 33cd 4042
000000a0: 734b 7642 d7bd b541 b116 7142 bf82 2542
000000b0: a6da b841 c408 7f42 0c22 b541 ac4f 9c42
000000c0: 8be0 3442 209a 8442 9ee9 d642 0f8e f941
000000d0: 80eb 5042 d56f 0942 4b44 c442 017d bf42
000000e0: b885 2a42 ee12 2942 e313 ef41 621d 6c42
000000f0: 1e6d 5942 159c e041 cea3 9042 aaef dc41
68.26194 41.579906 56.66587 23.612633 76.177795 80.09205 92.18515 27.374577
36.064476 58.797283 39.165104 54.578655 40.959892 30.291567 25.102865 73.5713
44.580776 35.918495 34.701855 47.330406 27.666285 37.663235 38.534317 43.11406
52.72471 81.40925 24.320734 46.190495 35.98388 70.60859 66.23163 60.26706
35.125706 48.35263 16.212889 22.719906 116.9211 37.430824 27.525183 48.20039
61.57368 22.717695 60.27216 41.37768 23.106762 63.75856 22.641624 78.15561
45.21928 66.301025 107.45628 31.194365 52.22998 34.35921 98.133385 95.74415
42.630585 42.268486 29.88471 59.028694 54.35656 28.076212 72.31993 27.617023

layer4.0.weight f4 [64, 64, 3, 3]
00000000: 7b2e f03d 9e11 043e 4d49 a8bd 1428 ca3e
00000010: fa5f 6b3e 8bae 8c3d 4b8a 003e 5348 473d
00000020: 7102 b13d cafb 833e 215b 8e3e 0274 193e
00000030: 567d 3c3e 2e4a 00bc c1c2 07be 24be 2ebe
00000040: 114b 84be 54ff c1be dbb4 9a3d 89a3 3c3e
00000050: 836f 943e 4149 57bd 1d84 22bd dba7 82bd
00000060: 432d 81be 678b 84be ce2f b2be a460 77be
00000070: 4756 ccbe e42b 15be b290 97be 57f3 1abe
00000080: 4a63 713d cd0f c7be d658 19be 0e8b dbbd
00000090: 0be8 1dbd a1c7 5bbe f435 e5bd 6f7a 55bd
000000a0: c420 143c 4bef 283e 2d32 f5bd 123f 03be
000000b0: c6d7 a3bd 2fb8 94be 2345 7fbe 64a2 7ebe
000000c0: 9c23 fc3c 15fe 403d 9074 863d 682e d73b
000000d0: a792 04be 7dd7 4cbe 576b 6e3d 6189 dabd
000000e0: 6139 c4bd 9a3e a73d 53db 0dbd c432 163d
000000f0: 0f74 f93d 28e6 bd3b 83c2 67bc a76f 12be
00000100: b9a7 79be 5fe5 12bf 2b8c 14be 1892 ecbd
00000110: aa03 8abe b2b6 ecbd f9cd 21be ba25 06be
00000120: 309d 54be ed59 78be 819f 84be eee1 50be
00000130: faed 8dbe 4783 84bd e863 32be 0bc6 8e3c
00000140: 852a 1a3e 0dfb 34bd f374 98bd caaf 61be
00000150: ec45 793e 2252 d7bd 271d 63be 3b77 913e
00000160: a1cd 9ebc c508 1f3d ba20 2cbe 19bc abbe
00000170: 6a9a 63be 3214 b7bc f18d 513c bebc 20be
00000180: 2fae ee3d 5b73 283e c367 cebd b043 a23c
00000190: edca 01be 0a27 d23c b77e a4be 8f93 b2be
000001a0: 89a3 91be 7b64 06bf 769c 39bf 7609 2fbf
000001b0: c7f8 eb3d 7a0c 8cbe 19b3 50be 36c0 813e
000001c0: 803d cbbd ef32 abbd c6a9 573e 7e6b 5bbe
000001d0: 71a1 c4bd 3a4f cebd c98f 98be c128 3bbe
000001e0: 0ee3 dc3c e4e4 ccbd bb47 f5bd 1c1b b3bd
000001f0: ab8a 75bd 94ad 95bd 9c62 c8be b8f0 f2be
00000200: 00d7 e3be f3f2 03bf 4d83 1bbf 9c26 f9be
00000210: ca12 7cbe f922 91be b18b dbbd 5f76 57be
00000220: 8c5b a6bd 233f b13d 3c0d 52bd f176 3e3e
00000230: ea72 ee3d 57f5 39be 0c14 db3c 8345 f7bc
00000240: d755 8fbd 9461 be3e 5c7d 0e3f 7007 36be
00000250: 8073 8d3e 779c 7f3e 3376 a0be ed7d 31be
00000260: fc10 a83c 991c d93e ef1d b43e fcd0 bf3e
00000270: c39d 0d3e 4bfb 103e d255 7d3e eb62 423d
00000280: b4f0 53bd 0008 89be 0c2d 37be 2013 52be
00000290: a3ef 06bf 1a04 9ebe dc67 97be cda4 edbe
000002a0: 7852 78be a62d 9bbe 6596 80be 0a62 7d3e
000002b0: bba4 413e c0e0 a73d 21f2 823e 6b71 353e
000002c0: dd98 8c3e 06f4 233e 627e e8bd be39 223d
000002d0: 7d58 12be a216 3bbe 2368 0ebd c2d7 b1be
000002e0: 8783 d7be 3254 a4be 5557 f5be 7085 edbe
000002f0: 8a54 a9be 5c47 8d3d 8adc ab3d 1bcf 71bc
00000300: e343 433e e994 8b3e e78e 693e 0ae3 803d
00000310: c987 ba3d af1e 323e d73e b93d 7658 2cbe
00000320: b863 63be e061 0c3d cc9b 85be 8508 6dbe
00000330: 0612 e4bd f9d5 073d 233b 2d3b e98b 7d3e
00000340: 3ac8 d83e 99bf ce3e 693d 203e d47a b43d
00000350: b8d2 593e 85f3 95be e9ff 24be e2e5 2d3c
00000360: eacc f43d 1597 4a3e ef4f f13e faba 863e
00000370: 06ee 8c3e 7a6d c23e 6a68 84be 686e 7c3d
00000380: ba45 523d 2345 93be d3ec 97be 6db4 92be
00000390: 6533 a2bd fe67 e7bd e0c8 01bd 85fc 51bc
000003a0: 2b36 963d be98 893e 26f5 7cbc ac5e b0be
000003b0: a9d6 48be 2e2d a93b a323 26be 0cbb 58bd
000003c0: f382 c4bc 0ff2 20be 1928 73bd cf2b e33d
000003d0: 138e 973d 5900 4abe 67fa 383d 718a 223d
000003e0: 0c15 c2bd 0315 483e aec6 423e c8a2 7cbd
000003f0: 2963 0bbe c291 1bbe 0f94 77be 24a7 913d
0.117276154 0.12897345 -0.08217106 0.39483702 0.22985831 0.06869229 0.12552755 0.048652958
0.08643044 0.25778037 0.278039 0.1498566 0.18407187 -0.007830186 -0.13257886 -0.1706472
-0.2583852 -0.37890112 0.07554027 0.18421759 0.28991327 -0.052560095 -0.039676774 -0.06379672
-0.25229844 -0.25887606 -0.34802097 -0.24157959 -0.39909574 -0.14567524 -0.2960258 -0.1513189
0.05893258 -0.38879243 -0.14975294 -0.10719882 -0.03855137 -0.21462871 -0.11191931 -0.052118715
0.009041015 0.16497533 -0.11972461 -0.12817028 -0.0800014 -0.2904677 -0.24928717 -0.24866635
0.030778699 0.04711731 0.06565201 0.0065668114 -0.12946568 -0.20004077 0.058207836 -0.10670734
-0.09581257 0.08166237 -0.034632992 0.036669508 0.121803395 0.005795259 -0.014145496 -0.14300404
-0.24380387 -0.5738124 -0.14506595 -0.11551303 -0.2695592 -0.11558284 -0.15801229 -0.13100329
-0.20763087 -0.24253054 -0.25902942 -0.20398685 -0.27720624 -0.06470352 -0.17420924 0.017428419
0.15055282 -0.044184733 -0.07444181 -0.22039714 0.2434308 -0.105137125 -0.2217909 0.28411278
-0.01938516 0.038826723 -0.16809359 -0.33541945 -0.22226873 -0.022348497 0.012790189 -0.15697
0.11654317 0.16450255 -0.10078385 0.019807667 -0.12675066 0.02565338 -0.32127926 -0.34878203
-0.2844508 -0.5249707 -0.72504365 -0.6837381 0.1152206 -0.2735327 -0.2038082 0.25341958
-0.099238396 -0.08359324 0.21060857 -0.21427724 -0.09601105 -0.10073705 -0.297972 -0.18277265
0.026963737 -0.10004595 -0.11976572 -0.08745405 -0.059946697 -0.07308498 -0.39137733 -0.4744928
-0.4449997 -0.51542586 -0.60747224 -0.4866227 -0.24616542 -0.28346995 -0.107200034 -0.21041249
-0.0812293 0.086546205 -0.051282153 0.1860006 0.11643012 -0.18159996 0.026742958 -0.030184513
-0.069987945 0.3718382 0.55660033 -0.17776275 0.27627182 0.2496203 -0.3134018 -0.17333193
0.020515911 0.4240463 0.35179088 0.3746413 0.13829713 0.1415836 0.24739769 0.047457617
-0.051743224 -0.26763916 -0.17888278 -0.20515108 -0.52709407 -0.30862504 -0.29571426 -0.46414796
-0.2425021 -0.30308264 -0.25114742 0.2474443 0.18910496 0.081971645 0.25575355 0.17719047
0.27460375 0.16011056 -0.113522306 0.03960585 -0.14291568 -0.18270352 -0.03476728 -0.34734923
-0.42092535 -0.32095486 -0.47918192 -0.46390867 -0.3307231 0.06898376 0.08391674 -0.01475885
0.19068865 0.27262047 0.22808419 0.06293304 0.0910793 0.17394517 0.09045189 -0.1683062
-0.22206008 0.03427303 -0.26095426 -0.23147781 -0.1113625 0.033163045 0.0026432953 0.24760403
0.4234026 0.40380552 0.15648426 0.0881249 0.21271789 -0.29287353 -0.16113247 0.01061389
0.11953147 0.19784196 0.47131297 0.26314527 0.27525347 0.3797415 -0.25860912 0.06162873
0.051336028 -0.28763685 -0.2967287 -0.2865328 -0.07919959 -0.11299132 -0.03168571 -0.012816553
0.073345505 0.26874346 -0.015439307 -0.3444723 -0.19613136 0.0051628565 -0.16224532 -0.052912757
-0.023988223 -0.15717338 -0.059364412 0.1109234 0.074001454 -0.19726695 0.045160677 0.03968281
-0.094766706 0.19539265 0.19021103 -0.061678678 -0.13612045 -0.15192321 -0.24177574 0.07111958

layer4.0.bias f4 [64]
00000000: ab44 8541 916b 9841 f90b 9041 a198 a241
00000010: cc12 9b41 f601 a341 3a93 9a41 445a 9841
00000020: 5ae7 a841 61ea 9341 faa4 8d41 41e3 a341
00000030: 9f42 a241 c488 a341 326b 9b41 3ae2 9b41
00000040: 7a7e a341 5fa2 9d41 7c2a 6441 c820 a541
00000050: 272d 9b41 cdaf 9d41 e6eb a041 b533 a741
00000060: 839f 9441 6b24 9641 1f7c a241 6269 9541
00000070: 4b0d 9a41 0022 ab41 8a9a 9a41 7e50 a841
00000080: 841d 9a41 f40b 9c41 9c39 a441 9cfa 9941
00000090: dd45 9441 81bf a141 fea7 9441 a357 aa41
000000a0: 2da4 9741 6dcc 9941 cdab 9a41 aecf 9c41
000000b0: a107 9641 cbc9 8541 2e96 9541 a5b9 a341
000000c0: 9bc4 9041 398e 9c41 9d17 b341 49df a341
000000d0: 4287 a641 050e 9b41 a516 9441 2753 9341
000000e0: 7981 a941 36a8 9341 e8cd 9741 0958 9741
000000f0: c825 a041 9f7f a141 cc88 9b41 2470 a441
16.65853 19.052523 18.005846 20.324526 19.384178 20.375957 19.321888 19.044075
21.112965 18.489443 17.705555 20.485964 20.28253 20.44178 19.427341 19.485462
20.436756 19.704283 14.260372 20.641006 19.397047 19.71084 20.115185 20.900248
18.577887 18.767782 20.310606 18.676456 19.25649 21.391602 19.325459 21.039303
19.264412 19.505836 20.52813 19.247368 18.534113 20.218508 18.582027 21.292791
18.955164 19.224817 19.333887 19.601406 18.753725 16.723532 18.69833 20.465647
18.095999 19.569445 22.38653 20.484026 20.816044 19.381845 18.511057 18.415602
21.18822 18.457134 18.97554 18.917986 20.018448 20.187315 19.441795 20.554756

layer4.1.weight f4 [64]
00000000: 3351 563f 8161 603f a559 403f 63df 803f
00000010: a47d 8d3f 95b4 983f 276c 6b3f dea2 623f
00000020: 0cde 8a3f f1f0 873f 63da 503f 288d 963f
00000030: 11c0 743f a8dc 7e3f 63ec 8c3f 0b4d 7d3f
00000040: 9ce2 8c3f 3079 903f 3fea 233f 1027 a43f
00000050: b5bf 953f 014a 723f cc36 883f bddc 8d3f
00000060: 1251 583f 0d33 5c3f 428c 733f 441c 893f
00000070: 3562 623f 94ab a03f dbba 803f 64bd 993f
00000080: 32a0 6b3f 9c90 6e3f a3f7 823f 92da 893f
00000090: 5b58 8a3f 39cb 8d3f 05d0 743f 7700 a23f
000000a0: 612d 7e3f f8d5 a13f 9eeb 693f c57c 863f
000000b0: cf2d 5c3f 2aaf 4d3f 5816 823f 6377 a73f
000000c0: 55ee 683f a84b ae3f fa2d 973f 5780 663f
000000d0: f521 933f c044 5d3f e0ea 6b3f 80ca 783f
000000e0: a793 a63f 3ce6 963f 47c1 953f b677 593f
000000f0: 07fc 913f 605f 7e3f 7600 843f e0ec 943f
0.8371765 0.8764878 0.75136787 1.0068172 1.1053967 1.1930109 0.919619 0.88529766
1.0849013 1.0620404 0.8158323 1.1761827 0.9560557 0.99555445 1.100964 0.98945683
1.1006656 1.1286983 0.64029306 1.2824421 1.1699129 0.9464417 1.0641723 1.1082989
0.84498703 0.860154 0.9513589 1.0711751 0.884311 1.2552361 1.0057024 1.2010922
0.92041314 0.93189406 1.0231823 1.0769827 1.0808214 1.1077644 0.9562991 1.2656392
0.9928799 1.2643423 0.9137515 1.0506827 0.860074 0.80345404 1.0163069 1.3083309
0.90988666 1.3616838 1.1810906 0.9003958 1.1494738 0.8643303 0.92155266 0.9718399
1.301381 1.1789012 1.1699609 0.8494829 1.1405038 0.9936428 1.0312641 1.1634789
