miniImagenet/SalNet_IntraClass/miniImagenet_foreground_encoder_5way_1shot.pkl (torch_old, 457793 bytes, 24 tensors)

layer1.0.weight f4 [64, 3, 3, 3]
0	0x3ea64283	0.3247262
1	0x3ec8f9d6	0.3925311
2	0x3ef89964	0.48554528
3	0x3e50a2b2	0.20374563
4	0x3ec9b70a	0.3939746
5	0x3eae4ada	0.34041482
6	0xbea950b7	-0.33069393
7	0x3e81e05d	0.25366488
8	0x3e8e1c87	0.2775614
9	0x3e495a04	0.19663244
10	0x3e23e784	0.16006285
11	0x3e5bf489	0.21480002
12	0xbdcf6fc1	-0.10128737
13	0x3e834440	0.25638008
14	0x3e955c53	0.29172
15	0xbe670311	-0.22559763
16	0x3e9cd153	0.30628452
17	0x3eb376a0	0.3505144
18	0x3d53f284	0.051744953
19	0x3efb837d	0.49123755
20	0x3f05f024	0.5231955
21	0xbdb6c17f	-0.08923625
22	0x3ed6cb7d	0.41952124
23	0x3f06d6e2	0.52671635
24	0xbefed012	-0.4976812
25	0x3e5b3f45	0.21410854
26	0x3ec98529	0.39359406
27	0x3e7ab370	0.24482512
28	0x3e6472ea	0.22309461
29	0xbe8e3e7e	-0.27782053
30	0x3ddd0e87	0.107937865
31	0x3f1624fa	0.5865017
32	0x3deb8927	0.11500769
33	0xbedc5678	-0.4303472
34	0xbe05aba0	-0.13053751
35	0xbd878ac4	-0.06618264
36	0x3e5ba40a	0.21449295
37	0xbca4b0bb	-0.020103803
38	0xbeba32f9	-0.36367014
39	0x3d36e0f0	0.04464811
40	0x3ec44cec	0.38339937
41	0x3cc7cacb	0.024388691
42	0xbeef5252	-0.46742493
43	0xbe115a2f	-0.14194559
44	0x3c76c63f	0.015061914
45	0x3e8b4405	0.27200332
46	0x3e35cc8d	0.17753811
47	0xbd0445a1	-0.032292966
48	0xbd8b2075	-0.067933
49	0x3ed6ba0c	0.41938818
50	0x3e82d301	0.25551608
51	0xbf07c9bc	-0.530422
52	0xbcb402dc	-0.02197402
53	0x3e397f5b	0.18114989
54	0x3cb50624	0.022097655
55	0xbdf03a3f	-0.117298596
56	0xbde1b51d	-0.11020873
57	0xbe1ecaa0	-0.15506983
58	0xbdcd818e	-0.10034476
59	0xbe167ea7	-0.14696752
60	0xbda6e587	-0.081492476
61	0xbd537914	-0.05162914
62	0xbd8e0331	-0.069342025
63	0x3e7904d2	0.24318245
64	0x3eb1d579	0.3473318
65	0x3e8b15e2	0.27165133
66	0x3e074410	0.13209558
67	0x3d64b19e	0.05583345
68	0x3dbc91e4	0.09207514
69	0x3df25044	0.11831716
70	0x3d8d258c	0.06891927
71	0x3de4f790	0.11180031
72	0xbdef8ed9	-0.11697168
73	0xbec4d758	-0.38445544
74	0xbcb88c39	-0.0225278
75	0xbf0969da	-0.5367714
76	0xbfa45add	-1.2840229
77	0xbf31cb75	-0.69451076
78	0xbf20a887	-0.6275715
79	0xbf6ac9b0	-0.91714
80	0xbf03f7e3	-0.5155012
81	0x3ec67d13	0.387673
82	0x3f310c1b	0.69159096
83	0x3e0803a2	0.13282636
84	0x3f0d68a7	0.5523781
85	0x3f4582fc	0.7715299
86	0x3eedca00	0.46443176
87	0x3e2eeecf	0.17083286
88	0x3eeb822b	0.45997748
89	0x3eb7c7bc	0.35894573
90	0x3e7619af	0.24033235
91	0x3eb43a41	0.35200694
92	0x3e19bb32	0.15012816
93	0x3e68ecff	0.22746657
94	0x3e38c997	0.1804565
95	0x3dbe1043	0.092804454
96	0xbdc2a3c6	-0.095038936
97	0xbd219c1c	-0.039455518
98	0xbd521a9f	-0.05129492
99	0x3e106832	0.14102247
100	0xbb5ab30a	-0.0033370876
101	0xbd17f764	-0.037101164
102	0xbe32bc30	-0.174546
103	0xbe51f9d8	-0.20505464
104	0xbe0ea00b	-0.13928239
105	0xbe8e4366	-0.27785796
106	0xbefb76b5	-0.49114004
107	0xbeae27c8	-0.34014726
108	0xbe9bc502	-0.30423743
109	0xbe0cb82e	-0.13742134
110	0x3e0a1818	0.13485754
111	0xbe9e6b33	-0.30941162
112	0x3e214a0a	0.157509
113	0x3e814f62	0.25255877
114	0xbe47ca1b	-0.19510691
115	0x3ec2adfe	0.3802337
116	0x3cb615d3	0.022227203
117	0xbe8e6e09	-0.27818325
118	0xbe9eb46b	-0.30997023
119	0x3dd2a2f2	0.102849856
120	0xbe14dc97	-0.14537273
121	0x3e8371c0	0.25672722
122	0x3e9210e1	0.28528503
123	0xbdd713e7	-0.10501843
124	0x3ed253d6	0.41079587
125	0x3e0e968d	0.13924618
126	0xbee6be81	-0.45067218
127	0xbe215253	-0.1575406
128	0x3e71c937	0.23611914
129	0xbe73f86b	-0.23825233
130	0x3ee29b94	0.44259322
131	0x3ef62779	0.4807699
132	0xbd9ac4d2	-0.07557072
133	0x3ef4fa74	0.4784733
134	0x3e92712f	0.28601977
135	0xbd11f1dd	-0.03563105
136	0xbc58ea6e	-0.013239486
137	0x3e64172b	0.22274463
138	0xbf0d3e06	-0.55172765
139	0x3d1622ef	0.03665441
140	0x3e679a8c	0.22617549
141	0xbed610af	-0.41809604
142	0x3ee27214	0.4422766
143	0x3e294223	0.16529135
144	0xbdc1e2c5	-0.09467081
145	0xbc98548a	-0.018594999
146	0x3dc19d7a	0.094538644
147	0xbf34706f	-0.7048406
148	0xbe18a6ce	-0.14907381
149	0x3e73339a	0.23750153
150	0xbf01ba97	-0.5067534
151	0x3e9d8579	0.30765894
152	0x3e62974d	0.22128029
153	0xbd07aee1	-0.033125762
154	0x3d570a18	0.05249986
155	0x3e42fae4	0.1904102
156	0xbe95598c	-0.2916988
157	0x3d5e81b5	0.054322917
158	0x3e805d39	0.25071123
159	0xbea2d710	-0.31804705
160	0x3eb44d8c	0.35215414
161	0x3e98461b	0.29740986
162	0x3e658b50	0.22416425
163	0xbe6ccf08	-0.23125851
164	0xbe3fe908	-0.18741238
165	0xbde5c942	-0.112200275
166	0x3d965ca1	0.07341886
167	0xbdae9366	-0.08524208
168	0xbe99bef1	-0.3002849
169	0x3e2b2089	0.1671163
170	0x3eda6b61	0.4266005
171	0xbcae1558	-0.021250412
172	0xbf242dc4	-0.6413233
173	0xbf0ab38e	-0.5418023
174	0xbc087471	-0.008328543
175	0xbd863979	-0.06553931
176	0xbe61aabd	-0.22037788
177	0xbea12eb8	-0.31480956
178	0x3e84e43b	0.25955376
179	0x3e873b6a	0.26412517
180	0x3e9d0e21	0.30674842
181	0xbe83abb5	-0.2571694
182	0xbe928f40	-0.28624916
183	0x3e58793c	0.21139997
184	0x3e9e3824	0.30902207
185	0x3d2c6d4d	0.042096425
186	0xbd608d79	-0.05482242
187	0x3e8eea9b	0.27913365
188	0x3ee310cc	0.44348752
189	0xbe10decd	-0.14147492
190	0xbe70d7b3	-0.23519783
191	0xbd663e50	-0.05621177
192	0xbee7a2a6	-0.45241278
193	0xbec892bf	-0.39174458
194	0xbedc7ec0	-0.43065453
195	0xbed10412	-0.40823418
196	0xbf0db69f	-0.5535678
197	0xbdf4bfce	-0.11950646
198	0x3e3c1fa4	0.18371445
199	0x3efa2bf7	0.48861668
200	0x3f17ac77	0.59247535
201	0x3d0bba90	0.034113467
202	0x3e58b0e9	0.21161236
203	0x3dd359d0	0.10319865
204	0xbe155264	-0.14582211
205	0x3e3ec5d9	0.1863016
206	0x3e9bf183	0.30457696
207	0x3e6b3946	0.22971067
208	0x3e8c4160	0.27393627
209	0x3ec9ae50	0.39390802
210	0xbcea67e3	-0.02861399
211	0x3d1311ce	0.03590565
212	0x3b29626d	0.002584602
213	0xbdf97a13	-0.12181487
214	0x3d36c0da	0.04461751
215	0x3e34fc8a	0.17674461
216	0xbdc85df9	-0.09783549
217	0xbe86cd48	-0.26328492
218	0xbc14a2ab	-0.009071986
219	0xbe452d03	-0.19255452
220	0xbe9a80fb	-0.3017653
221	0xbe8eeed0	-0.27916574
222	0xbe4535af	-0.1925876
223	0xbe846d2f	-0.2586455
224	0xbded6df6	-0.11593239
225	0x3e259c98	0.16173017
226	0x3dec53be	0.1153941
227	0x3daa753e	0.083231434
228	0x3d570350	0.052493393
229	0xbdefcfed	-0.117095806
230	0xbe07eb66	-0.13273391
231	0x3e154270	0.14576125
232	0x3dd5e9d1	0.104449876
233	0x3d83a110	0.064272046
234	0xbc906c89	-0.017629879
235	0xbee7aaf4	-0.45247614
236	0xbef59f20	-0.47972965
237	0xbe7668fc	-0.24063486
238	0xbf8c167d	-1.0944363
239	0xbf39fd8c	-0.72652507
240	0x3e6bb04f	0.23016475
241	0xbea01cb2	-0.31271893
242	0xbe6ae19f	-0.2293763
243	0x3ed2de9b	0.4118546
244	0x3ec2b772	0.38030583
245	0x3e92c64e	0.2866692
246	0x3e47348d	0.1945364
247	0x3ec76c6a	0.389499
248	0x3ed4d904	0.4157182
249	0xbeb4a50c	-0.3528217
250	0x3cadc8e4	0.021213956
251	0x3ee2a900	0.44269562
252	0x3e3afb51	0.18259932
253	0x3e18c380	0.14918327
254	0xbb71b489	-0.003688129
255	0xbd3c579e	-0.045981996

layer1.0.bias f4 [64]
0	0xc262ec6d	-56.730885
1	0xc271f243	-60.486584
2	0xc24d9268	-51.392975
3	0xc26a9016	-58.64071
4	0xc26a5a36	-58.588097
5	0xc2747fd3	-61.12483
6	0xc2703334	-60.050003
7	0xc26e0c40	-59.511963
8	0xc24b7178	-50.86081
9	0xc264ca2a	-57.197426
10	0xc264d0f9	-57.204075
11	0xc26feaa7	-59.979153
12	0xc274f247	-61.2366
13	0xc275ce20	-61.451294
14	0xc24ea80c	-51.66411
15	0xc2511bb3	-52.27705
16	0xc26372bf	-56.862057
17	0xc27677a8	-61.61685
18	0xc276afd7	-61.67172
19	0xc260bcca	-56.184364
20	0xc273f9a9	-60.99381
21	0xc26f245d	-59.78551
22	0xc2700c26	-60.011864
23	0xc2705fa2	-60.09339
24	0xc26972b6	-58.362022
25	0xc266a1aa	-57.657875
26	0xc24249cf	-48.57208
27	0xc276b7b4	-61.679398
28	0xc24c8cf8	-51.137665
29	0xc26d32a1	-59.299442
30	0xc26953ed	-58.33196
31	0xc248be0c	-50.185593
32	0xc2624690	-56.56891
33	0xc26d2cec	-59.29387
34	0xc265c990	-57.44684
35	0xc2704bb1	-60.073917
36	0xc272b264	-60.67421
37	0xc247dff3	-49.9687
38	0xc23877aa	-46.11686
39	0xc2469333	-49.64375
40	0xc26dc248	-59.439728
41	0xc2765ef1	-61.592716
42	0xc251191e	-52.27453
43	0xc2678982	-57.884285
44	0xc2701f27	-60.030422
45	0xc2730fb2	-60.765327
46	0xc2555e93	-53.342358
47	0xc27287a2	-60.632454
48	0xc247206d	-49.781666
49	0xc26e5ee5	-59.59267
50	0xc266f426	-57.738426
51	0xc271e2fe	-60.471672
52	0xc24ef260	-51.736694
53	0xc25839c5	-54.056416
54	0xc269f72d	-58.491383
55	0xc275a9e6	-61.415916
56	0xc26b4309	-58.815464
57	0xc25370db	-52.86021
58	0xc2786477	-62.09811
59	0xc26e89b7	-59.634487
60	0xc24ce1f4	-51.220657
61	0xc2630c71	-56.76215
62	0xc2759e25	-61.404438
63	0xc25f4875	-55.82076

layer1.1.weight f4 [64]
0	0x3f93e073	1.1552871
1	0x3fe14fe6	1.7602508
2	0x3e95d863	0.29266652
3	0x3f6b58ce	0.9193238
4	0x3f8e8e28	1.1137133
5	0x3fc463a4	1.5342908
6	0x3f4a2dff	0.78976434
7	0x3f81543e	1.0103834
8	0x3ea5bdd9	0.32371405
9	0x3f80395d	1.0017506
10	0x3f8c67f7	1.0969228
11	0x3f4d2a9c	0.8014314
12	0x3f8cb60d	1.0993057
13	0x3fb9a243	1.4502643
14	0x3f787216	0.9704908
15	0x3f80a7d0	1.0051212
16	0x3ee69c9d	0.4504136
17	0x3fbfdf74	1.4990067
18	0x3fbfe2fe	1.4991148
19	0x3f35ff08	0.7109227
20	0x3f9e37a8	1.2360735
21	0x3f87e6a3	1.061726
22	0x3fd7c3b7	1.6856602
23	0x3f5a1ac3	0.85197085
24	0x3fab1580	1.3365936
25	0x3f9afdf8	1.2108755
26	0x3f3cdb90	0.73772526
27	0x3fc47854	1.5349221
28	0x3f669e01	0.90084845
29	0x3f014f3f	0.50511545
30	0x3f90b77a	1.1305993
31	0x3eac626c	0.3366884
32	0x3f6a94d9	0.91633373
33	0x3f84b710	1.0368366
34	0x3f8247fa	1.0178216
35	0x3f9c46f8	1.2209158
36	0x3f7a6061	0.9780331
37	0x3f4bc22e	0.7959317
38	0x3f23daf3	0.64005965
39	0x3eb66559	0.35624197
40	0x3f339fd6	0.70165765
41	0x3fdd18f5	1.7273241
42	0x3f16016b	0.58595914
43	0x3ecf2fc8	0.40466142
44	0x3f0a01d3	0.53909034
45	0x3f83038b	1.0235456
46	0x3ee0838b	0.4385036
47	0x3f3b7e76	0.7323984
48	0x3f4d3198	0.801538
49	0x3f92cd71	1.1468946
50	0x3f7277f1	0.94714266
51	0x3f963767	1.1735657
52	0x3ea0e345	0.31423393
53	0x3f56375f	0.8367824
54	0x3f64c2c0	0.89359665
55	0x3fb8746a	1.4410527
56	0x3f71349d	0.94220906
57	0x3f895450	1.0728855
58	0x4001cece	2.0282474
59	0x3f8c43a3	1.0958141
60	0x3f734fd3	0.9504368
61	0x3f647314	0.89238095
62	0x3fc55443	1.541634
63	0x3eace4ce	0.33768314

layer1.1.bias f4 [64]
0	0xbe843ad5	-0.25826135
1	0xbed498d0	-0.41522837
2	0xbf37c584	-0.7178576
3	0xbe828107	-0.25489065
4	0xbeb1c801	-0.34722903
5	0x401541c4	2.332139
6	0xbe85a5d3	-0.26103076
7	0x3d2fd1b8	0.042924613
8	0xbf0c0ea4	-0.5470984
9	0xbed1e8ea	-0.40998012
10	0xbe3a87e5	-0.18215902
11	0x3f242fa3	0.6413519
12	0xbe1fb340	-0.15595722
13	0x3f45816d	0.77150613
14	0xbe8775f8	-0.2645719
15	0xbe8ffb13	-0.28121242
16	0xbf482ff7	-0.7819819
17	0x40016b75	2.0221837
18	0x3fb2f3bd	1.3980633
19	0xbebfede3	-0.3748618
20	0x3f512b1c	0.81706405
21	0x3d9fe3a2	0.078070894
22	0xbe79df62	-0.2440162
23	0x3d9e4e92	0.0772983
24	0xbe7189c2	-0.23587707
25	0xbe8a96c9	-0.27068165
26	0xbe84bd2f	-0.25925586
27	0x3f158780	0.5840988
28	0xbe8dca49	-0.27693394
29	0xbe4cfe1c	-0.2001881
30	0xbe53c426	-0.20680293
31	0xbf60bce3	-0.8778822
32	0xbe82594d	-0.25458756
33	0xbee920fa	-0.45532972
34	0xbea345ea	-0.31889278
35	0x3f231999	0.63710934
36	0xbe7dc7e0	-0.24783278
37	0xbed1c28c	-0.4096874
38	0xbec39cf4	-0.38205683
39	0xbf1deb23	-0.61686915
40	0xbe02a224	-0.12757164
41	0x4004897f	2.070892
42	0xbea512b6	-0.32240838
43	0xbe9fa411	-0.3117986
44	0xbecb04be	-0.39652056
45	0x3f776a12	0.96646225
46	0xbf3ee762	-0.7457181
47	0x3f5bdf78	0.8588786
48	0xbe8639d2	-0.26215988
49	0xbedfb47e	-0.43692392
50	0xbe9694e6	-0.29410475
51	0x3d8c5725	0.06852559
52	0xbedd240d	-0.43191567
53	0xbee62281	-0.449482
54	0xbeb6d4a9	-0.35709122
55	0x3ee8f67d	0.45500556
56	0x3e877bff	0.2646179
57	0xbe482c1b	-0.19548075
58	0x3fdfe7c4	1.7492604
59	0x3e8c4ece	0.27403873
60	0xbe83b723	-0.2572566
61	0xbe3497b2	-0.17635992
62	0x3ffb61f4	1.9639268
63	0xbebde88e	-0.37091488

layer1.1.running_mean f4 [64]
0	0xc2803f3f	-64.12353
1	0xc275a298	-61.408783
2	0xc234b1ed	-45.173756
3	0xc278fc54	-62.246414
4	0xc2720332	-60.50312
5	0xc274cea4	-61.201797
6	0xc26ee56b	-59.72404
7	0xc271f5ed	-60.49016
8	0xc2339358	-44.89389
9	0xc276bfb9	-61.68723
10	0xc27bf991	-62.993717
11	0xc2705900	-60.086914
12	0xc2701d12	-60.02839
13	0xc276249a	-61.535744
14	0xc28af269	-69.47346
15	0xc28b8e5d	-69.77805
16	0xc25e45be	-55.568108
17	0xc27763f9	-61.84763
18	0xc2765f89	-61.593296
19	0xc269ede6	-58.482323
20	0xc272aed2	-60.670723
21	0xc272cae8	-60.69815
22	0xc27e5bf8	-63.589813
23	0xc271520b	-60.33012
24	0xc274e856	-61.22689
25	0xc27eae0f	-63.66998
26	0xc28d8cd7	-70.77508
27	0xc277f6ff	-61.991207
28	0xc28ac46d	-69.383644
29	0xc269fe09	-58.49808
30	0xc2797f90	-62.374573
31	0xc23871a9	-46.110996
32	0xc273330f	-60.799862
33	0xc274afeb	-61.171795
34	0xc26ea1a4	-59.657852
35	0xc26f0e4c	-59.76396
36	0xc2714d06	-60.32522
37	0xc25fd790	-55.96051
38	0xc28f08df	-71.51733
39	0xc22e9e4a	-43.65458
40	0xc26fb4e8	-59.926666
41	0xc2760a84	-61.51027
42	0xc232ac70	-44.668396
43	0xc27443eb	-61.066326
44	0xc26db51e	-59.426872
45	0xc2725a88	-60.58841
46	0xc241d8f9	-48.461887
47	0xc271b7f7	-60.429653
48	0xc28ab687	-69.3565
49	0xc272b342	-60.675056
50	0xc275b688	-61.428253
51	0xc272f038	-60.73459
52	0xc237e795	-45.976154
53	0xc26a3d0f	-58.559628
54	0xc26da229	-59.40836
55	0xc274f835	-61.24239
56	0xc26be30b	-58.97172
57	0xc2894a1a	-68.64473
58	0xc2796ede	-62.35827
59	0xc274c210	-61.189514
60	0xc28aaabf	-69.33349
61	0xc2782be5	-62.042866
62	0xc276499d	-61.571888
63	0xc256dd06	-53.715843

layer1.1.running_var f4 [64]
0	0x435ab250	218.69653
1	0x40c6a8f3	6.2081237
2	0x4318ff89	152.99818
3	0x4284d5ca	66.41756
4	0x41a92f4f	21.1481
5	0x40f2b1b5	7.5841928
6	0x4078b8fb	3.8862903
7	0x411a1bfd	9.631833
8	0x430c7ec5	140.4952
9	0x42a852ec	84.16196
10	0x4308914c	136.56757
11	0x3fafc4c6	1.3731925
12	0x40d59d61	6.6754613
13	0x40e763e0	7.230942
14	0x449852ce	1218.5876
15	0x449244cf	1170.1503
16	0x412bcb3c	10.737118
17	0x40df8ed1	6.9861836
18	0x40e74afd	7.227904
19	0x41e828e9	29.019976
20	0x40b7df36	5.7459974
21	0x40bac714	5.8368015
22	0x426005cd	56.005665
23	0x40904374	4.508234
24	0x4218f482	38.238777
25	0x4312542b	146.32878
26	0x44edc533	1902.1625
27	0x3ff2f5e2	1.8981287
28	0x449f45f5	1274.1862
29	0x40efea00	7.4973145
30	0x4290be24	72.37137
31	0x42875ff5	67.687416
32	0x429ae01d	77.43772
33	0x41688642	14.532778
34	0x420e2140	35.53247
35	0x3fd948b9	1.6975318
36	0x3fcbd558	1.5924482
37	0x432a5d19	170.36366
38	0x45193b63	2451.7117
39	0x431789eb	151.53874
40	0x3f9a9dbd	1.2079388
41	0x41282815	10.509786
42	0x43643975	228.22444
43	0x421dc96d	39.446705
44	0x3ff13166	1.88432
45	0x408b0c0c	4.3452206
46	0x42c51c22	98.55495
47	0x40df1a8f	6.971992
48	0x44b85f31	1474.9747
49	0x40cce981	6.403504
50	0x42729f2f	60.655453
51	0x40363138	2.846754
52	0x4305dccf	133.86253
53	0x42c7a9d6	99.83171
54	0x407c0e3f	3.9383695
55	0x41091b4f	8.569167
56	0x4137bb1d	11.483182
57	0x446f7dec	957.9675
58	0x4058d9cf	3.388294
59	0x4199b820	19.214905
60	0x449cca19	1254.3156
61	0x42e72f85	115.59281
62	0x411e1531	9.880174
63	0x41b65f5b	22.79656

layer2.0.weight f4 [64, 64, 3, 3]
0	0x3e5b2b4f	0.2140324
1	0x3e082435	0.13295062
2	0x3e96662f	0.29374835
3	0x3c02c139	0.007980638
4	0x3ead7de3	0.33885106
5	0x3eb7afe5	0.35876384
6	0xbe56ab3c	-0.20963758
7	0x3e38fae0	0.18064451
8	0x3ead2ff8	0.3382566
9	0xbd4e1a41	-0.050318006
10	0x3d7349a2	0.059396394
11	0xbdffc75a	-0.12489195
12	0xbdb37066	-0.08761673
13	0x3ea4efd8	0.32214236
14	0xbe917f3c	-0.28417385
15	0xbe8b1915	-0.27167574
16	0x3bf1f836	0.0073843254
17	0xbe8e8ed7	-0.27843353
18	0x3e80dfd5	0.2517077
19	0xbe4431a8	-0.19159567
20	0xbdee85a5	-0.116465844
21	0x3f030357	0.5117697
22	0x3da77c47	0.08178001
23	0xbeab577b	-0.3346518
24	0x3f006a6d	0.5016239
25	0x3e3986e3	0.18117861
26	0xbe6cd424	-0.231278
27	0xbc8a9e39	-0.01692115
28	0x3e4cbce0	0.19993925
29	0x3e08ac9b	0.13347094
30	0xbe80ffe1	-0.2519522
31	0x3dc0c4f2	0.09412564
32	0x3e2fe1c1	0.17175962
33	0xbecc859c	-0.39945686
34	0xbeb61ae5	-0.35567394
35	0xbdf459eb	-0.11931213
36	0xbe65ee55	-0.22454198
37	0xbeac55a4	-0.3365909
38	0x3e61916b	0.22028129
39	0x3d17fe90	0.037108004
40	0xbebf9baa	-0.3742345
41	0xbeafa35b	-0.34304318
42	0x3e8cb1c9	0.2747939
43	0xbe7f16ef	-0.24911092
44	0xbed8fae3	-0.4237891
45	0x3e8837bd	0.26605025
46	0xbe49a680	-0.19692421
47	0xbe80e4ad	-0.25174466
48	0x3e79281e	0.2433171
49	0x3ed173a8	0.4090855
50	0xbda646d9	-0.08118982
51	0xbe8d8919	-0.2764366
52	0x3e65869a	0.22414628
53	0x3ed859e5	0.42256084
54	0xbd8e2755	-0.06941096
55	0x3d829738	0.06376499
56	0x3da39b63	0.07988622
57	0xbdcde362	-0.100531355
58	0xbf03cb10	-0.51481724
59	0x3e3e060f	0.18556999
60	0x3eccb01d	0.39978114
61	0xbedf8352	-0.43654877
62	0xbece1a70	-0.40254545
63	0x3db5da40	0.088795185
64	0xbe46eee7	-0.19427072
65	0x3e57806e	0.21045086
66	0x3e058d95	0.1304229
67	0x3e6f2dae	0.23357269
68	0x3e062b81	0.13102533
69	0xbeb1a1fa	-0.3469389
70	0x3d9e4d71	0.077296145
71	0x3e597a28	0.21238005
72	0x3d0697e8	0.032859713
73	0xbe3d5e9d	-0.18493123
74	0xbe2275dc	-0.15865272
75	0x3ead33c9	0.3382857
76	0xbd1ebe6d	-0.038755823
77	0xbedc9049	-0.4307883
78	0x3ea3bf10	0.31981707
79	0x3e4b0528	0.19826186
80	0xbe3d28cf	-0.18472598
81	0x3dda8d08	0.10671431
82	0xbd39c0de	-0.045349948
83	0x3eb590b4	0.35461962
84	0x3c077760	0.008268207
85	0x3e4bf0ad	0.1991603
86	0x3e55de5d	0.20885606
87	0xbed07be5	-0.40719524
88	0x3dc72abd	0.097249486
89	0xbe8b81a5	-0.27247348
90	0x3eb739d0	0.35786295
91	0x3e1b50e2	0.15167573
92	0x3dc3265d	0.095288016
93	0x3e760d2c	0.24028462
94	0x3e8e6658	0.27812457
95	0x3eb8c5f2	0.3608852
96	0xbdd8176b	-0.105513416
97	0x3e2e9925	0.17050608
98	0x3edba064	0.42895806
99	0x3e8c75e7	0.27433702
100	0xbc63d16f	-0.013904913
101	0x3d7bef46	0.061507486
102	0x3ea4f8ad	0.32220975
103	0x3e263be2	0.16233781
104	0xbdc06d84	-0.093958884
105	0xbe28c80c	-0.16482562
106	0x3e3eb78f	0.1862471
107	0x3e174bae	0.14774963
108	0xbe01ee66	-0.12688598
109	0xbd948ee5	-0.072538175
110	0xbedad46b	-0.42740187
111	0xbde5c839	-0.1121983
112	0xbdd532ba	-0.10410066
113	0xbe556160	-0.20837927
114	0xbcbbadba	-0.022909988
115	0xbdecf3e2	-0.115699545
116	0xbe566e3b	-0.20940487
117	0x3e118c52	0.14213684
118	0xbea5d765	-0.32390895
119	0xbe78c79b	-0.24294893
120	0x3ec3736f	0.38174006
121	0xbe5c0969	-0.21487965
122	0xbf157cbc	-0.58393455
123	0x3edc5eb7	0.43041012
124	0x3d4ff2df	0.05076873
125	0xbe8285c1	-0.2549267
126	0xbbb102c5	-0.0054019415
127	0x3e9f4af7	0.3111188
128	0x3e98a9d4	0.2981707
129	0xbdb46cc0	-0.08809805
130	0x3d0636f2	0.032767244
131	0x3e732545	0.23744686
132	0xbdc944f2	-0.098276034
133	0xbdb57ca7	-0.08861666
134	0x3d83c2ff	0.06433677
135	0x3e3f1a0a	0.18662277
136	0x3e6e1614	0.2325061
137	0x3e896388	0.2683375
138	0xbe1fd1ff	-0.15607451
139	0x3dbb2da4	0.09139565
140	0x3e91e86b	0.28497633
141	0xbe4026db	-0.18764822
142	0x3d56bcac	0.052426025
143	0x3e2d8299	0.1694435
144	0xbdf01c4e	-0.11724149
145	0xbed678c3	-0.4188901
146	0xbd5d872c	-0.054083988
147	0x3ef5563a	0.47917348
148	0xbefcf085	-0.49402252
149	0xbf413303	-0.7546846
150	0x3f39220d	0.7231758
151	0xbc41ac66	-0.011820888
152	0xbf21877b	-0.6309735
153	0xbea98f8f	-0.3311734
154	0xbe481cb3	-0.19542198
155	0x3d4b7ca9	0.049679432
156	0xbcdf54f1	-0.027262183
157	0xbe76f832	-0.24118116
158	0xbce47bf1	-0.027891131
159	0x3e868f76	0.26281327
160	0x3e4ee31a	0.2020382
161	0x3d9ef33b	0.07761236
162	0xbf08a1a7	-0.5337166
163	0x3e66b2a7	0.22529088
164	0x3eba3ee6	0.36376113
165	0x3da7320d	0.08163843
166	0xbf6b3417	-0.9187636
167	0x3e833e3e	0.25633425
168	0x3ed12625	0.40849414
169	0xbf5eb3a8	-0.86992884
170	0xbe9881eb	-0.2978662
171	0x3e35ac2b	0.17741458
172	0xbdb0b44c	-0.08628139
173	0xbd3f781c	-0.046745405
174	0x3ea8f70f	0.3300099
175	0x3df1c742	0.118055835
176	0xbed956e7	-0.42449114
177	0x3d564006	0.05230715
178	0xbda6f904	-0.08152965
179	0xbf3530eb	-0.7077777
180	0xbee0c4df	-0.439002
181	0x3eb59838	0.35467696
182	0x3f156390	0.58355045
183	0xbf1d24e5	-0.6138442
184	0xbf4be0ec	-0.7964008
185	0x3e87ee8f	0.26549193
186	0x3e0861bb	0.13318531
187	0xbea1c3b9	-0.31594637
188	0xbefdd1c7	-0.4957411
189	0x3e0acded	0.13555117
190	0x3cf18c4d	0.029485846
191	0xbdfd86d2	-0.123792306
192	0x3e70645f	0.23475789
193	0x3e270520	0.16310549
194	0xbd9be071	-0.07611168
195	0x3dca8c19	0.09890003
196	0xbe87b6a8	-0.26506543
197	0x3d3244be	0.04352259
198	0xbe0088e6	-0.12552223
199	0xbaf58d99	-0.0018734216
200	0xbdade749	-0.0849138
201	0x3d456c5e	0.04819905
202	0xbdb045a7	-0.08607035
203	0x3e142926	0.14468822
204	0xbd4a1a92	-0.049341746
205	0xbe96178b	-0.29314837
206	0xbc09efda	-0.0084190015
207	0x3bfbcf7f	0.0076846476
208	0x3d899000	0.06716919
209	0x3e6605b4	0.22463113
210	0x3e69d4d7	0.22835098
211	0xbe92f22b	-0.28700384
212	0xbf130f22	-0.57444966
213	0x3ed6d758	0.4196117
214	0x3e75b233	0.23993759
215	0xbec69c39	-0.38791063
216	0xbebfabd2	-0.37435776
217	0xbe3e8309	-0.18604673
218	0xbd3390c7	-0.043839242
219	0xbea29c5a	-0.31759912
220	0xbe7d5807	-0.24740611
221	0xbd941b84	-0.07231811
222	0x3ea14043	0.3149434
223	0xbe259ecd	-0.16173859
224	0x3d50deb7	0.050993647
225	0x3eaa7d29	0.33298615
226	0xbc868250	-0.01641956
227	0x3e94fb1a	0.29097825
228	0x3db6545d	0.0890281
229	0x3e9bde43	0.3044301
230	0x3e940a5d	0.28914157
231	0xbe987154	-0.29773962
232	0x3e10114e	0.14069101
233	0x3e70c8dc	0.23514122
234	0x3e4e1c62	0.20128015
235	0x3eaeb1a3	0.341199
236	0x3ebfffd7	0.37499878
237	0xbd832757	-0.06403988
238	0xbd95de1d	-0.07317755
239	0x3e607e23	0.21923117
240	0xbe4b4c14	-0.1985324
241	0xbe143c76	-0.14476189
242	0x3c87239d	0.016496474
243	0x3ead3669	0.33830574
244	0x3e7bfa73	0.24607258
245	0xbe11a400	-0.14222717
246	0xbe7b96ae	-0.24569198
247	0x3d4abcd7	0.049496498
248	0x3db128c1	0.08650351
249	0xbcc22f67	-0.023704244
250	0xbeb3fb0a	-0.35152465
251	0xbe946bbd	-0.28988448
252	0x3e348b5e	0.1763129
253	0x3e8c591d	0.27411738
254	0x3e8941e8	0.26808095
255	0xbe55388d	-0.20822354

layer2.0.bias f4 [64]
0	0x422da53d	43.411366
1	0x4206a5b4	33.66182
2	0x42317f81	44.374516
3	0x421f574a	39.835243
4	0x422831a2	42.04847
5	0x42175db6	37.841515
6	0x420957a2	34.33558
7	0x42206cb9	40.106174
8	0x42140338	37.003143
9	0x42286da5	42.107075
10	0x421ba23c	38.908432
11	0x41f802be	31.001339
12	0x4224c82a	41.195473
13	0x422f8ce3	43.887585
14	0x42249717	41.14755
15	0x42027e9e	32.62365
16	0x420af7f0	34.742126
17	0x42340b0d	45.01079
18	0x4233ebb3	44.980175
19	0x423c0372	47.003365
20	0x4230e186	44.220238
21	0x4221e91c	40.477646
22	0x420f74a5	35.86391
23	0x4222add9	40.669773
24	0x4238d6c8	46.209747
25	0x422b335a	42.800148
26	0x42162b0b	37.542034
27	0x423c561d	47.084095
28	0x421c90ba	39.141335
29	0x4214cc7c	37.19969
30	0x42042504	33.036148
31	0x420f1c89	35.777866
32	0x420d0e5c	35.264023
33	0x4243270c	48.78813
34	0x4222ffd8	40.749847
35	0x42052562	33.286507
36	0x421c5dbd	39.09154
37	0x4217ca40	37.94751
38	0x4211b244	36.424088
39	0x4219fbd5	38.49593
40	0x4219d2ca	38.45585
41	0x4228f098	42.234955
42	0x42140ab3	37.01045
43	0x42101b1e	36.02648
44	0x41f13f51	30.155916
45	0x4228d677	42.20944
46	0x42263264	41.54921
47	0x41e3e569	28.487017
48	0x421f35cc	39.802536
49	0x422301e2	40.75184
50	0x4221709c	40.35997
51	0x4226f814	41.742264
52	0x421e77d7	39.61703
53	0x4230d3ba	44.206764
54	0x422861dc	42.095566
55	0x4206d051	33.703434
56	0x4213fb79	36.99558
57	0x4201f313	32.487377
58	0x42211093	40.266186
59	0x420cc5dc	35.193222
60	0x4223ce61	40.95154
61	0x42164538	37.567596
62	0x4239f6b1	46.49091
63	0x42226699	40.600193

layer2.1.weight f4 [64]
0	0x3fbdfb37	1.484229
1	0x3f86b83f	1.0524977
2	0x3f910c0a	1.1331799
3	0x3fad8c8f	1.355852
4	0x3fa1334a	1.2593777
5	0x3f631d1e	0.88716304
6	0x3f03203b	0.51221055
7	0x3fa2b0ab	1.2710165
8	0x3f09a940	0.5377388
9	0x3fa8d3d9	1.3189651
10	0x3f8e3cdb	1.1112322
11	0x3ee06b0e	0.43831676
12	0x3faee613	1.3663963
13	0x3f977526	1.1832626
14	0x3f7d2ed4	0.9889958
15	0x3f026158	0.50929785
16	0x3f1bb6f9	0.6082607
17	0x3f5fb18c	0.8738029
18	0x3fcaa854	1.583262
19	0x3fa2dddf	1.272396
20	0x3fb1a84b	1.3879484
21	0x3f8c8400	1.0977783
22	0x3f7b2c3f	0.9811439
23	0x3f87382d	1.0564018
24	0x3f6215fc	0.88314795
25	0x3f4ee22a	0.8081385
26	0x3f06d1ab	0.5266368
27	0x3fc369ba	1.526664
28	0x3fa92c42	1.3216631
29	0x3f95837a	1.1680748
30	0x3f003cc1	0.50092703
31	0x3f1ae842	0.6051065
32	0x3f86b997	1.0525388
33	0x3fb77488	1.4332438
34	0x3f9ad6a8	1.2096758
35	0x3f7e92e3	0.9944288
36	0x3f32748b	0.6970908
37	0x3f84f48c	1.038713
38	0x3f978875	1.1838518
39	0x3f39c34f	0.7256364
40	0x3f1ccecf	0.61253065
41	0x3f9bd738	1.2175055
42	0x3f92e96d	1.1477486
43	0x3f068892	0.5255214
44	0x3ede8c92	0.43466622
45	0x3f89d6eb	1.0768713
46	0x3facb68d	1.349321
47	0x3ef37276	0.47548264
48	0x3fa53b83	1.2908787
49	0x3f9aede0	1.2103844
50	0x3fa8b5da	1.3180497
51	0x3fa1033d	1.2579113
52	0x3f8d3eb8	1.1034765
53	0x3f8bf058	1.0932722
54	0x3f99efdd	1.2026325
55	0x3f211196	0.6291746
56	0x3f0bcce1	0.54609495
57	0x3f0fbc46	0.5614666
58	0x3f850a72	1.0393813
59	0x3f16acce	0.5885743
60	0x3f9fbe7a	1.2480004
61	0x3f493eed	0.7861164
62	0x3fe331ba	1.774955
63	0x3f7a8317	0.9785628

layer2.1.bias f4 [64]
0	0x3d281a7e	0.04104089
1	0x3d244253	0.040102314
2	0xbeb6aab9	-0.35677126
3	0xbd5bf785	-0.05370285
4	0xbedbf732	-0.42962033
5	0xbe0460e9	-0.12927593
6	0xbee3871b	-0.44439015
7	0xbe61304f	-0.21991085
8	0xbf308a68	-0.6896119
9	0x3f01f104	0.50758386
10	0xbf0927b4	-0.5357621
11	0xbf53a556	-0.8267416
12	0x3e7602fb	0.24024574
13	0x3ef14d1b	0.4712914
14	0xbd8b84d5	-0.06812445
15	0xbf7117e0	-0.94177055
16	0xbf41a58e	-0.7564324
17	0xbe48f0f9	-0.19623174
18	0xbdb575f7	-0.08860391
19	0xbf00af78	-0.50267744
20	0x3ddfabdc	0.109214514
21	0xbd4f942a	-0.05067841
22	0xbe8b6eec	-0.27233064
23	0xbeaee615	-0.34159914
24	0xbf6d98e8	-0.9281144
25	0xbe891497	-0.2677352
26	0xbee50db3	-0.44737014
27	0x3ee44659	0.4458492
28	0xbe9f5331	-0.31118158
29	0x3e1e89d6	0.15482268
30	0xbf2229bf	-0.6334495
31	0xbf045892	-0.5169765
32	0xbe962358	-0.2932384
33	0xbea0b1ff	-0.313858
34	0x3d4e5163	0.050370585
35	0xbea4ee62	-0.32213122
36	0xbeb0ef02	-0.34557348
37	0xbf123e2b	-0.5712611
38	0xbef07702	-0.46965796
39	0xbef8802a	-0.4853528
40	0xbf116a2c	-0.5680263
41	0xbec9511b	-0.3931969
42	0xbeb60849	-0.35553196
43	0xbf1a02cb	-0.6016051
44	0xbf036d65	-0.513388
45	0x3f34fa6e	0.70694625
46	0xbe7ad162	-0.24493936
47	0xbf16f4ba	-0.58967173
48	0xbd0f54b8	-0.034992903
49	0xbe3e9b13	-0.18613844
50	0xbee666a6	-0.4500019
51	0xbe61799c	-0.22019047
52	0xbe470c94	-0.19438392
53	0x3e1a011f	0.1503949
54	0xbec75ed4	-0.38939536
55	0xbf087541	-0.53303915
56	0xbe22b5d1	-0.1588967
57	0xbf1d7863	-0.6151182
58	0xbe60fe18	-0.21971929
59	0xbef21879	-0.47284296
60	0xbda64f03	-0.08120539
61	0xbd8ba6d8	-0.06818932
62	0x3dbc661d	0.09199164
63	0x3f298f83	0.66234607

layer2.1.running_mean f4 [64]
0	0x420cbbba	35.183327
1	0xc0f164da	-7.543561
2	0x41fd0294	31.626259
3	0x412fa6ac	10.978191
4	0x4239ae94	46.420486
5	0x416e0fa8	14.878822
6	0x421911a1	38.267216
7	0x41f29aeb	30.325644
8	0x42405624	48.08412
9	0x41cb32a4	25.399727
10	0x41ab9fff	21.453123
11	0x4260e362	56.222054
12	0x41c17bf4	24.185524
13	0x4206e43c	33.722885
14	0x4225823c	41.377182
15	0x41e20e4e	28.256985
16	0x41fb6508	31.424332
17	0x421a2a76	38.541466
18	0x421f2ba0	39.792603
19	0x4225c7c4	41.445084
20	0x41cdb4ed	25.713343
21	0x41eda271	29.704317
22	0x41429704	12.161869
23	0x42021067	32.516018
24	0x422e556e	43.583427
25	0x41dd0f5c	27.6325
26	0x4241401a	48.3126
27	0x421b49e1	38.822147
28	0x41f1d708	30.229996
29	0x414620fc	12.383053
30	0x421a0f52	38.51496
31	0x42289084	42.14113
32	0x4111f2d2	9.121782
33	0x4230adac	44.1696
34	0x41e843cb	29.033102
35	0x414d9240	12.848206
36	0x4213a276	36.908653
37	0x41987f82	19.06226
38	0x417cb312	15.793718
39	0x40861154	4.1896152
40	0x4220922e	40.142754
41	0x420a9dcb	34.654095
42	0x41807c0e	16.060574
43	0x4211b03d	36.422108
44	0x419c79a2	19.559391
45	0x419e82e8	19.81392
46	0x41b1b32e	22.21249
47	0x421a32fe	38.549797
48	0x419b1a06	19.387707
49	0x42236db3	40.85713
50	0x41f494fa	30.572742
51	0x41c025ee	24.01852
52	0x4203f550	32.989563
53	0x42358b9c	45.386337
54	0x421eb652	39.678047
55	0x41cf6234	25.92295
56	0x42072c38	33.793182
57	0x41a8de69	21.108599
58	0x4206847c	33.62938
59	0x423d9c9c	47.40294
60	0x41e1d374	28.228249
61	0x41e25a9c	28.294243
62	0x42246130	41.09491
63	0x41de8738	27.816025

layer2.1.running_var f4 [64]
0	0x438062a7	256.77072
1	0x4424abad	658.68243
2	0x4338f165	184.94295
3	0x43f48d4d	489.1039
4	0x436713ec	231.07782
5	0x43a95c65	338.72183
6	0x42d2ee84	105.46585
7	0x43df8f69	447.1204
8	0x42dbd2f2	109.912
9	0x43814174	258.51135
10	0x43924dd4	292.60803
11	0x42f00cee	120.02525
12	0x43904b9b	288.59067
13	0x43407e2d	192.49287
14	0x42b6df2a	91.43587
15	0x42d1a0cb	104.81405
16	0x429653ca	75.16365
17	0x428532a3	66.5989
18	0x4365f907	229.97276
19	0x42c1d8f5	96.923744
20	0x43437d98	195.4906
21	0x438e977c	285.18347
22	0x43d7f085	431.87906
23	0x432ecb4d	174.79414
24	0x41ae177a	21.761463
25	0x4256efd2	53.7342
26	0x42abe33c	85.94382
27	0x4322169e	162.08835
28	0x436b6f57	235.43492
29	0x43af311a	350.3836
30	0x424c7447	51.113552
31	0x430ac0b7	138.75279
32	0x44266422	665.5646
33	0x41c82cb7	25.021833
34	0x433e48a9	190.28383
35	0x441aa75a	618.61487
36	0x4306e607	134.89854
37	0x43855469	266.65945
38	0x439a6c99	308.84842
39	0x42d191b7	104.7846
40	0x425e0924	55.508926
41	0x4344ecfe	196.92575
42	0x43ce4133	412.50937
43	0x42faca78	125.39545
44	0x432e954e	174.58322
45	0x43040191	132.00612
46	0x437bd868	251.84534
47	0x436b4b7a	235.29483
48	0x43c5ea58	395.8308
49	0x43579e50	215.61841
50	0x433c22e7	188.13634
51	0x431cd9f1	156.85133
52	0x436b8053	235.50127
53	0x43002597	128.14684
54	0x43334743	179.27837
55	0x42ef1101	119.53321
56	0x42ff89d5	127.7692
57	0x4301b945	129.72371
58	0x43492714	201.15265
59	0x42b00bc3	88.02297
60	0x4352260e	210.14865
61	0x43460243	198.00883
62	0x4345455b	197.27092
63	0x436e0768	238.02893

layer3.0.weight f4 [64, 64, 3, 3]
0	0x3e90c119	0.28272322
1	0x3e4638b6	0.19357571
2	0xbf47f681	-0.7811051
3	0x3e019500	0.12654495
4	0x3e5def68	0.21673357
5	0xbf0b51ad	-0.544215
6	0xbd8eb7f9	-0.06968684
7	0xbc880e64	-0.016608424
8	0xbeee7dda	-0.46580392
9	0x3c59b57d	0.013287899
10	0xbe1ba983	-0.15201382
11	0xbf61f0ef	-0.8825826
12	0xbd025b29	-0.03182522
13	0x3e6e26c3	0.23256974
14	0xbf0c3b9f	-0.54778475
15	0x3d90a0e1	0.07061935
16	0x3e47229e	0.19446799
17	0xbef50b42	-0.47860152
18	0xbe30b2c4	-0.17255694
19	0x3ca266f0	0.019824475
20	0x3d51ae1d	0.051191438
21	0xbec3b2a2	-0.38222224
22	0xbd78686e	-0.060646467
23	0xbe43a859	-0.19107188
24	0xbe8d71c2	-0.27625853
25	0x3b1b5e07	0.0023707168
26	0xbecfe23b	-0.40602288
27	0xbf0b2bca	-0.5436369
28	0xbe011ef1	-0.1260946
29	0xbe589571	-0.21150757
30	0x3e2669bf	0.16251276
31	0x3e305c54	0.1722272
32	0xbd551b95	-0.052028257
33	0xbe83ed5f	-0.25767037
34	0x3e31b6c2	0.17354873
35	0x3e7b6cc6	0.24553213
36	0x3ec36b81	0.38167956
37	0x3f18c62f	0.59677404
38	0xbec5344c	-0.38516462
39	0x3e99740c	0.2997135
40	0x3f215033	0.63013
41	0x3e6f5be9	0.23374905
42	0x3e68e3cc	0.22743148
43	0x3e8d2bcd	0.2757248
44	0xbdbc5132	-0.09195174
45	0xbe06fe15	-0.13182862
46	0x3cc97819	0.0245934
47	0xbe597b94	-0.21238548
48	0xbeaf2242	-0.34205824
49	0xbebc7899	-0.3681076
50	0xbf1081cb	-0.5644805
51	0x3d10e64f	0.03537589
52	0xbe5d7e0a	-0.21630111
53	0xbea433d0	-0.3207078
54	0x3d8f7589	0.0700484
55	0x3e0090d5	0.12555249
56	0x3e34de45	0.17662914
57	0x3dacedb6	0.08443777
58	0xbde1d984	-0.11027816
59	0xbd0f6df4	-0.03501697
60	0xbd438313	-0.047732424
61	0xbeabb8ff	-0.33539578
62	0xbe47da6c	-0.19516915
63	0x3e7a397d	0.24435993
64	0xbebb9e31	-0.36644128
65	0xbea27a94	-0.31734145
66	0x3dd6a301	0.10480309
67	0x3e68e904	0.22745138
68	0xbe7ebd9e	-0.2487702
69	0x3cea38ae	0.02859148
70	0x3e49f3bd	0.19721885
71	0xbdea89bf	-0.11452054
72	0xbf1657a8	-0.587275
73	0xbf0c9a58	-0.5492301
74	0xbeab8cd7	-0.3350589
75	0xbf077fbe	-0.52929294
76	0xbeb3877d	-0.35064307
77	0xbef70ec1	-0.48253444
78	0xbf1aaeca	-0.60422957
79	0xbea320f9	-0.31861094
80	0xbf0abd84	-0.5419543
81	0xbdd7d556	-0.105387375
82	0xbf877ced	-1.0584999
83	0xbee2100a	-0.44152862
84	0x3c1cb863	0.009565446
85	0xbefc3aa4	-0.4926349
86	0xbeab1d01	-0.33420566
87	0x3e1e8b5c	0.15482849
88	0x3e6f65cc	0.23378676
89	0xbc841ade	-0.016126093
90	0x3ec79a1f	0.38984773
91	0x3f02a3a9	0.51030976
92	0xbf0d6060	-0.5522518
93	0xbc5173a1	-0.012783916
94	0x3f02d1a0	0.5110111
95	0xbe6703f0	-0.22560096
96	0xbea59bc7	-0.3234541
97	0x3dda3887	0.10655313
98	0xbd66687f	-0.056252
99	0x3dee1f2e	0.11627041
100	0x3f01a15e	0.5063685
101	0x3d9fbc1a	0.077995494
102	0x3e2fbae6	0.1716114
103	0x3ef9c8dd	0.4878606
104	0xbe17e959	-0.14835109
105	0xbe643daf	-0.22289155
106	0x3e0a5453	0.1350873
107	0xbe133a96	-0.14377818
108	0xbdbb43ec	-0.091438144
109	0xbe962629	-0.2932599
110	0xbf5c7851	-0.8612109
111	0xbe6e8515	-0.23292954
112	0xbf08aeb5	-0.5339158
113	0xbf092086	-0.5356525
114	0x3e8bf854	0.27337897
115	0xbd7eb79a	-0.062186815
116	0xbe8c6c2e	-0.27426285
117	0xbe4b4ced	-0.19853564
118	0xbe48b2b4	-0.1959942
119	0x3d2ec7e2	0.04267109
120	0x3de765bd	0.11298702
121	0x3e92725e	0.2860288
122	0x3df28955	0.118426
123	0x3ea00eca	0.31261283
124	0x3ee1ff11	0.44139913
125	0x3ecefae5	0.40425792
126	0xbe18134e	-0.14851114
127	0xbedc95fd	-0.43083182
128	0xbe76fc26	-0.24119624
129	0x3e81db8e	0.2536282
130	0x3cd8a54f	0.026446013
131	0xbdf990bf	-0.12185811
132	0xbca4a950	-0.020100266
133	0xbe84f7d9	-0.25970343
134	0xbec630de	-0.38709158
135	0x3e5d06f7	0.21584688
136	0x3f046b69	0.51726395
137	0xbd8222f6	-0.063543245
138	0xbd9fe590	-0.078074574
139	0x3f211e16	0.6293653
140	0xbe163a5c	-0.146707
141	0xbda30729	-0.0796035
142	0x3db2a0ac	0.08722052
143	0xbeb6c73c	-0.3569888
144	0x3e1cdeda	0.15319386
145	0x3ec6c05f	0.38818642
146	0x3e4db964	0.20090252
147	0x3f06466a	0.52451193
148	0x3ecdaa7b	0.4016913
149	0x3d43562b	0.047689598
150	0x3e928683	0.2861825
151	0x3ea7a4fc	0.3274306
152	0x3cf9ee8b	0.030509254
153	0xbe4069d7	-0.18790375
154	0x3d39e936	0.045388423
155	0x3e72215f	0.23645543
156	0xbec1a778	-0.3782308
157	0x3cf2024c	0.02954211
158	0x3b26c4bf	0.002544686
159	0xbe58a7d8	-0.21157777
160	0x3e296cf6	0.16545472
161	0x3d313cc2	0.043270834
162	0xbc1508a4	-0.009096298
163	0xbeadc5c3	-0.33939943
164	0xbf17ca7b	-0.59293336
165	0xbf00a932	-0.5025817
166	0xbe8941de	-0.26808065
167	0x3cee823a	0.029114831
168	0xbf191bfc	-0.59808326
169	0xbed4288a	-0.4143718
170	0xbf049b8c	-0.51799846
171	0xbe1260e9	-0.14294781
172	0xbed75a43	-0.42061052
173	0xbf424e6e	-0.75900924
174	0xbe8a1026	-0.26965445
175	0xbf0d1c2e	-0.55121124
176	0xbf2fa4cd	-0.6861084
177	0xbf0b1ecf	-0.54343885
178	0xbf00c538	-0.5030093
179	0xbf2aa71f	-0.66661257
180	0xbf238507	-0.6387486
181	0xbe45cf81	-0.19317438
182	0x3c209078	0.009800069
183	0xbe14f069	-0.14544834
184	0xbe20094b	-0.15628545
185	0x3d984381	0.0743475
186	0xbe00a900	-0.12564468
187	0xbd699b29	-0.057032738
188	0x3e8c9629	0.27458313
189	0xbcc64d95	-0.024206916
190	0xbd6bc951	-0.057565037
191	0xbf046565	-0.51717216
192	0xbbc4eceb	-0.006009688
193	0x3e3668bb	0.17813389
194	0xbe20d686	-0.15706834
195	0xbb4e5eda	-0.0031489641
196	0x3dc183ac	0.094489425
197	0xbe0afb29	-0.13572372
198	0x3ee42ef0	0.4456706
199	0x3ed290cc	0.41126096
200	0xbef49cdc	-0.47775924
201	0x3f1c188b	0.6097495
202	0x3f0fbb7d	0.5614546
203	0xbe0d32f0	-0.13788962
204	0x3ebc30fb	0.3675612
205	0x3e8b2723	0.27178296
206	0xbe260524	-0.16212898
207	0x3dfb6940	0.12275934
208	0x3eb6dcb9	0.35715273
209	0xbda464fb	-0.08027073
210	0x3d7e97de	0.06215655
211	0x3eea8b3f	0.4580936
212	0x3e9764b7	0.29569027
213	0xbd3a9bd3	-0.04555876
214	0x3ec1492a	0.37751132
215	0x3ed02a42	0.4065724
216	0xbde821b7	-0.113345556
217	0xbe786a33	-0.24259262
218	0xbe39dd02	-0.18150714
219	0xbe90278c	-0.28155172
220	0xbe1cc18e	-0.1530821
221	0xbee2cccc	-0.44296873
222	0xbe7b3a2b	-0.24533908
223	0xbcc93483	-0.024561172
224	0xbe81d755	-0.25359598
225	0xbebeb3ac	-0.37246454
226	0xbf051029	-0.51977783
227	0xbded9b84	-0.11601928
228	0x3e5defee	0.21673557
229	0xbdcf8bcb	-0.10134085
230	0x3dbed994	0.093188435
231	0x3e3a166f	0.1817262
232	0xbeca7c08	-0.39547753
233	0xbd96bce2	-0.07360245
234	0xbe256fa8	-0.16155875
235	0x3d9255f6	0.07145302
236	0xbd286e5b	-0.04112087
237	0xbe1d0771	-0.1533487
238	0x3e15d776	0.14632973
239	0xbd8ea046	-0.069641635
240	0xbea6773d	-0.32512847
241	0x3dde9294	0.10867801
242	0xbe1a42d4	-0.15064555
243	0x3dcf6013	0.101257466
244	0xbe53d765	-0.20687635
245	0xbcb64f70	-0.022254676
246	0xbe575131	-0.21027066
247	0xbd42470a	-0.04743103
248	0x3dba8231	0.09106863
249	0xbd9d13a5	-0.076697625
250	0x3e3a646d	0.18202372
251	0x3e898fc7	0.26867506
252	0x3f064921	0.52455336
253	0x3eddaa98	0.43294215
254	0xbefcef3e	-0.49401277
255	0x3f090dbe	0.53536594

layer3.0.bias f4 [64]
0	0x41b90160	23.125671
1	0x41c9c163	25.219427
2	0x41f72c53	30.896643
3	0x42007ce3	32.12196
4	0x41aca8e4	21.582466
5	0x41b3f950	22.496735
6	0x41b96bea	23.177692
7	0x41c97fdc	25.187431
8	0x41bad2b5	23.352884
9	0x41dd7932	27.684177
10	0x41af1565	21.885447
11	0x41d11e3f	26.139769
12	0x41995f85	19.17164
13	0x41d94dd5	27.163004
14	0x41cb72a1	25.430971
15	0x41a574ad	20.68197
16	0x41ec0e9a	29.50713
17	0x418ee27f	17.860594
18	0x41bdd92c	23.731041
19	0x41c51bae	24.638515
20	0x41aabbcb	21.341696
21	0x41943c20	18.529358
22	0x41bb74e8	23.432083
23	0x41a1dc64	20.232613
24	0x41cd01e7	25.625929
25	0x416e9531	14.911424
26	0x41ada54b	21.70571
27	0x41dda154	27.703773
28	0x41e1befd	28.218256
29	0x41c2fcdf	24.373472
30	0x41b9ad74	23.209694
31	0x41ba4227	23.2823
32	0x41c44118	24.531784
33	0x41f5c415	30.720743
34	0x41bff4c9	23.994524
35	0x41f67051	30.804842
36	0x419858b1	19.043306
37	0x41a0ecc3	20.115606
38	0x41b21f94	22.265419
39	0x419c400d	19.531275
40	0x41c60d65	24.75654
41	0x41ae1d50	21.764313
42	0x41b08a6b	22.067587
43	0x41ae2be9	21.77144
44	0x41e36566	28.424511
45	0x41b12399	22.142382
46	0x41bdecbe	23.740597
47	0x41e12b1f	28.146055
48	0x41d61c80	26.763916
49	0x41e8a7b3	29.081884
50	0x41edeaad	29.739588
51	0x4194fa6a	18.622272
52	0x41a1f29d	20.243464
53	0x41cbbbcc	25.466698
54	0x41b5d280	22.727783
55	0x41b4051f	22.5025
56	0x41e34294	28.407509
57	0x41afee7a	21.991444
58	0x41c5484e	24.660305
59	0x41acde05	21.608408
60	0x41b3c27b	22.469961
61	0x41bcf914	23.62162
62	0x41bfe6db	23.987722
63	0x41d0898e	26.067165

layer3.1.weight f4 [64]
0	0x3f9ecb99	1.2405883
1	0x3f50b394	0.81524014
2	0x3fb749e9	1.431943
3	0x3faac387	1.334092
4	0x3f589f7f	0.8461837
5	0x3f86fabe	1.054527
6	0x3f9e8490	1.2384205
7	0x3f8517a4	1.039784
8	0x3f85e791	1.0461293
9	0x3f94d1ca	1.1626523
10	0x3f4c4d34	0.798053
11	0x3f9c84d0	1.2228031
12	0x3f4fefe7	0.81225437
13	0x3faac9f4	1.3342881
14	0x3f97d028	1.1860399
15	0x3f586ce7	0.8454117
16	0x3fa68d9f	1.3011969
17	0x3f2559f2	0.6459037
18	0x3f7b4473	0.9815132
19	0x3f51d9d3	0.81973
20	0x3f285f5b	0.657705
21	0x3f73cd3a	0.95235026
22	0x3f8e12a5	1.109944
23	0x3f7f0901	0.99623114
24	0x3f9ef02f	1.2417048
25	0x3ef6cbf8	0.4820249
26	0x3f2a806a	0.66602194
27	0x3fb6868c	1.425981
28	0x3fa1bb6b	1.263532
29	0x3f8dec5a	1.1087754
30	0x3fa6def5	1.3036791
31	0x3f8f6f03	1.1205753
32	0x3f93620e	1.1514299
33	0x3f9f437a	1.2442467
34	0x3f513b07	0.81730694
35	0x3fc2e0e6	1.5224884
36	0x3f3d7516	0.74006784
37	0x3f92625d	1.1436268
38	0x3f7de17c	0.99172187
39	0x3f6f0fb1	0.9338332
40	0x3f95dab9	1.1707374
41	0x3f891b2c	1.0711417
42	0x3f7f6dcb	0.99776906
43	0x3f90c9fe	1.1311643
44	0x3fb20f69	1.3910953
45	0x3f7dd983	0.9916002
46	0x3f5a04f8	0.8516383
47	0x3f97681f	1.182865
48	0x3f9bf7cc	1.2184997
49	0x3fae0bd2	1.3597357
50	0x3fabadfb	1.341247
51	0x3f601b68	0.8754182
52	0x3f51e9ad	0.81997186
53	0x3f813eeb	1.0097326
54	0x3f96cac5	1.178063
55	0x3f66965b	0.90073174
56	0x3fb91350	1.4459019
57	0x3f5c0349	0.8594251
58	0x3f864bff	1.0491942
59	0x3f3ff32f	0.74980444
60	0x3f92b721	1.1462137
61	0x3f494c1d	0.78631765
62	0x3fb5dbbb	1.4207681
63	0x3f9509b5	1.1643587

layer3.1.bias f4 [64]
0	0xbe17e087	-0.14831744
1	0xbf0c503b	-0.5480992
2	0xbee956b5	-0.45573965
3	0xbf2f61c7	-0.6850857
4	0xbee8c67f	-0.4546394
5	0xbed20b4a	-0.41024238
6	0xbe1b1d91	-0.15147997
7	0xbe8f5181	-0.2799187
8	0xbeba7c94	-0.3642317
9	0xbedb2e05	-0.42808548
10	0xbed2c318	-0.4116447
11	0xbeb6ae2d	-0.3567976
12	0xbe4edf08	-0.20202267
13	0xbe4c5d98	-0.19957578
14	0xbe213da0	-0.15746164
15	0xbe62eb20	-0.22160006
16	0xbebea51d	-0.37235346
17	0xbe5dc96e	-0.2165887
18	0xbef6db8b	-0.48214373
19	0xbf0e9115	-0.5569013
20	0xbf1a3cdc	-0.60249114
21	0xbecc424d	-0.39894333
22	0xbe9cf5d3	-0.306563
23	0xbea22e7c	-0.3167609
24	0xbeab8edf	-0.3350744
25	0xbe8d2f91	-0.27575353
26	0xbee3ac8c	-0.4446758
27	0xbe03bb84	-0.128645
28	0xbe25afae	-0.16180298
29	0xbef92e8e	-0.4866833
30	0xbe9cb3e1	-0.30605987
31	0xbeb4a765	-0.35283962
32	0xbec143d5	-0.37747064
33	0x3d0ea146	0.03482177
34	0xbead09fa	-0.33796674
35	0xbdca8bdd	-0.09889958
36	0xbd89fd64	-0.067377836
37	0xbee79652	-0.45231873
38	0xbe86397e	-0.26215738
39	0xbdf0bb29	-0.11754448
40	0xbe1264e6	-0.14296302
41	0xbe869149	-0.2628272
42	0xbe3bd18b	-0.18341653
43	0xbe0cbe47	-0.1374446
44	0xbe8e3df9	-0.27781656
45	0xbefcd17f	-0.49378583
46	0x3e1c747c	0.1527881
47	0xbe96249e	-0.29324812
48	0xbe975144	-0.29554188
49	0xbed767d1	-0.42071393
50	0xbe96e3fd	-0.29470816
51	0xbdd684cb	-0.10474547
52	0xbed613ec	-0.41812074
53	0xbebfd809	-0.3746951
54	0xbd4671e1	-0.048448447
55	0xbe91e4b1	-0.2849479
56	0xbc6a9779	-0.01431834
57	0xbe60c14e	-0.2194874
58	0xbea404cb	-0.32034907
59	0xbf06048f	-0.52350706
60	0xbda1f9bf	-0.079089634
61	0xbf2729a9	-0.65297943
62	0xbdd93980	-0.106066704
63	0xbea2be5a	-0.31785852

layer3.1.running_mean f4 [64]
0	0x41168cc5	9.409368
1	0x41e5d2a8	28.72786
2	0x41e11594	28.135536
3	0x41e2b380	28.337646
4	0x4143a20e	12.227064
5	0x409aab77	4.833431
6	0x411b467a	9.704706
7	0x41968470	18.814667
8	0x41942ea3	18.522772
9	0x41c03fa9	24.031084
10	0x41697f73	14.593616
11	0x418e0c10	17.75589
12	0x41b7ea9a	22.989552
13	0x41780740	15.50177
14	0x4196d76a	18.855183
15	0x41562b31	13.385545
16	0x41ceacb0	25.83432
17	0xc0ef317a	-7.4747896
18	0x4174040d	15.250989
19	0x420958aa	34.336586
20	0x4200cb7d	32.19872
21	0x40feaba7	7.9584537
22	0x4194a432	18.580173
23	0x40b71492	5.721261
24	0x418e9c8e	17.826443
25	0x4126b6df	10.419646
26	0x41bdebe9	23.74019
27	0x4199406a	19.156452
28	0x41949b12	18.575718
29	0x41a67374	20.806374
30	0x41745591	15.27089
31	0x414c5e21	12.772981
32	0x41bf9207	23.946302
33	0x41c8767f	25.05786
34	0x419b8edd	19.444757
35	0x41d8a760	27.081726
36	0x41cb0c14	25.380898
37	0xc08a32e2	-4.3187113
38	0x40f5fee9	7.687367
39	0x42014e66	32.32656
40	0x41d128ab	26.144857
41	0x4113bf7e	9.234251
42	0x41bda519	23.705614
43	0x41854d3f	16.662718
44	0x418cf8cc	17.621483
45	0x41e7717c	28.930412
46	0x41c8261d	25.01861
47	0x41e274a2	28.30695
48	0x41afe3bf	21.986204
49	0x419adfc8	19.359268
50	0x41b7d807	22.980482
51	0x4163ef6a	14.245951
52	0x411d5676	9.833609
53	0x41d53cb3	26.654638
54	0x410bac3a	8.7295475
55	0x4192dcc7	18.357801
56	0x41c3e7fa	24.48827
57	0x4176678b	15.400279
58	0x41415aea	12.084696
59	0x41aa3467	21.275587
60	0x416c92ef	14.785872
61	0x41e6e0d5	28.859781
62	0x41de209b	27.76592
63	0x420d1536	35.270714

layer3.1.running_var f4 [64]
0	0x42e3674d	113.70176
1	0x42861212	67.03529
2	0x425b6f63	54.858776
3	0x422ace81	42.701664
4	0x427dee7e	63.482903
5	0x42d6d5d7	107.417656
6	0x42ee65cc	119.19882
7	0x42625970	56.58734
8	0x42a73fb4	83.62442
9	0x424626b1	49.537785
10	0x42702940	60.040283
11	0x4286313e	67.096176
12	0x432c81f5	172.50764
13	0x42a9b8c7	84.86089
14	0x4276572f	61.58514
15	0x42cc4be0	102.14819
16	0x428a73c0	69.226074
17	0x42eedcce	119.43126
18	0x429c447f	78.13378
19	0x420dfcba	35.496803
20	0x42376d66	45.856834
21	0x4306a129	134.62953
22	0x43092fda	137.18692
23	0x432563ed	165.39034
24	0x42d50ee1	106.52906
25	0x429c361f	78.105705
26	0x427b2ccc	62.793747
27	0x4295fdf8	74.99603
28	0x42972edc	75.59152
29	0x42510011	52.250065
30	0x42feee20	127.46509
31	0x42fd509c	126.65744
32	0x4298c771	76.389534
33	0x42704f9a	60.077736
34	0x4274bb53	61.182934
35	0x425f0a02	55.759773
36	0x42f26ac5	121.208534
37	0x4357df86	215.87314
38	0x43202d99	160.17812
39	0x43114bcb	145.29607
40	0x42f25aaa	121.17708
41	0x431f5139	159.31728
42	0x42918ed8	72.77899
43	0x432193b7	161.57701
44	0x42a48644	82.26224
45	0x42e67cb1	115.24354
46	0x42c7f72a	99.98274
47	0x42822b6e	65.08482
48	0x428c0b3b	70.021935
49	0x428b8f61	69.78004
50	0x426cab3a	59.167213
51	0x42c8a9c0	100.33154
52	0x42bfd2f8	95.91205
53	0x42e3ee4a	113.96541
54	0x43231ff7	163.12486
55	0x4306550e	134.33224
56	0x42bdf3b9	94.97602
57	0x428eeb51	71.4596
58	0x42c3e2c8	97.94293
59	0x42814585	64.63578
60	0x430997de	137.59323
61	0x427f58e7	63.83682
62	0x430e26b2	142.15115
63	0x42a63a9f	83.114494

layer4.0.weight f4 [64, 64, 3, 3]
0	0x3f110cb8	0.5666003
1	0x3e50f275	0.2040499
2	0x3eaeca28	0.34138608
3	0x3efad089	0.48987225
4	0xbe6a2b75	-0.2286814
5	0xbc65e8be	-0.014032541
6	0x3f232a98	0.6373687
7	0xbdca4c04	-0.0987778
8	0xbda8bf39	-0.08239598
9	0x3e2f120c	0.17096728
10	0xbe8974f7	-0.2684705
11	0xbebbecc3	-0.36704072
12	0xbe8150f3	-0.25257072
13	0xbec98f55	-0.39367166
14	0xbef4adbc	-0.477888
15	0xbe2ecbea	-0.17069975
16	0xbe40981a	-0.18808022
17	0xbea632fd	-0.32460776
18	0xbe818629	-0.2529767
19	0xbc87c8f8	-0.016575322
20	0x3e1a59ef	0.1507337
21	0xbe79dc95	-0.24400552
22	0xbe3c4711	-0.18386485
23	0x3de6a1b4	0.11261311
24	0x3eaaf760	0.33391857
25	0x3e6aa19f	0.22913216
26	0x3e616064	0.22009426
27	0xbf32353a	-0.6961247
28	0xbf168ae1	-0.5880566
29	0x3c46e863	0.012140366
30	0xbf2336b8	-0.6375537
31	0xbf0b1688	-0.54331255
32	0xbdcf12bb	-0.101109944
33	0xbf75c317	-0.9600081
34	0xbf80f979	-1.0076133
35	0xbe9318ae	-0.28729767
36	0xbda651d3	-0.081210755
37	0xbe173288	-0.1476537
38	0x3cc30554	0.023806252
39	0xbe71c5fe	-0.23610684
40	0xbe29eff7	-0.16595446
41	0xbd7724d0	-0.06033784
42	0xbe9748d9	-0.29547766
43	0xbe2ad1ad	-0.16681547
44	0xbd5264ad	-0.051365543
45	0x3cadf30b	0.021234056
46	0x3d08b132	0.03337211
47	0x3e8b5d5c	0.27219665
48	0xbe2cf0ab	-0.16888683
49	0xbe2c51c8	-0.16828072
50	0xbdf44b63	-0.119284414
51	0xbf247d8f	-0.6425409
52	0xbf0205c0	-0.50790024
53	0xbea94402	-0.33059698
54	0x3ea9a9be	0.33137316
55	0x3e2c0e12	0.16802242
56	0xbe34a7ba	-0.17642108
57	0x3e78588a	0.24252525
58	0x3dd8b3db	0.1058118
59	0xbe69327d	-0.22773166
60	0xbaeb5bdc	-0.0017956453
61	0x3cc8db65	0.024518678
62	0xbda431e9	-0.08017332
63	0x3d52ecb5	0.051495273
64	0x3c552eaa	0.013011614
65	0x3f062130	0.5239439
66	0x3e5a90f1	0.21344353
67	0x3e0da52e	0.13832542
68	0x3e4c06d4	0.1992448
69	0x3eac2042	0.3361836
70	0x3ea4156f	0.32047603
71	0x3e8beb58	0.2732799
72	0xbe9d9af2	-0.30782276
73	0xbdd09e98	-0.10186499
74	0xbe56328a	-0.20917717
75	0xbe5cec9e	-0.21574637
76	0xbe2b267e	-0.16713902
77	0xbe26a504	-0.16273886
78	0xbeae5a4d	-0.3405327
79	0xbe0c8094	-0.13720924
80	0xbde64705	-0.11244015
81	0xbf533b42	-0.82512295
82	0xbf280856	-0.6563772
83	0xbee3e20f	-0.44508407
84	0xbf8c71be	-1.0972211
85	0xbf4282e7	-0.7598099
86	0xbe89ee3b	-0.26939568
87	0xbfa8cb96	-1.318713
88	0xbf9714c9	-1.1803218
89	0xbf13d662	-0.57749
90	0x3ed66be2	0.41879183
91	0x3dbdb7f6	0.092636034
92	0xbd703bb5	-0.05865069
93	0xbbaa764f	-0.0052020918
94	0xbe4cd31e	-0.2000241
95	0xbe96d69f	-0.29460618
96	0xbc5623f1	-0.013070093
97	0xbea7bc6d	-0.32760945
98	0xbed91abf	-0.42403218
99	0xbd19d0c2	-0.037552603
100	0x3d0c08f0	0.03418821
101	0x3e9a7b50	0.30172205
102	0xbcfdf47c	-0.031000368
103	0x3c219c12	0.00986387
104	0x3ea54ca7	0.32285044
105	0xbe4484c3	-0.1919127
106	0xbb1a193e	-0.002351358
107	0x3ed987e0	0.42486477
108	0xbc8f3bb1	-0.017484518
109	0xbd731dbe	-0.059354536
110	0x3d738932	0.05945701
111	0xbe3f4ec1	-0.18682386
112	0xbe2efe23	-0.17089133
113	0xbe6207ac	-0.22073239
114	0xbe615628	-0.22005522
115	0xbed61ce3	-0.41818914
116	0xbea28ee2	-0.31749636
117	0xbe6ea7bd	-0.23306175
118	0xbe8002bb	-0.25002083
119	0xbd811e83	-0.06304648
120	0xbecf3b5c	-0.40474975
121	0xbf03a356	-0.51421106
122	0xbea0d324	-0.31411088
123	0xbee0109c	-0.43762672
124	0xbf37299f	-0.71547884
125	0xbf34dae5	-0.70646507
126	0x3e9f9a5c	0.31172454
127	0x3d87ea1c	0.0663645
128	0x3d31fa0c	0.043451354
129	0xbdfcfdc7	-0.12353092
130	0xbd8d43e6	-0.06897716
131	0xbdb4bbfa	-0.08824916
132	0x3e9acd32	0.30234677
133	0x3e068d88	0.13139927
134	0x3db08394	0.086188465
135	0x3ed27c0b	0.41110262
136	0x3e8b9142	0.2725926
137	0x3e10a93b	0.14127056
138	0x3e01f873	0.12692432
139	0x3daf4aad	0.08559165
140	0x3dbb3a3a	0.09141965
141	0x3e63ead9	0.22257556
142	0x3e3afa0a	0.18259445
143	0x3cdc72fd	0.0269103
144	0xbe85369b	-0.26018223
145	0xbdc1b604	-0.09458545
146	0xbe4f1663	-0.20223384
147	0xbef08e70	-0.4698367
148	0xbeab1561	-0.33414748
149	0xbf002cfc	-0.5006864
150	0xbe2fe87c	-0.1717853
151	0x3c953976	0.018215876
152	0xbcc4583f	-0.02396786
153	0xbd9af58e	-0.07566367
154	0xbe4d263e	-0.2003412
155	0xbe589731	-0.21151425
156	0x3e2be919	0.16788138
157	0xbdd02ff7	-0.101653986
158	0xbda89015	-0.082306065
159	0x3e5fdc40	0.21861362
160	0x3deca52d	0.11554942
161	0xbd9ce0e9	-0.07660086
162	0x3f141854	0.5784962
163	0x3eff31bb	0.4984263
164	0x3edec0e6	0.43506545
165	0x3e8aa51a	0.27079087
166	0x3e69bbb4	0.2282551
167	0x3e8e24af	0.27762362
168	0xbdc83854	-0.09776369
169	0x3c1b86a2	0.009492548
170	0x3dc5f25d	0.09665368
171	0xbf441162	-0.76589024
172	0xbf111581	-0.5667344
173	0xbead58ee	-0.3385691
174	0xbf0bcd87	-0.54610485
175	0xbedc7cc0	-0.43063927
176	0xbed5ba2c	-0.417436
177	0xbf1a9749	-0.6038709
178	0xbe70736a	-0.23481527
179	0xbe8a6f0e	-0.27037853
180	0x3d5e2b0a	0.054240264
181	0xbde90b6d	-0.113791324
182	0xbd99e942	-0.075151935
183	0x3d512be7	0.05106726
184	0xbdfb905b	-0.12283393
185	0x3d8265d4	0.063670784
186	0x3e82a14d	0.25513688
187	0x3e4b905c	0.19879287
188	0x3e2fd645	0.17171581
189	0x3f0c1392	0.5471736
190	0x3f3a0ea3	0.72678584
191	0x3f2bf6e9	0.6717363
192	0x3eab1c24	0.33419907
193	0x3f281f38	0.65672636
194	0x3f0d262a	0.5513636
195	0x3e6105bc	0.21974844
196	0x3e863dfe	0.2621917
197	0x3ec8c140	0.39209938
198	0x3eb49432	0.35269314
199	0xbdc520ef	-0.09625422
200	0xbe0c78fc	-0.13718027
201	0x3df53a72	0.11974038
202	0x3d9279b5	0.0715212
203	0xbd1bd132	-0.0380413
204	0x3d4694d9	0.048481796
205	0xbd3b1d20	-0.045682073
206	0xbd4f1491	-0.050556723
207	0x3d853f81	0.06506253
208	0x3b6e3d03	0.0036352284
209	0x3e541774	0.20712072
210	0xbe9aa0ca	-0.30200797
211	0xbeb4ab61	-0.35287002
212	0xbe53d01f	-0.2068486
213	0xbeaa5dee	-0.33274788
214	0xbeda6b0f	-0.42659804
215	0xbed7b786	-0.42132205
216	0xbe3eaa60	-0.1861968
217	0xbe2974cc	-0.1654846
218	0x3e1d22ee	0.15345356
219	0x3e180d5e	0.14848849
220	0xbd2c92ac	-0.042132065
221	0x3e04696d	0.12930842
222	0x3d9da60a	0.07697685
223	0x3cd54d77	0.026037915
224	0x3e45f5e7	0.19332086
225	0xbe7af939	-0.24509133
226	0xbea0005f	-0.31250283
227	0xbea211e0	-0.31654263
228	0xbe419945	-0.18906124
229	0xbdd368a2	-0.103226915
230	0xbea669ff	-0.32502744
231	0x3d45c225	0.048280854
232	0x3df311ec	0.11868653
233	0xbc0b2f78	-0.008495204
234	0xbdbd3d7d	-0.092402436
235	0xbe84e8ea	-0.2595895
236	0xbe047c69	-0.12938084
237	0xbce057a6	-0.027385544
238	0xbdfcc003	-0.12341311
239	0xbd5de5fb	-0.054174405
240	0x3d6b3952	0.05742771
241	0xbd374393	-0.04474218
242	0xbd0022dc	-0.031283244
243	0x3e49c783	0.19705014
244	0xbd6a3fa3	-0.057189595
245	0xbd536ce4	-0.051617518
246	0x3e7b802d	0.24560614
247	0xbe176a97	-0.14786755
248	0xbe5f398e	-0.21799299
249	0xbd433ade	-0.047663562
250	0xbeca3685	-0.3949472
251	0xbecda260	-0.40162945
252	0xbf01f154	-0.5075886
253	0xbedc395f	-0.4301252
254	0xbda3a157	-0.079897575
255	0xbea984c7	-0.33109114
